checkpoints_qa/sum_tok_ner_best.pt (torch, 262854 bytes, 7 tensors)

embedding.weight f4 [96, 256]
-0.29576677 -0.9710202 -1.1713182 -2.1382065 -0.14612949 0.5566985 -1.6301365 -1.5293181
-0.5214153 1.0122335 1.5225523 -0.73403716 0.24565692 0.17816314 0.9498885 -2.3336132
-1.1086284 -0.25325555 -0.27872616 0.8868426 0.4236165 -0.025016531 0.86599106 -0.7465606
-0.36809894 -0.79954356 0.29121125 -0.9798366 0.43132636 1.3320006 -0.7013379 0.34959793
0.66641146 1.6202972 -0.22382961 -1.4588143 1.0311869 -1.578991 0.49650398 0.9968475
-0.06517708 -0.27884522 0.78073233 0.8904401 -1.6458637 -0.40103728 -0.75328296 -2.0106952
0.77654374 0.026625857 0.34689987 0.65495974 1.9373468 1.4008639 -0.9413726 -0.68022305
-1.591454 0.22655314 -0.5471586 0.992041 -0.32336944 -2.297181 -1.1766815 0.8548644
0.41522923 1.5200491 -0.2428167 2.1476164 0.7195128 -1.3616604 0.7731754 -2.1162035
-1.5484194 -1.4242318 -1.2367496 1.9325987 0.26029536 -1.073918 -1.588108 -0.5347608
-0.29982883 1.0473856 -0.124772675 0.5231773 1.771394 -0.4494183 0.041742526 -1.882314
-0.62931246 1.3281134 -1.0096656 -0.056348626 -1.0662475 0.27457312 -0.945012 -1.0198697
-0.41416278 1.880894 -0.21613699 1.0105313 -0.50181466 0.3629356 -1.3863387 0.21704414
0.79010683 -2.155733 -0.32574221 0.41617772 -0.4937967 0.25913423 -1.2352937 -2.0537434
0.08507872 -0.5115465 1.3759658 -0.4193091 -1.649115 0.46687236 1.8076787 0.50468355
0.28230074 -0.9045077 0.11196303 0.9258761 0.25587177 -1.0841343 1.1487026 -0.48185542
0.31745234 -0.31461316 0.22428371 0.5719353 -0.57095367 0.13573657 -0.5891957 0.8929996
-0.7674001 -0.99736387 0.17238557 -0.497847 0.84116524 -0.61422014 1.2744251 -0.4858641
-0.5959256 1.1720861 -0.6727372 0.791146 -0.22036976 0.14676842 0.18889302 -0.86900467
1.4600147 0.045126613 1.4206582 -0.41125202 0.56580204 0.6916178 1.6242657 0.82576364
-1.4346179 -0.3474353 -0.17078051 -2.1586363 -0.07422553 -0.58122313 1.0306563 0.59237814
-0.5723765 -1.1756252 0.5594433 0.1937162 0.8137361 0.05820783 -1.1969858 -0.7028623
-2.1971862 0.22833519 -1.24869 1.2161021 0.7808307 -1.7182584 1.3216165 0.443355
0.9173403 0.046012554 -1.3164073 -0.53405446 2.4384434 0.10267768 0.2054832 1.4389098
-1.5402243 0.52628905 -0.06284126 1.1714448 0.47810385 -0.062016387 -1.5319343 -0.5766611
0.20385693 0.7611216 0.26981914 0.3047786 0.3069075 -0.16225933 0.68616575 1.1641088
0.1688999 -0.8984473 -0.4169354 0.2070982 0.560735 -0.47206423 0.7097679 1.487905
0.41654798 0.6220363 0.48786333 0.30148298 -2.0554338 -0.13987629 -1.1434623 -0.6924861
-1.7841355 0.354472 -0.96162045 -0.7029886 0.22350374 -0.9763751 0.250222 2.9067893
0.18282904 0.5106235 0.21723881 0.0067031905 1.657904 -0.11380309 1.65884 0.20956726
-2.207111 -0.72381186 0.3588425 0.55044365 0.15617652 -0.80883485 -0.36090773 -0.602282
0.25801012 0.76725316 0.31783628 -0.08925755 -0.3379228 -1.1078758 -0.37367904 0.9438838
00000000: be6e 97be c894 78bf c1ed 95bf 60d8 08c0
00000010: f8a2 15be cb83 0e3f 50a8 d0bf b2c0 c3bf
00000020: 797b 05bf de90 813f fee2 c23f dce9 3bbf
00000030: 7d8d 7b3e 6670 363e e52b 733f eb59 15c0
00000040: 89e7 8dbf b6aa 81be 32b5 8ebe 1e08 633f
00000050: 43e4 d83e 78ef ccbc 97b1 5d3f 981e 3fbf
00000060: 7777 bcbe e3ae 4cbf a419 953e 92d6 7abf
00000070: cfd6 dc3e ff7e aa3f e18a 33bf 80fe b23e
00000080: f199 2a3f e665 cf3f 9733 65be 6dba babf
00000090: effd 833f 611c cabf c535 fe3e 6631 7f3f
000000a0: 907b 85bd cdc4 8ebe 13de 473f e2f3 633f
000000b0: a9ab d2bf c254 cdbe 27d7 40bf 3baf 00c0
000000c0: 92cb 463f 781e da3c dc9c b13e 71ab 273f
000000d0: fbfa f73f 824f b33f cbfd 70bf 1923 2ebf
000000e0: c4b4 cbbf 8cfd 673e 9612 0cbf 66f6 7d3f
000000f0: ae90 a5be 0305 13c0 809d 96bf 65d8 5a3f
00000100: ed98 d43e f890 c23f f1a4 78be 8c72 0940
00000110: fe31 383f e34a aebf d3ee 453f e16f 07c0
00000120: 9b32 c6bf 3a4d b6bf d04d 9ebf 655f f73f
00000130: 6f45 853e 2576 89bf 1f47 cbbf 15e6 08bf
00000140: 2a83 99be bb10 863f d188 ffbd f3ee 053f
00000150: 0abd e23f 281a e6be 36fa 2a3d aaef f0bf
00000160: 9f1a 21bf 9fff a93f b93c 81bf d1cd 66bd
00000170: cc7a 88bf d994 8c3e 4eec 71bf 178b 82bf
00000180: 250d d4be 22c1 f03f 0453 5dbe 1759 813f
00000190: ed76 00bf b2d2 b93e 8c73 b1bf d240 5e3e
000001a0: 7144 4a3f 88f7 09c0 afc7 a6be 3f15 d53e
000001b0: ecd2 fcbe 3ead 843e 1b1e 9ebf 8870 03c0
000001c0: c03d ae3d b6f4 02bf a61f b03f afaf d6be
000001d0: 3316 d3bf e509 ef3e 0462 e73f f132 013f
000001e0: b989 903e d18d 67bf e04c e53d 3706 6d3f
000001f0: a001 833e eac4 8abf b008 933f c1b5 f6be
00000200: 1d89 a23e fa14 a1be a1aa 653e 5a6a 123f
00000210: 052a 12bf 87fe 0a3e 88d5 16bf 9f9b 643f
00000220: 5574 44bf 3d53 7fbf d885 303e cde5 febe
00000230: 9b56 573f 883d 1dbf 5d20 a33f 2ec3 f8be
00000240: 958e 18bf eb06 963f 8138 2cbf 8b88 4a3f
00000250: 9ca8 61be 764a 163e 2c6d 413e 1777 5ebf
00000260: c3e1 ba3f afd6 383d 21d8 b53f a08f d2be
00000270: 67d8 103f dd0d 313f f0e7 cf3f 3f65 533f
00000280: 8fa1 b7bf 0ae3 b1be 16e1 2ebe 1927 0ac0
00000290: 8e03 98bd 0acb 14bf 8cec 833f 18a6 173f
000002a0: 4487 12bf e37a 96bf ad37 0f3f 8a5d 463e
000002b0: 0251 503f 556b 6e3d d536 99bf c9ee 33bf
000002c0: b39e 0cc0 b3d0 693e 13d5 9fbf 3ca9 9b3f
000002d0: 85e4 473f e4ef dbbf bb2a a93f 6dff e23e
000002e0: d0d6 6a3f a977 3c3d 0980 a8bf cbb7 08bf
000002f0: 750f 1c40 ad48 d23d 306a 523e 322e b83f
00000300: 1226 c5bf e1ba 063f ebb2 80bd e7f1 953f
00000310: 07ca f43e e504 7ebd 6c16 c4bf 10a0 13bf
00000320: dfbf 503e ddd8 423f bc25 8a3e f10b 9c3e
00000330: fb22 9d3e 4f27 26be 8fa8 2f3f 8401 953f
00000340: 18f4 2c3e a400 66bf 8f78 d5be 8d11 543e
00000350: 548c 0f3f 67b2 f1be 59b3 353f ac73 be3f
00000360: c745 d53e c53d 1f3f 39c9 f93e fa5b 9a3e
00000370: 3a8c 03c0 bb3b 0fbe f95c 92bf c546 31bf
00000380: 8d5e e4bf 5b7d b53e c22c 76bf 10f7 33bf
00000390: 2ade 643e b8f3 79bf 191d 803e d608 3a40
000003a0: 8937 3b3e 39b8 023f da73 5e3e 70a6 db3b
000003b0: 3336 d43f 9811 e9bd de54 d43f cd98 563e
000003c0: 4e41 0dc0 bc4b 39bf 34ba b73e e0e9 0c3f
000003d0: bdec 1f3e cd0f 4fbf e6c8 b8be 272f 1abf
000003e0: e719 843e b46a 443f 70bb a23e aacc b6bd
000003f0: 3804 adbe e0ce 8dbf dc52 bfbe 5ea2 713f

lstm.weight_ih_l0 f4 [128, 256]
0.11247297 -0.085727386 0.012825869 -0.0023647044 0.04537971 0.037197426 0.11999457 -0.10412715
0.08501851 0.037413657 0.05586905 0.032192916 -0.010972089 0.09045626 0.06840232 0.0222288
0.06658397 0.11889897 -0.22681513 -0.0006833256 -0.090298176 0.08293172 0.1942671 -0.036293365
0.19301645 0.10379852 0.09088269 -0.012102074 -0.008212734 -0.06797113 0.13384023 -0.14376096
-0.14043467 0.049179476 0.12986639 0.19013627 0.13963255 0.13325468 -0.17173785 0.06434635
0.057868026 0.018736739 0.15604225 -0.013210798 0.08500227 0.13632357 0.1879591 0.101100646
0.059832543 -0.023748575 0.07492911 -0.0625635 0.1605956 -0.07646895 -0.13067454 0.08124203
-0.1490537 -0.14792095 -0.12388987 0.076204725 -0.05214145 -0.13570942 -0.26853538 -0.22133124
-0.25871235 0.076203 -0.12858967 0.027134266 0.0040860646 -0.103072256 0.047372334 -0.035259094
0.18605179 0.0031948385 0.09457275 0.009504372 0.02030724 0.17230168 -0.12126283 -0.05348309
-0.020291999 -0.12024981 -0.029601036 0.24302474 -0.05166996 -0.03660185 0.19014986 -0.16060103
-0.11405196 0.09129786 0.047521587 0.11505794 0.0025512022 0.13852517 0.11671324 0.013923617
0.00084742735 0.06998553 -0.08125061 0.020153843 0.0028971636 0.21246506 0.18794096 -0.2118734
-0.042209804 -0.08686226 0.23245287 -0.08949149 0.119256735 -0.1074714 -0.028371168 -0.12198015
0.14025232 -0.09312661 -0.17276731 -0.061376322 0.051845968 0.08920569 -0.020846216 -0.05892811
0.12892634 0.19559029 0.05987552 -0.055341452 -0.033893388 -0.06369464 -0.033647 -0.03256669
0.04258866 -0.09399019 -0.05492953 0.10497022 -0.06378785 0.06966842 0.16840537 0.16697437
0.23985629 -0.063476756 0.038985476 -0.13686924 0.025067003 0.24725544 0.16206023 0.04786772
0.09432172 -0.19823167 -0.03718168 0.0910664 0.17808051 0.06435389 -0.09711281 0.11275504
-0.13531636 0.17177144 0.04299258 -0.12473766 -0.17252666 0.14171284 -0.14195609 0.23544551
-0.05020041 -0.020347156 0.08812974 0.22170447 -0.08863731 -0.23324247 -0.015791634 0.08105426
0.033087395 0.08905608 -0.16866988 -0.11306573 0.10842188 -0.097589865 0.022459263 -0.11548671
-0.12571758 -0.1992291 0.15215696 -0.16056922 -0.12201139 -0.10337346 0.013613622 0.117433526
0.0031109338 0.06282124 -0.07455538 -0.014087334 -0.074748866 -0.11041094 0.015207498 0.06451193
0.088656075 0.18333435 0.04307464 0.20174845 0.13924868 -0.16519794 0.062840894 -0.097726434
0.06298366 0.009858078 -0.21977568 -0.15698494 -0.024323652 -0.057637855 -0.04132569 0.12617953
0.05704253 0.0332074 -0.1588804 0.06523741 0.22108552 -0.114370175 -0.10880426 0.17473166
0.046194684 0.15822813 0.19091813 0.06742054 -0.13385569 -0.1761431 0.009085963 0.10530168
0.18252642 0.102815546 -0.06381498 0.07990733 -0.07059369 0.13472745 0.105940945 -0.059494443
0.020236295 0.0103575215 0.099052615 0.07921993 0.07947982 -0.1808689 0.19631474 -0.074246414
-0.03846624 -0.08421179 0.0049372534 -0.040195495 0.11400739 -0.07674599 -0.029693363 0.096265905
-0.16947846 -0.05295431 -0.02392759 0.02096974 0.10092251 -0.14535616 -0.08259233 -0.054182157
00000000: 3a58 e63d d791 afbd 9823 523c 28f9 1abb
00000010: 13e0 393d 545c 183d b7bf f53d 9d40 d5bd
00000020: 2f1e ae3d 103f 193d f2d6 643d b8dc 033d
00000030: 47c4 33bc 2241 b93d 8416 8c3d 2c19 b63c
00000040: 2d5d 883d 4e81 f33d 3a42 68be 3421 33ba
00000050: 40ee b8bd 1bd8 a93d f4ed 463e 5aa8 14bd
00000060: 1ba6 453e 5294 d43d b420 ba3d c747 46bc
00000070: b48e 06bc 7334 8bbd 6a0d 093e 1336 13be
00000080: 1bce 0fbe 6b70 493d b2fb 043e 15b3 423e
00000090: d6fb 0e3e ea73 083e 0cdc 2fbe 05c8 833d
000000a0: 0607 6d3d ca7d 993c 8ac9 1f3e 1a72 58bc
000000b0: ac15 ae3d 6898 0b3e 5a78 403e db0d cf3d
000000c0: f812 753d 5f8c c2bc 6f74 993d 4b21 80bd
000000d0: 2c73 243e c19b 9cbd 8ccf 05be 3962 a63d
000000e0: 88a1 18be 9778 17be f9b9 fdbd 3911 9c3d
000000f0: 4692 55bd 69f7 0abe 787d 89be a8a4 62be
00000100: f275 84be 5210 9c3d 03ad 03be ae48 de3c
00000110: 65e4 853b 8c17 d3bd 7e09 423d d76b 10bd
00000120: 5c84 3e3e 7f60 513b 5caf c13d 3ab8 1b3c
00000130: 5e5b a63c da6f 303e a658 f8bd 1611 5bbd
00000140: 683b a6bc 8845 f6bd df7d f2bc 7adb 783e
00000150: e1a3 53bd d2eb 15bd a5b6 423e 9974 24be
00000160: 1394 e9bd 5ffa ba3d ffa5 423d 7fa3 eb3d
00000170: 1232 273b 8bd9 0d3e 5a07 ef3d e21f 643c
00000180: e325 5e3a 9354 8f3d b866 a6bd ac19 a53c
00000190: 57de 3d3b 7190 593e 9873 403e 57f5 58be
000001a0: 30e4 2cbd d7e4 b1bd 2008 6e3e 5047 b7bd
000001b0: e03c f43d f719 dcbd a76a e8bc bbd0 f9bd
000001c0: 4e9e 0f3e 2ab9 bebd eae9 30be bd65 7bbd
000001d0: 705c 543d 79b1 b63d afc5 aabc 9a5e 71bd
000001e0: 4405 043e d248 483e 0940 753d b8ad 62bd
000001f0: cbd3 0abd 5672 82bd 70d1 09bd a664 05bd
00000200: 7271 2e3d ee7d c0bd c9fd 60bd a0fa d63d
00000210: 34a3 82bd 51ae 8e3d 7572 2c3e 54fb 2a3e
00000220: e39c 753e 1a00 82bd 3caf 1f3d 7327 0cbe
00000230: 5159 cd3c 8830 7d3e 1ef3 253e f110 443d
00000240: bf2b c13d 3efd 4abe d14b 18bd 0581 ba3d
00000250: bd5a 363e f9cb 833d 15e3 c6bd 1dec e63d
00000260: 5f90 0abe dae4 2f3e fd18 303d 7576 ffbd
00000270: d4aa 30be 2c1d 113e f05c 11be a118 713e
00000280: f29e 4dbd 14af a6bc 5d7d b43d 7f06 633e
00000290: 7a87 b5bd 1dd7 6ebe 755d 81bc c7ff a53d
000002a0: a686 073d 0963 b63d ccb7 2cbe 018f e7bd
000002b0: 4a0c de3d 32dd c7bd 7dfc b73c 4c84 ecbd
000002c0: 1cbc 00be b702 4cbe 09cf 1b3e 426c 24be
000002d0: 1ce1 f9bd 77b5 d3bd ab0b 5f3c fd80 f03d
000002e0: cfe0 4b3b 6ca8 803d 7eb0 98bd 90ce 66bc
000002f0: ef15 99bd 221f e2bd df28 793c d51e 843d
00000300: 5191 b53d 00bc 3b3e 096f 303d 2597 4e3e
00000310: 3597 0e3e a629 29be bab2 803d cc24 c8bd
00000320: 94fd 803d c783 213c e00c 61be a9c0 20be
00000330: 6542 c7bc ac15 6cbd 2045 29bd 3535 013e
00000340: 6ea5 693d 7c04 083d 8bb1 22be 319b 853d
00000350: 3e64 623e e93a eabd c5d4 debd dbec 323e
00000360: a336 3d3d 8e06 223e 0b80 433e c813 8a3d
00000370: 7711 09be db5e 34be 4add 143c 68a8 d73d
00000380: 35e8 3a3e f590 d23d 6eb1 82bd 74a6 a33d
00000390: 6d93 90bd fef5 093e 91f7 d83d 72b0 73bd
000003a0: 96c6 a53c 98b2 293c 19dc ca3d 0f3e a23d
000003b0: 51c6 a23d b235 39be bb06 493e 810e 98bd
000003c0: c78e 1dbd 3b77 acbd afc8 a13b 08a4 24bd
000003d0: b57c e93d 002d 9dbd 7f3f f3bc 0f27 c53d
000003e0: c38b 2dbe 9ee6 58bd cb03 c4bc bbc8 ab3c
000003f0: 76b0 ce3d 3fd8 14be 2b26 a9bd 1cee 5dbd

lstm.weight_hh_l0 f4 [128, 32]
-0.24284433 -0.20131798 0.08679274 -0.059753776 0.2894832 0.07995719 0.2433513 0.103896976
0.1806534 -0.30329862 0.03406789 0.05561772 -0.031643447 0.08985186 -0.120565064 0.04394816
0.057634402 0.098429956 0.06836154 -0.15244977 0.13574374 -0.2282972 -0.03773912 -0.099452585
-0.2732709 -0.028890578 -0.14081736 0.034710485 -0.14524314 -0.13933443 -0.08584786 0.0146238385
-0.012757473 0.024232984 0.16776182 0.0019950327 -0.028489776 0.017701257 0.026868958 -0.045523953
0.109726444 0.10806955 -0.012227418 -0.101805665 0.057666827 0.2118366 -0.22397813 0.06547069
-0.06426739 -0.025497656 0.22569975 -0.048527904 0.19758411 0.048742875 -0.03829602 -0.218511
0.17946298 -0.17617653 0.0014788171 0.16366868 -0.054347787 -0.06030442 0.05166406 0.014702936
-0.23998399 -0.00030268612 -0.03695779 0.12432817 -0.033703204 0.22847286 0.24174504 0.2547101
0.19282797 -0.09281168 -0.020071877 -0.028325547 -0.1652413 -0.033932313 0.09102529 -0.07529764
0.044625998 -0.043104447 -0.061931454 -0.25871155 0.2519288 -0.04868127 0.1593454 -0.21728924
-0.16038324 0.122749545 -0.20202528 -0.045170363 -0.095275 -0.124597326 -0.03936971 0.044681877
0.07272996 0.08282241 0.06681335 -0.031967226 0.0061523993 -0.023419742 0.19523536 0.050195612
-0.045120303 0.0070995116 0.10397308 0.22202507 -0.03528227 0.124664105 0.005690122 -0.010194044
0.07805253 0.1309496 0.012081474 0.13051347 0.18297917 0.063975126 0.049268022 0.043658383
-0.0538655 -0.13869475 -0.09959836 0.22523177 -0.20136648 -0.14090437 -0.046881627 0.06699772
0.07972891 -0.0030479569 0.16849133 0.1657983 -0.019914843 -0.12906528 -0.097934484 -0.044330746
-0.09470069 -0.21635729 0.15054034 0.08636588 -0.21604367 -0.0050215805 -0.08547194 0.1780979
0.116756395 0.14579144 -0.035971124 -0.19770044 0.21504459 0.04092283 0.0060213953 -0.033820983
-0.10046123 -0.020623684 -0.08629713 0.12181736 0.04012335 -0.020485893 0.035969287 0.074417025
-0.18998426 -0.10621288 0.09483876 0.11827048 0.094750725 -0.094082125 0.024770483 0.048493735
0.2192714 -0.0028072814 0.06869865 0.054879084 -0.17875616 0.26317537 -0.104478724 -0.082561076
0.18679133 0.12010367 0.23660888 -0.16912004 0.11085792 -0.18753487 0.23905276 -0.10499693
0.044898797 -0.064022124 0.0066576754 -0.044809893 -0.06897902 -0.01230287 0.030054761 0.18833978
-0.056399044 -0.12265183 0.07671164 -0.03693145 0.20724355 -0.101465255 0.040688224 -0.05644361
0.08958439 0.10101911 -0.060047217 -0.10218674 -0.113078445 -0.055293716 0.06014476 -0.15083888
0.17167895 0.04419196 0.1865669 -0.0023589318 -0.129256 -0.18156336 -0.02486003 0.044628013
-0.008465299 -0.058911286 0.03358658 0.11898137 -0.011614489 -0.21893227 -0.007844276 -0.027382113
-0.07684804 -0.035365123 -0.084781155 0.21516915 -0.032040276 -0.11054666 0.2752324 0.018770346
0.17285474 -0.059987277 -0.02071348 0.11448544 -0.010780124 0.2600972 -0.084049955 0.2821432
0.17306653 0.11886592 0.036610626 0.011735661 0.03470092 0.0045678825 -0.0033425193 -0.23305398
-0.15114003 -0.1448421 0.032786142 0.022031521 -0.2088612 0.059233874 -0.010123106 0.3123552
00000000: 2fac 78be 4d26 4ebe 64c0 b13d 60c0 74bd
00000010: 2437 943e 98c0 a33d 1531 793e f0c7 d43d
00000020: 34fd 383e f549 9bbe c68a 0b3d 68cf 633d
00000030: 8f9c 01bd 4104 b83d d1ea f6bd fc02 343d
00000040: 0d12 6c3d a595 c93d 2301 8c3d cb1b 1cbe
00000050: 6800 0b3e bec6 69be 5694 1abd ccad cbbd
00000060: 2aea 8bbe efab ecbc 6d32 10be 952c 0e3d
00000070: 9eba 14be afad 0ebe 01d1 afbd d398 6f3c
00000080: b804 51bc 4084 c63c c1c9 2b3e 18bf 023b
00000090: 6463 e9bc 3a02 913c 4a1c dc3c 5377 3abd
000000a0: 42b8 e03d 9153 dd3d 8255 48bc 7d7f d0bd
000000b0: 0d34 6c3d b2eb 583e 865a 65be 7f15 863d
000000c0: 9f9e 83bd 76e0 d0bc d61d 673e 32c5 46bd
000000d0: 7d53 4a3e 9ca6 473d 4adc 1cbd 59c1 5fbe
000000e0: 25c5 373e 9f67 34be ded4 c13a c398 273e
000000f0: c99b 5ebd c401 77bd b29d 533d 95e4 703c
00000100: 5dbe 75be d8b1 9eb9 0d61 17bd c59f fe3d
00000110: 5f0c 0abd caf4 693e 038c 773e 5d69 823e
00000120: b274 453e 0d14 bebd c76d a4bc fa0a e8bc
00000130: 0435 29be 9cfc 0abd 786b ba3d a635 9abd
00000140: c0c9 363d 4a8e 30bd d6ab 7dbd d775 84be
00000150: d0fc 803e 0366 47bd 712b 233e 1281 5ebe
00000160: 813b 24be 1d64 fb3d b7df 4ebe 8f04 39bd
00000170: 8a1f c3bd e22c ffbd 2242 21bd 5804 373d
00000180: 72f3 943d cc9e a93d 70d5 883d 11f0 02bd
00000190: 119a c93b c2da bfbc c7eb 473e ea99 4d3d
000001a0: 11d0 38bd 05a3 e83b d7ef d43d 8a5a 633e
000001b0: 2484 10bd e54f ff3d 3474 ba3b eb04 27bc
000001c0: 01da 9f3d a717 063e 60f1 453c 53a5 053e
000001d0: e45e 3b3e 6405 833d 44cd 493d 22d3 323d
000001e0: 12a2 5cbd ff05 0ebe 3afa cbbd 28a3 663e
000001f0: 0433 4ebe 3c49 10be f306 40bd 1a36 893d
00000200: e948 a33d 3bc0 47bb fe88 2c3e 08c7 293e
00000210: 7424 a3bc b029 04be e091 c8bd 2894 35bd
00000220: 6ff2 c1bd c48c 5dbe 3f27 1a3e 98e0 b03d
00000230: 8d3a 5dbe 128c a4bb ea0b afbd 4c5f 363e
00000240: fa1d ef3d 5a4a 153e 7556 13bd fc71 4abe
00000250: a634 5c3e b39e 273d 204f c53b df87 0abd
00000260: 9ebe cdbd 00f3 a8bc 8dbc b0bd 617b f93d
00000270: 6258 243d 08d2 a7bc 8854 133d f467 983d
00000280: 3c8b 42be 2386 d9bd d33a c23d cb37 f23d
00000290: ab0c c23d 21ae c0bd 78eb ca3c 5ea1 463d
000002a0: af88 603e 5efa 37bb e1b1 8c3d e4c8 603d
000002b0: db0b 37be ecbe 863e f1f8 d5bd c815 a9bd
000002c0: 3a46 3f3e eaf8 f53d 9949 723e ce2d 2dbe
000002d0: 7a09 e33d 2409 40be 3fca 743e a108 d7bd
000002e0: cde7 373d 081e 83bd a128 da3b 948a 37bd
000002f0: df44 8dbd fa91 49bc 6735 f63c 25dc 403e
00000300: af02 67bd e230 fbbd fe1a 9d3d 6f45 17bd
00000310: a737 543e 04cd cfbd b2a8 263d 6a31 67bd
00000320: 0578 b73d 1be3 ce3d 12f4 75bd 4847 d1bd
00000330: ac95 e7bd aa7b 62bd 5a5a 763d 8275 1abe
00000340: 9bcc 2f3e a102 353d 650b 3f3e 4f98 1abb
00000350: af5b 04be bfeb 39be 43a7 cbbc ddcb 363d
00000360: 0ab2 0abc f64c 71bd 1592 093d 81ac f33d
00000370: b34a 3ebc c82f 60be 4785 00bc 7450 e0bc
00000380: 8162 9dbd 05db 10bd bea1 adbd 4d55 5c3e
00000390: aa3c 03bd 4a66 e2bd 43eb 8c3e 45c4 993c
000003a0: d500 313e 38b5 75bd 51af a9bc 5877 ea3d
000003b0: 1e9f 30bc 762b 853e 6222 acbd 1375 903e
000003c0: 5a38 313e fa6f f33d 06f5 153d ee46 403c
000003d0: 8d22 0e3d 2dae 953b 2b0e 5bbb b4a5 6ebe
000003e0: 74c4 1abe 7d51 14be c34a 063d 737b b43c
000003f0: b6df 55be 389f 723d 62db 25bc 05ed 9f3e

lstm.bias_ih_l0 f4 [128]
0.09439136 0.09473672 -0.061260894 0.0025196103 0.03463767 0.19210856 0.09530592 0.25616008
0.19193757 0.06286333 -0.022226248 0.116297685 -0.10194269 0.21206786 0.20168559 0.13268961
0.08426632 0.013371054 -0.011046688 -0.014156045 0.06981961 -0.10072403 -0.029102892 0.10035583
0.2124149 0.042010255 -0.08678132 0.20907757 0.006289849 0.23301561 0.21621881 0.13733217
-0.1805145 -0.030628031 0.18481939 0.21265498 -0.025440494 0.10490905 0.09319119 -0.14402549
-0.035012335 -0.017249152 0.033342008 0.066400416 0.16639325 0.02657605 0.15925261 -0.07914488
0.041050054 -0.011734715 0.06782181 0.1467789 -0.0075333933 0.13614106 -0.018579818 -0.035847228
0.09766279 -0.08900696 -0.10087293 -0.1408761 0.2112799 0.04051873 0.039181866 -0.04088623
0.10549593 -0.15523994 0.07574413 0.067085646 0.13528231 -0.16316973 0.004536415 -0.059951067
-0.11185383 -0.0928248 -0.055999782 -0.026971295 0.10165836 0.12892675 0.06595578 0.05379039
-0.08173388 0.1662831 0.09714226 0.13473627 0.12503019 0.08154689 0.16905133 0.11747619
2.359966e-05 -0.15951201 0.062073927 0.15717481 -0.10767095 0.08803863 -0.18840937 -0.03308251
0.17930628 0.1511337 0.19803931 0.022776656 -0.007047553 0.19187488 0.20961756 -0.06618482
-0.08531985 0.18504988 -0.061529398 -0.07767165 0.08123869 0.12810981 0.1910194 0.19974808
-0.07331983 0.09115764 0.0843896 -0.026884234 0.20780395 0.09682753 0.0377026 0.10635117
0.04086251 0.03527021 0.06658477 -0.051619012 0.0627607 -0.08596765 0.11538913 0.1997979
00000000: 4250 c13d 5305 c23d b4ec 7abd 0c20 253b
00000010: 3be0 0d3d 1bb8 443e c02f c33d 6a27 833e
00000020: 488b 443e 7dbe 803d d213 b6bc 7b2d ee3d
00000030: 54c7 d0bd 5128 593e ab86 4e3e c9df 073e
00000040: d293 ac3d 4412 5b3c 2bfd 34bc c2ee 67bc
00000050: 95fd 8e3d 6648 cebd 3069 eebc 5b87 cd3d
00000060: 4b83 593e f212 2c3d 68ba b1bd 6e18 563e
00000070: 141b ce3b a59b 6e3e 7768 5d3e cea0 0c3e
00000080: cbd8 38be a3e7 fabc 4b41 3d3e 3ac2 593e
00000090: 9568 d0bc 8eda d63d 06db be3d 6b7b 13be
000000a0: 1869 0fbd 184e 8dbc a191 083d f1fc 873d
000000b0: fe62 2a3e 04b6 d93c 1e13 233e b616 a2bd
000000c0: 1a24 283d f642 40bc 29e6 8a3d 354d 163e
000000d0: afda f6bb 9068 0b3e b434 98bc 8bd4 12bd
000000e0: 6e03 c83d 4849 b6bd 7796 cebd d341 10be
000000f0: c259 583e f8f6 253d 2a7d 203d 5278 27bd
00000100: 400e d83d 38f7 1ebe bd1f 9b3d 3364 893d
00000110: 7287 0a3e f715 27be 35a6 943b 408f 75bd
00000120: 9f13 e5bd ee1a bebd 0760 65bd e8f2 dcbc
00000130: 4232 d03d 6005 043e d313 873d 5053 5c3d
00000140: 1864 a7bd 1e46 2a3e 85f2 c63d 4ef8 093e
00000150: ea07 003e 0e02 a73d cb1b 2d3e 5b97 f03d
00000160: e2f7 c537 1e57 23be 3b41 7e3d 6ff2 203e
00000170: 9682 dcbd 994d b43d 63ee 40be 8781 07bd
00000180: 119c 373e cbc2 1a3e d1ca 4a3e 1c96 ba3c
00000190: 29ef e6bb d97a 443e fca5 563e e88b 87bd
000001a0: 2cbc aebd b77d 3d3e 4006 7cbd 5012 9fbd
000001b0: 7860 a63d 382f 033e 979a 433e c38a 4c3e
000001c0: b528 96bd dbb0 ba3d 74d4 ac3d 533c dcbc
000001d0: 8fca 543e 834d c63d 0b6e 1a3d a4ce d93d
000001e0: 735f 273d 7f77 103d 995d 883d 756e 53bd
000001f0: af88 803d cf0f b0bd 2351 ec3d d297 4c3e

lstm.bias_hh_l0 f4 [128]
0.27414817 0.027014237 0.14498895 0.11443026 -0.089969024 0.26605836 0.118236214 -0.03813683
0.12573798 -0.0026958617 0.11597956 -0.050990377 0.13299814 0.13393998 0.08935047 0.18386367
0.20238674 0.14486773 0.22927137 0.12926129 -0.03883716 0.12342499 0.01710728 0.048263747
0.048122235 0.16102995 -0.08493583 -0.03373784 -0.0972443 0.18320416 -0.07492974 0.1877727
-0.16283561 -0.062943764 -0.022085471 0.20083465 0.083723255 -0.14695045 0.111209005 -0.044771824
0.017291568 -0.101316795 0.07911523 -0.10709886 -0.064904295 0.2288265 -0.15029773 0.19752267
0.21208495 0.096070126 -0.0431972 -0.0059912074 0.060562182 -0.05916395 0.17667548 0.1023459
-0.124949805 -0.14071015 -0.08262719 -0.11015659 0.0040323217 0.12891859 -0.042180773 0.010795148
0.03943186 0.095521614 0.084599786 0.09478707 0.09915687 0.08060684 0.20582756 -0.039677072
0.016264651 -0.08560948 -0.09811111 -0.0074038417 0.0018030114 0.07452797 -0.020643035 0.029959328
0.12587415 0.12956512 0.031517018 0.0023190212 0.16290303 -0.17312849 0.16066827 -0.11600422
-0.18449019 -0.14463821 -0.062359795 0.14189911 -0.17168358 -0.15325995 0.13988785 -0.07405725
0.066564 -0.096395135 0.21171492 0.22940816 -0.10567437 0.1447219 0.1423011 0.15708096
-0.06316424 0.10742538 -0.065057926 -0.0063409614 0.17137086 0.104540706 0.16669852 0.04827845
0.2193774 -0.07635802 0.21440032 0.12518665 0.07373045 -0.030590726 0.085632555 -0.039889496
0.07905997 0.18840899 0.13168477 0.17679036 0.28779384 0.11838568 0.09052254 0.23641954
00000000: 265d 8c3e f64c dd3c fc77 143e 6a5a ea3d
00000010: ae41 b8bd cd38 883e d425 f23d 5d35 1cbd
00000020: 75c1 003e 0ead 30bb b186 ed3d 49db 50bd
00000030: aa30 083e 9027 093e 61fd b63d c246 3c3e
00000040: 783e 4f3e 3558 143e 1dc6 6a3e 125d 043e
00000050: b713 1fbd 3ec6 fc3d 9124 8c3c 35b0 453d
00000060: d21b 453d 09e5 243e d6f2 adbd b030 0abd
00000070: 0528 c7bd df99 3b3e c374 99bd 7d47 403e
00000080: 61be 26be a9e8 80bd 97ec b4bc 99a7 4d3e
00000090: 1977 ab3d 2e7a 16be 8cc1 e33d a962 37bd
000000a0: 0ca7 8d3c 2e7f cfbd 2a07 a23d a656 dbbd
000000b0: 8bec 84bd 7e51 6a3e a6e7 19be 6243 4a3e
000000c0: cc2c 593e 6ac0 c43d 8cef 30bd e451 c4bb
000000d0: 0d10 783d e655 72bd 6bea 343e ba9a d13d
000000e0: afe5 ffbd 5216 10be 7238 a9bd c799 e1bd
000000f0: 9121 843b 3c03 043e bfc5 2cbd 22de 303c
00000100: 4d83 213d d6a0 c33d a742 ad3d b91f c23d
00000110: c212 cb3d 3315 a53d 76c4 523e 6d84 22bd
00000120: 723d 853c 0654 afbd 7aee c8bd ed9b f2bb
00000130: 0653 ec3a 1fa2 983d 951b a9bc 446d f53c
00000140: 27e5 003e b8ac 043e fd17 013d b8fa 173b
00000150: 0dd0 263e 9848 31be 3986 243e 9f93 edbd
00000160: ffea 3cbe 0a1c 14be fc6c 7fbd 004e 113e
00000170: d2cd 2fbe 2df0 1cbe c33e 0f3e 54ab 97bd
00000180: b552 883d d06a c5bd cccb 583e f9e9 6a3e
00000190: ce6b d8bd fa31 143e 61b7 113e d5d9 203e
000001a0: 415c 81bd d601 dc3d 173d 85bd d7c7 cfbb
000001b0: d87b 2f3e 7019 d63d 04b3 2a3e a0bf 453d
000001c0: 78a4 603e 9861 9cbd c28b 5b3e ee30 003e
000001d0: fdff 963d 6799 fabc 1f60 af3d 2b63 23bd
000001e0: 32ea a13d 49ee 403e 5fd8 063e 8808 353e
000001f0: b759 933e 3174 f23d e263 b93d f717 723e

fc.weight f4 [96, 32]
0.04416066 0.18273623 -0.0859474 -0.20378144 -0.27131933 0.008968266 -0.09144977 -0.1806051
-0.17043562 -0.022858568 -0.19583869 -0.12732224 0.04670639 -0.013285046 0.0048670107 -0.18598813
-0.20625578 -0.24641125 -0.16322887 0.08185512 -0.13100058 0.05305077 -0.099476606 0.060138986
0.11411408 0.12915331 0.13384025 -0.07879281 0.27940512 0.21243715 0.2642808 -0.29638714
0.2889801 -0.17532672 0.041250013 0.043090805 0.29805693 -0.20926541 0.13393895 0.31223875
0.19708589 -0.20947179 0.17030592 -0.048634857 -0.15795273 0.16034737 -0.33987334 0.2053411
0.19123608 -0.24737526 0.020980353 -0.12069146 0.14760791 -0.23281568 -0.051017474 -0.13637953
-0.09131825 0.06674445 -0.16347513 0.07040212 -0.24591343 -0.2106531 0.27378178 0.31026345
0.26870877 0.3019991 -0.1726213 0.033822883 -0.26819748 0.16168997 -0.06400297 -0.28855193
0.010330977 0.05319902 -0.09757659 -0.1379474 0.21091738 0.038828347 0.13671403 -0.26331663
-0.15719903 -0.15964898 -0.21451332 0.020699847 -0.19134492 -0.055881567 -0.229755 0.25106722
0.14681053 -0.05503648 0.107441895 0.010930687 0.028327249 0.01248641 0.16022372 -0.08577941
0.23351574 0.15277529 -0.2678578 0.018988306 -0.24400502 -0.0014189132 -0.010404539 -0.024971044
-0.106255315 -0.026014855 -0.14392366 -0.25191665 -0.034824222 -0.0196336 0.1033955 -0.28812918
-0.059855 -0.2717393 -0.22094604 0.051200993 -0.29131442 0.035371616 -0.0015456538 0.080876075
0.26697472 0.12164702 -0.041687746 -0.044531956 0.06559505 0.21131152 0.0939922 -0.21661268
0.073768385 0.2982767 -0.1723915 -0.21711051 -0.02379507 0.1882514 -0.23925574 -0.22786786
-0.16167985 0.013207592 -0.14846127 2.413601e-05 0.013550978 -0.03754979 0.24548931 -0.2457247
0.046306696 -0.12290414 -0.0072905472 0.0017664293 -0.19960319 0.046307344 0.050579086 0.25838366
-0.03701979 0.089840844 0.025931321 -0.03992456 0.1529965 0.18607122 0.13490112 -0.01389891
0.24433066 0.19056103 -0.17845884 -0.18704222 -0.28132612 0.035657346 -0.17734423 -0.014632429
-0.26558435 -0.019396028 0.00013145039 -0.17870438 0.008819283 -0.107245095 0.14571555 0.015111935
-0.24288306 -0.035112333 -0.2114079 0.18629539 -0.01582659 0.0033609443 -0.25798932 0.15704569
0.0924938 0.051437564 0.15720043 -0.010359784 0.22902246 0.17392242 0.26905563 -0.052754905
0.19696 0.09289491 -0.032532644 -0.22778824 -0.0076526 0.0759188 -0.0059063467 -0.20872898
-0.059180927 0.28131536 -0.21306586 -0.24355143 0.0022450457 -0.0017814214 0.13082556 -0.080884404
-0.17300157 -0.0072699785 -0.06377665 -0.00961425 -0.13620791 0.10659477 -0.13134187 0.0049320236
0.010385501 0.009929291 0.2606432 0.020340823 0.29825962 0.08958881 0.123846196 -0.19329147
0.18884288 -0.013595259 -0.2273438 -0.011914442 -0.042146426 0.23054208 -0.022697305 -0.27833414
-0.18671103 0.17004783 -0.014680964 -0.1870603 0.01876838 0.038936745 0.24816106 -0.29036152
-0.10394293 -0.14463182 -0.16122457 0.047579106 -0.16606152 0.17137925 -0.2559449 0.009002434
0.13373844 0.061283648 0.038408913 0.022656133 0.08377079 0.08012473 0.19401386 -0.16836338
00000000: cfe1 343d 351f 3b3e 3105 b0bd 15ac 50be
00000010: 5eea 8abe a2ef 123c 044a bbbd 8bf0 38be
00000020: ad86 2ebe e441 bbbc f089 48be c360 02be
00000030: 334f 3f3d 86a9 59bc 727b 9f3b ac73 3ebe
00000040: b734 53be 3b53 7cbe 7825 27be a8a3 a73d
00000050: 0425 06be c44b 593d 64ba cbbd 4c54 763d
00000060: a5b4 e93d c440 043e 6b0d 093e 205e a1bd
00000070: 300e 8f3e 2089 593e d04f 873e 0ec0 97be
00000080: 33f5 933e d988 33be c6f5 283d fc7f 303d
00000090: eb9a 983e ac49 56be 4b27 093e c2dd 9f3e
000000a0: e2d0 493e c67f 56be ad64 2e3e 5835 47bd
000000b0: 5cbe 21be 1a32 243e e103 aebe f044 523e
000000c0: 64d3 433e f14f 7dbe fdde ab3c 162d f7bd
000000d0: 8726 173e 3c67 6ebe b3f7 50bd 13a7 0bbe
000000e0: 1005 bbbd 50b1 883d 0666 27be fd2e 903d
000000f0: bbd0 7bbe 72b5 57be 202d 8c3e dada 9e3e
00000100: 3294 893e a09f 9a3e a3c3 30be dd89 0a3d
00000110: 2e51 89be 0e92 253e fd13 83bd 14bd 93be
00000120: 4243 293c 37e7 593d 3cd6 c7bd 1542 0dbe
00000130: bafa 573e 790a 1f3d c3fe 0b3e 70d1 86be
00000140: c8f8 20be 067b 23be 61a9 5bbe ba92 a93c
00000150: ecef 43be 12e4 64bd e544 6bbe e28b 803e
00000160: 8055 163e ef6d 61bd 7f0a dc3d a016 333c
00000170: 8c0e e83c cd93 4c3c b011 243e 1ead afbd
00000180: c01e 6f3e 2071 1c3e a824 89be 5d8d 9b3c
00000190: 74dc 79be d4fa b9ba cd77 2abc 1390 ccbc
000001a0: 639c d9bd 1b1d d5bc b960 13be 38fb 80be
000001b0: d8a3 0ebd a5d6 a0bc 05c1 d33d ab85 93be
000001c0: 842a 75bd 6a21 8bbe ae3f 62be 22b8 513d
000001d0: 2a27 95be d4e1 103d 8997 caba 5ba2 a53d
000001e0: e9b0 883e 1322 f93d c5c0 2abd 2467 36bd
000001f0: b356 863d 0c62 583e fc7e c03d b7cf 5dbe
00000200: e113 973d b9b7 983e 6687 30be 3852 5ebe
00000210: e1ed c2bc fac4 403e 75ff 74be 3156 69be
00000220: 678f 25be a864 583c 3b06 18be b077 ca37
00000230: ec04 5e3c cfcd 19bd 8d61 7b3e 419f 7bbe
00000240: 17ac 3d3d 2ab5 fbbd 8be5 eebb 8887 e73a
00000250: c764 4cbe c5ac 3d3d 042c 4f3d dd4a 843e
00000260: 10a2 17bd 7afe b73d ec6d d43c ef87 23bd
00000270: 1dab 1c3e 7489 3e3e 8523 0a3e 41b8 63bc
00000280: d131 7a3e 6e22 433e eabd 36be ff87 3fbe
00000290: fa09 90be 700d 123d ba99 35be dbbc 6fbc
000002a0: acfa 87be 6be4 9ebc f2d5 0939 48fe 36be
000002b0: c17e 103c 51a3 dbbd 7536 153e 0d98 773c
000002c0: 56b6 78be f3d1 0fbd 507b 58be 38c4 3e3e
000002d0: c4a6 81bc 4a43 5c3b 2d17 84be 96d0 203e
000002e0: 646d bd3d 32b0 523d 26f9 203e 15bc 29bc
000002f0: dd84 6a3e b818 323e a9c1 893e 8715 58bd
00000300: e2af 493e b03f be3d f340 05bd 5241 69be
00000310: a9c2 fabb 517b 9b3d 078a c1bb 0dbd 55be
00000320: b367 72bd 9108 903e f02d 5abe 8c65 79be
00000330: 9e21 133b 957e e9ba 23f7 053e b9a6 a5bd
00000340: 5327 31be 0039 eebb 559d 82bd 1685 1dbc
00000350: 167a 0bbe 5c4e da3d 7c7e 06be d09c a13b
00000360: f327 2a3c 77ae 223c 0773 853e cca1 a63c
00000370: 7cb5 983e 577a b73d 13a3 fd3d 33ee 45be
00000380: 0760 413e a6be 5ebc d0cc 68be cb34 43bc
00000390: bba1 2cbd 3913 6c3e b3ef b9bc d081 8ebe
000003a0: 2d31 3fbe 0521 2e3e 6d88 70bc bc8c 3fbe
000003b0: 25c0 993c 237c 1f3d ef1d 7e3e 44aa 94be
000003c0: 08e0 d4bd 5d1a 14be 0e18 25be 4fe2 423d
000003d0: 080c 2abe 0b7e 2f3e 360b 83be f27e 133c
000003e0: bbf2 083e 9004 7b3d aa52 1d3d 5b99 b93c
000003f0: 0590 ab3d 6f18 a43d 92ab 463e 7367 2cbe

fc.bias f4 [96]
-0.1472394 0.20954113 -0.025898777 -0.18670952 -0.10516424 -0.25411665 0.034779187 -0.051051058
0.060822282 0.08271702 -0.22912973 -0.25173375 -0.096721955 -0.0244911 0.056520727 -0.15703444
-0.121582545 -0.14658104 -0.07530982 -0.14962654 -0.20287624 -0.010640205 0.023055568 -0.11633315
0.06292793 -0.22144556 -0.18204738 -0.23605978 0.077140585 -0.23217599 0.056106705 -0.14853863
-0.020948375 0.07466731 -0.09241025 -0.24105766 -0.1666391 0.023651307 -0.18938671 -0.14642814
-0.21130788 0.04837472 -0.1920801 0.07261044 0.07345273 -0.19381921 0.045055434 -0.19463661
0.025949424 -0.18471384 -0.07995353 -0.19696084 0.10134875 0.09842209 -0.21781424 -0.10077654
0.08494595 -0.23782377 -0.08002446 -0.22115885 -0.010718197 -0.17986889 -0.13837773 -0.08833831
0.08876574 -0.21195702 0.108290955 0.085464746 0.11903212 0.0014452176 0.21742108 0.16702186
-0.009555294 0.06438152 0.20545019 0.08016312 -0.057100173 -0.01966576 0.061780263 0.042427994
0.21891625 0.12778282 -0.0360873 0.040423416 0.10764973 0.08576196 -0.040261917 -0.18669102
0.14125794 -0.22421788 0.15718886 0.083840236 -0.087821215 0.06470813 -1.7048922e-05 -0.22684857
00000000: edc5 16be f391 563e ac29 d4bc c830 3fbe
00000010: 5960 d7bd 941b 82be 9f74 0e3d ea1a 51bd
00000020: c920 793d 8a67 a93d fca0 6abe 3fe3 80be
00000030: 2916 c6bd 8fa1 c8bc 4782 673d a3cd 20be
00000040: 4500 f9bd 5719 16be 093c 9abd b337 19be
00000050: cabe 4fbe 4154 2ebc 08df bc3c 1340 eebd
00000060: 5ce0 803d a0c2 62be a16a 3abe a8b9 71be
00000070: e2fb 9d3d 8bbf 6dbe 25d0 653d 831a 18be
00000080: ed9b abbc 2deb 983d 9641 bdbd d2d7 76be
00000090: 71a3 2abe 63c0 c13c 97ee 41be 42f1 15be
000000a0: 1861 58be 9224 463d a5b0 44be c8b4 943d
000000b0: 636e 963d 8b78 46be 0c8c 383d d24e 47be
000000c0: e393 d43c a025 3dbe adbe a3bd 1ab0 49be
000000d0: ef8f cf3d 8591 c93d b20a 5fbe ee63 cebd
000000e0: 24f8 ad3d 1388 73be dde3 a3bd 7777 62be
000000f0: 609b 2fbc 8d2f 38be e4b2 0dbe b7ea b4bd
00000100: d0ca b53d 430b 59be a6c7 dd3d 2408 af3d
00000110: 1dc7 f33d 756d bd3a a2a3 5e3e c707 2b3e
00000120: cf8d 1cbc 75da 833d 8961 523e 902c a43d
00000130: dfe1 69bd 171a a1bc 4d0d 7d3d fac8 2d3d
00000140: 952b 603e 80d9 023e 47d0 13bd 0693 253d
00000150: 7677 dc3d f7a3 af3d aee9 24bd ee2b 3fbe
00000160: eca5 103e 5f99 65be 1ef6 203e 6eb4 ab3d
00000170: 9cdb b3bd b285 843d 4804 8fb7 fe4a 68be
