checkpoints_qa/sum_tok_ner_epoch_10.pt (torch, 262906 bytes, 7 tensors)

embedding.weight f4 [96, 256]
00000000: be6e 97be c894 78bf c1ed 95bf 60d8 08c0
00000010: f8a2 15be cb83 0e3f 50a8 d0bf b2c0 c3bf
00000020: 797b 05bf de90 813f fee2 c23f dce9 3bbf
00000030: 7d8d 7b3e 6670 363e e52b 733f eb59 15c0
00000040: 89e7 8dbf b6aa 81be 32b5 8ebe 1e08 633f
00000050: 43e4 d83e 78ef ccbc 97b1 5d3f 981e 3fbf
00000060: 7777 bcbe e3ae 4cbf a419 953e 92d6 7abf
00000070: cfd6 dc3e ff7e aa3f e18a 33bf 80fe b23e
00000080: f199 2a3f e665 cf3f 9733 65be 6dba babf
00000090: effd 833f 611c cabf c535 fe3e 6631 7f3f
000000a0: 907b 85bd cdc4 8ebe 13de 473f e2f3 633f
000000b0: a9ab d2bf c254 cdbe 27d7 40bf 3baf 00c0
000000c0: 92cb 463f 781e da3c dc9c b13e 71ab 273f
000000d0: fbfa f73f 824f b33f cbfd 70bf 1923 2ebf
000000e0: c4b4 cbbf 8cfd 673e 9612 0cbf 66f6 7d3f
000000f0: ae90 a5be 0305 13c0 809d 96bf 65d8 5a3f
00000100: ed98 d43e f890 c23f f1a4 78be 8c72 0940
00000110: fe31 383f e34a aebf d3ee 453f e16f 07c0
00000120: 9b32 c6bf 3a4d b6bf d04d 9ebf 655f f73f
00000130: 6f45 853e 2576 89bf 1f47 cbbf 15e6 08bf
00000140: 2a83 99be bb10 863f d188 ffbd f3ee 053f
00000150: 0abd e23f 281a e6be 36fa 2a3d aaef f0bf
00000160: 9f1a 21bf 9fff a93f b93c 81bf d1cd 66bd
00000170: cc7a 88bf d994 8c3e 4eec 71bf 178b 82bf
00000180: 250d d4be 22c1 f03f 0453 5dbe 1759 813f
00000190: ed76 00bf b2d2 b93e 8c73 b1bf d240 5e3e
000001a0: 7144 4a3f 88f7 09c0 afc7 a6be 3f15 d53e
000001b0: ecd2 fcbe 3ead 843e 1b1e 9ebf 8870 03c0
000001c0: c03d ae3d b6f4 02bf a61f b03f afaf d6be
000001d0: 3316 d3bf e509 ef3e 0462 e73f f132 013f
000001e0: b989 903e d18d 67bf e04c e53d 3706 6d3f
000001f0: a001 833e eac4 8abf b008 933f c1b5 f6be
00000200: 1d89 a23e fa14 a1be a1aa 653e 5a6a 123f
00000210: 052a 12bf 87fe 0a3e 88d5 16bf 9f9b 643f
00000220: 5574 44bf 3d53 7fbf d885 303e cde5 febe
00000230: 9b56 573f 883d 1dbf 5d20 a33f 2ec3 f8be
00000240: 958e 18bf eb06 963f 8138 2cbf 8b88 4a3f
00000250: 9ca8 61be 764a 163e 2c6d 413e 1777 5ebf
00000260: c3e1 ba3f afd6 383d 21d8 b53f a08f d2be
00000270: 67d8 103f dd0d 313f f0e7 cf3f 3f65 533f
00000280: 8fa1 b7bf 0ae3 b1be 16e1 2ebe 1927 0ac0
00000290: 8e03 98bd 0acb 14bf 8cec 833f 18a6 173f
000002a0: 4487 12bf e37a 96bf ad37 0f3f 8a5d 463e
000002b0: 0251 503f 556b 6e3d d536 99bf c9ee 33bf
000002c0: b39e 0cc0 b3d0 693e 13d5 9fbf 3ca9 9b3f
000002d0: 85e4 473f e4ef dbbf bb2a a93f 6dff e23e
000002e0: d0d6 6a3f a977 3c3d 0980 a8bf cbb7 08bf
000002f0: 750f 1c40 ad48 d23d 306a 523e 322e b83f
00000300: 1226 c5bf e1ba 063f ebb2 80bd e7f1 953f
00000310: 07ca f43e e504 7ebd 6c16 c4bf 10a0 13bf
00000320: dfbf 503e ddd8 423f bc25 8a3e f10b 9c3e
00000330: fb22 9d3e 4f27 26be 8fa8 2f3f 8401 953f
00000340: 18f4 2c3e a400 66bf 8f78 d5be 8d11 543e
00000350: 548c 0f3f 67b2 f1be 59b3 353f ac73 be3f
00000360: c745 d53e c53d 1f3f 39c9 f93e fa5b 9a3e
00000370: 3a8c 03c0 bb3b 0fbe f95c 92bf c546 31bf
00000380: 8d5e e4bf 5b7d b53e c22c 76bf 10f7 33bf
00000390: 2ade 643e b8f3 79bf 191d 803e d608 3a40
000003a0: 8937 3b3e 39b8 023f da73 5e3e 70a6 db3b
000003b0: 3336 d43f 9811 e9bd de54 d43f cd98 563e
000003c0: 4e41 0dc0 bc4b 39bf 34ba b73e e0e9 0c3f
000003d0: bdec 1f3e cd0f 4fbf e6c8 b8be 272f 1abf
000003e0: e719 843e b46a 443f 70bb a23e aacc b6bd
000003f0: 3804 adbe e0ce 8dbf dc52 bfbe 5ea2 713f
-0.29576677 -0.9710202 -1.1713182 -2.1382065 -0.14612949 0.5566985 -1.6301365 -1.5293181
-0.5214153 1.0122335 1.5225523 -0.73403716 0.24565692 0.17816314 0.9498885 -2.3336132
-1.1086284 -0.25325555 -0.27872616 0.8868426 0.4236165 -0.025016531 0.86599106 -0.7465606
-0.36809894 -0.79954356 0.29121125 -0.9798366 0.43132636 1.3320006 -0.7013379 0.34959793
0.66641146 1.6202972 -0.22382961 -1.4588143 1.0311869 -1.578991 0.49650398 0.9968475
-0.06517708 -0.27884522 0.78073233 0.8904401 -1.6458637 -0.40103728 -0.75328296 -2.0106952
0.77654374 0.026625857 0.34689987 0.65495974 1.9373468 1.4008639 -0.9413726 -0.68022305
-1.591454 0.22655314 -0.5471586 0.992041 -0.32336944 -2.297181 -1.1766815 0.8548644
0.41522923 1.5200491 -0.2428167 2.1476164 0.7195128 -1.3616604 0.7731754 -2.1162035
-1.5484194 -1.4242318 -1.2367496 1.9325987 0.26029536 -1.073918 -1.588108 -0.5347608
-0.29982883 1.0473856 -0.124772675 0.5231773 1.771394 -0.4494183 0.041742526 -1.882314
-0.62931246 1.3281134 -1.0096656 -0.056348626 -1.0662475 0.27457312 -0.945012 -1.0198697
-0.41416278 1.880894 -0.21613699 1.0105313 -0.50181466 0.3629356 -1.3863387 0.21704414
0.79010683 -2.155733 -0.32574221 0.41617772 -0.4937967 0.25913423 -1.2352937 -2.0537434
0.08507872 -0.5115465 1.3759658 -0.4193091 -1.649115 0.46687236 1.8076787 0.50468355
0.28230074 -0.9045077 0.11196303 0.9258761 0.25587177 -1.0841343 1.1487026 -0.48185542
0.31745234 -0.31461316 0.22428371 0.5719353 -0.57095367 0.13573657 -0.5891957 0.8929996
-0.7674001 -0.99736387 0.17238557 -0.497847 0.84116524 -0.61422014 1.2744251 -0.4858641
-0.5959256 1.1720861 -0.6727372 0.791146 -0.22036976 0.14676842 0.18889302 -0.86900467
1.4600147 0.045126613 1.4206582 -0.41125202 0.56580204 0.6916178 1.6242657 0.82576364
-1.4346179 -0.3474353 -0.17078051 -2.1586363 -0.07422553 -0.58122313 1.0306563 0.59237814
-0.5723765 -1.1756252 0.5594433 0.1937162 0.8137361 0.05820783 -1.1969858 -0.7028623
-2.1971862 0.22833519 -1.24869 1.2161021 0.7808307 -1.7182584 1.3216165 0.443355
0.9173403 0.046012554 -1.3164073 -0.53405446 2.4384434 0.10267768 0.2054832 1.4389098
-1.5402243 0.52628905 -0.06284126 1.1714448 0.47810385 -0.062016387 -1.5319343 -0.5766611
0.20385693 0.7611216 0.26981914 0.3047786 0.3069075 -0.16225933 0.68616575 1.1641088
0.1688999 -0.8984473 -0.4169354 0.2070982 0.560735 -0.47206423 0.7097679 1.487905
0.41654798 0.6220363 0.48786333 0.30148298 -2.0554338 -0.13987629 -1.1434623 -0.6924861
-1.7841355 0.354472 -0.96162045 -0.7029886 0.22350374 -0.9763751 0.250222 2.9067893
0.18282904 0.5106235 0.21723881 0.0067031905 1.657904 -0.11380309 1.65884 0.20956726
-2.207111 -0.72381186 0.3588425 0.55044365 0.15617652 -0.80883485 -0.36090773 -0.602282
0.25801012 0.76725316 0.31783628 -0.08925755 -0.3379228 -1.1078758 -0.37367904 0.9438838

lstm.weight_ih_l0 f4 [128, 256]
00000000: 4535 533e 82b3 b23c 769e 4a3d 4a57 1b3d
00000010: fd23 823d ca93 ae3d 915a 173e f820 1abd
00000020: 94b5 f43d 29e1 fd3d 98fc 253d 6906 13bd
00000030: aebd d83d 4106 d03d b79f 963d d6e3 da3b
00000040: 8aa6 373d 0db8 f03d c856 9cbe 5948 753c
00000050: 4944 ce3c 2b7b 573d da64 703e 70e9 a23d
00000060: b1fd 7a3e fbd3 bc3d 479f ac3d 969e c2bd
00000070: d847 5f3d 4cc8 dabd bdce 183e 85b6 2fbe
00000080: cf6f 0fbe f008 b63b 5f13 f73d fa32 233e
00000090: b0b5 063e 56ca 233e 6d15 23be a31f aa3d
000000a0: 531b 06bd 9aeb c33d b4f6 2e3e 8bb3 173d
000000b0: 7e2b c23d aef3 b73d 80bd ec3d 7ec3 0b3e
000000c0: caa2 20bd 71e2 50bd 589f 893d ad7c c0bd
000000d0: 643d 343e 919d 1abd 2588 68be 5377 69bb
000000e0: a8bf 10be 153b 02be 0735 c0bd 45bd 0fbe
000000f0: a1a2 8ebd 2e6a acbc 6954 82be 694f 82be
00000100: a2f6 6abe 1cd5 a33d 73fb 13be aea3 9c3d
00000110: 371f 4cbd 4fcf 37be e817 cfbb 6132 eebc
00000120: 4556 553e ab6c 95bc 684e 6b3d ceb9 06be
00000130: 10ee 783d 70ab 413e 22d6 bbbd 92a2 c4bd
00000140: 68b8 093e c460 b3bc e844 89bb 4c48 633e
00000150: a7de 0fbe 936d 1dbd f533 2a3e ca14 19be
00000160: 9491 24be 17ac fb3c 244a b73d b10b 1f3e
00000170: 6b40 cfbc 24fd 4e3e 0ee9 a73d 3b80 afbd
00000180: 9eec debc adf0 413c b7b3 b3bd 85c4 9f3d
00000190: 79b1 3a3d 4f4f 0d3e c286 583e dd73 45be
000001a0: 0e33 97bd 8fea 58bd 7193 6c3e fcf1 a63c
000001b0: ba9e f33d 9d4e efbd a228 25bd 6d85 68be
000001c0: 20e0 513e 26f5 4dbd 056d 85be f745 1b3d
000001d0: 6b3c 413d 3ece 993d 516e 013d f19f f73b
000001e0: 8f27 523e 48db 293e 3b3a ed3c 5cf5 073d
000001f0: 46ab 893c c597 04be 61a5 2abd 915d e53c
00000200: 6850 42be 6902 35bd 05af 9cbd caab f23d
00000210: 2f5a 47bd 76d8 c93c 6a79 333e 14c2 e23e
00000220: b481 603e 1fe8 5bbd 7937 8d3d a0b9 8dbd
00000230: 1e32 5d3c 4523 873e 323b ce3d 525b ae3d
00000240: 8a8a 073d 62e2 9fbe c3c0 53bd 0075 e23d
00000250: b70b a83e 37ab 223e 0066 8a3c c3db 76bd
00000260: 7bf5 47be d5bc 473e 02d3 393e 4658 80bd
00000270: 3cc5 8fbe b2ee 0c3e 23cb 31be cc6f 513e
00000280: 6c86 b8bc 65e8 3dbd 61b9 a63d 6a62 2a3e
00000290: c4ac 2dbe a1b0 4ebe c32e bbbd 9ecb fa3d
000002a0: 9cce 073d 36da 213e 119d 7ebe cd50 bdbd
000002b0: d6f1 3f3d f266 00be da22 133d 0236 15be
000002c0: 34a7 25be 6ac3 8cbe fabf 503e 3614 2bbe
000002d0: 850e 2dbe 503d bbbd 9f00 4ebd 007d 463e
000002e0: fcef ac3b 5509 4c3d dece c4bd 2c4b 173d
000002f0: c77e 71bd 1d02 7dbd 06ce b0bd d63d b83d
00000300: b3cd 273d 39dc 0e3e b48e 123d 1f23 6f3e
00000310: 5ae5 1b3e 7da1 5abe d958 293e c37d c2bd
00000320: 467a 273d eae8 163d 943a 94be ffb2 19be
00000330: f505 f6bd ae8d 38bd f006 30bd 94a1 423e
00000340: 5ddf 203e 9d7f 7f3d be23 5bbe c00f 413d
00000350: e64a 423e 0a9f 2fbe 2507 07be 1f3a 243e
00000360: edd9 c33d 980d 583e cbb6 c83d 29b8 ab3c
00000370: ecb7 e7bd 1b33 8cbe da73 84bd ccb4 b33d
00000380: 84a7 3e3e be1a 063d d922 3dbc 0ebf 993d
00000390: f3b4 27be 4a76 fd3d 0bea db3d dd01 8f3d
000003a0: 15e9 0bbd 94fd 94bd 26c5 923d 3909 ea3d
000003b0: 0896 fe3d 3317 43be 4351 0c3e e037 9bbd
000003c0: d9a2 893d 601e d0bd 4fda 6f3d c148 5dbe
000003d0: c0fc 3f3e a17e 8ebd 4d68 c63c b118 e33d
000003e0: 0a4e 82be 13ee 6dbd fcbf 9c3d 7c53 d83c
000003f0: 9afb cd3d 250e 58bd b3bd aebd 9df0 d4bc
0.2062579 0.021814112 0.049467526 0.037925042 0.063545205 0.08524282 0.14780642 -0.037629098
0.11948696 0.123964615 0.040524095 -0.035894785 0.105830535 0.10157443 0.07354682 0.006679992
0.04483656 0.11753855 -0.3053496 0.014970862 0.025179045 0.052607697 0.23475972 0.07954681
0.24510838 0.092201196 0.08428817 -0.09502904 0.054511875 -0.10682735 0.14922614 -0.1715947
-0.14007495 0.0055552647 0.120642416 0.15937415 0.13155246 0.15995154 -0.15926142 0.083068155
-0.032740902 0.09566422 0.17086297 0.03703646 0.09480952 0.08982025 0.11559582 0.13648793
-0.039217748 -0.0509972 0.067198455 -0.0939878 0.17601544 -0.037747923 -0.22708185 -0.0035624101
-0.14135611 -0.1271785 -0.09385114 -0.14037044 -0.06964613 -0.021046724 -0.25455025 -0.2545121
-0.22945645 0.07999632 -0.14451389 0.07648407 -0.049834456 -0.17950176 -0.0063199885 -0.029076757
0.2083369 -0.018240293 0.05744782 -0.13156816 0.06077391 0.18913054 -0.09171702 -0.0960132
0.13449252 -0.021896727 -0.0041891225 0.22195548 -0.14049779 -0.038434576 0.16621383 -0.14949337
-0.16071159 0.030721707 0.08949688 0.15531804 -0.025299272 0.20213753 0.081987485 -0.0856938
-0.027212437 0.011837167 -0.08774512 0.07801155 0.045579407 0.13799785 0.21145156 -0.1928248
-0.07382785 -0.052958068 0.2310312 0.020379059 0.11895509 -0.11684916 -0.040321954 -0.22707148
0.20495653 -0.05028262 -0.26059738 0.03790852 0.04717676 0.07510041 0.031599347 0.0075569083
0.20522903 0.16587555 0.02895843 0.033192977 0.016805302 -0.1294852 -0.041661624 0.027998718
-0.18975985 -0.04419175 -0.0765057 0.118491724 -0.04866999 0.02463935 0.17526785 0.44288695
0.21924478 -0.053688165 0.06895346 -0.06920171 0.013500718 0.26394096 0.10069884 0.08513512
0.033091106 -0.31227404 -0.051697504 0.11057472 0.32821438 0.15885626 0.01689434 -0.060268175
-0.19527237 0.19505627 0.181469 -0.06266837 -0.28080165 0.1376293 -0.17362647 0.20452803
-0.022525035 -0.046364207 0.08140827 0.16639104 -0.16960436 -0.20184566 -0.091397785 0.12245868
0.033156022 0.15805897 -0.24864604 -0.09243927 0.046861492 -0.1253927 0.03592191 -0.14571384
-0.16177064 -0.2749284 0.20385733 -0.16706929 -0.1690007 -0.09142554 -0.05029356 0.19383621
0.005277632 0.049813587 -0.09609769 0.036936924 -0.058958795 -0.061769594 -0.08633046 0.08996169
0.040967654 0.13951196 0.035780624 0.23353241 0.1522421 -0.21350665 0.16537799 -0.094966434
0.040888093 0.036843218 -0.28950942 -0.15009688 -0.12012855 -0.04505699 -0.042975366 0.1900695
0.15710206 0.06237756 -0.21400353 0.04713416 0.18973884 -0.17150512 -0.13186319 0.16037796
0.095630504 0.21098936 0.0980049 0.020961838 -0.11314377 -0.2738274 -0.064674094 0.08774719
0.1861859 0.032740347 -0.011543953 0.07507144 -0.1637762 0.123760775 0.107379995 0.06982777
-0.03415783 -0.07274929 0.07166509 0.1142754 0.1243096 -0.19051819 0.13702874 -0.07579017
0.06720514 -0.101620436 0.058557805 -0.21609785 0.1874876 -0.06957746 0.024219656 0.11088694
-0.25450164 -0.058088373 0.076538056 0.026406996 0.10057755 -0.052747864 -0.08532276 -0.02599364

lstm.weight_hh_l0 f4 [128, 32]
00000000: 12ea 0a3f 3e4e 23bd 2d98 0fbe 6208 2c3c
00000010: ae2e 393f 1e7e 523f de46 443e a8cc 2f3f
00000020: 0d32 e53e acc2 44bf a4b1 8dbe 921e 2f3d
00000030: a81e 2ebe 826b 183e 43a8 65bd 7edc 953e
00000040: 8f6b febe 216f 11be 224b 0a3f e8b9 d7be
00000050: 114a f03e f5dd 0dbf 3869 bbbb c504 65bc
00000060: 4d50 cd3e f8a7 213f 3a61 903d db6c d5be
00000070: 2995 583e 99a3 8ebf 9d7d 42be 647f 1ebf
00000080: 4e1e 4c3e a02e c4bb 0f86 223e 8435 ac3e
00000090: b50c 87bd 07b9 cd3e febc f63e 607a ae3b
000000a0: 5eb3 693e fdb7 17be 8f0e bb3d 351f 8cbd
000000b0: b59c 0dbe 4f9d 0a3f 5216 11bf 4dee ec3d
000000c0: 6ff2 c83c 17d2 0a3e 6103 763f 9b03 18bf
000000d0: 724c 0a3f 8c08 6e3c 4664 683e b2bb 04bf
000000e0: f4b3 ba3e 1c01 1dbf 5df4 943e 67fd 403e
000000f0: f393 fdbd 0f1e 173e 481d 843e 05f1 0bbf
00000100: cd2a efbe 85fa 1ebf d6b4 46bf 4ce6 9a3e
00000110: 7dbe 003e f711 b43f 4bb6 323e 9571 9c3d
00000120: cca3 32be 7baf 37bf 0be4 36be 3f0c 433f
00000130: cd78 35bf e1db 8abe bf7b b93b 2803 c1be
00000140: 6e0f b33d aacd 343d 8d99 373e 1e61 20bf
00000150: eb57 2c3f a7fb d2be f1b0 423c f60d 96be
00000160: e42c 48bd 337e 3f3f 09b8 19be 6abd ce3c
00000170: d6f5 c4be 0272 e1bd 6d53 3abf fd03 c5be
00000180: 29d8 51be 7fa2 aebe 5866 523f e652 433e
00000190: 62fb 113d 07db 103f 0b16 b23d b929 7ebc
000001a0: 549b 86be cfc1 e0be 947e 4cbe b28f 3fbd
000001b0: d49c 39be 067d 113d 102c 17bf e91c d0bd
000001c0: 16c7 3c3e 872c 083f d0f8 4c3e 3c97 023f
000001d0: 4725 873d 7790 e63e 6c11 86be 7d56 14be
000001e0: 49b0 a63e 1889 1a3f 8d78 fbbe 366a a93e
000001f0: 9c1e efbe 870c df3d c8d3 1cbd 02fb 213f
00000200: 58bf 2f3e 6b8e fbbc f81f 5e3e d9a1 6c3e
00000210: c220 ccbd 3fb3 68be 1faf 9dbd 8a35 2cbe
00000220: e4e7 adbd 0dcb 7abe 096f 123e 8f7b 603e
00000230: b61a 26be d30c 90bd b989 c03d ca34 6b3e
00000240: 6193 e43d 130e 9f3d d469 6c3c 4982 79be
00000250: 3e9f 4e3e fb49 943d 15d7 40bc 6f30 4abd
00000260: e33b 71be aa29 3f3e b44f 98bd 9d1f 3e3e
00000270: 438d 6abd b21e 9ebd 707d 733d 0f70 3d3e
00000280: fcfe 30bf debe a8be b7c3 053f a17f 333e
00000290: 31b0 c83e 0cda a3bd 8797 c83d 888d aa3e
000002a0: 85de 123f a810 7cbe f561 053f 8ea7 0e3f
000002b0: 765c c9be 8e4d a83e 213a 9ebe 21cb 01bd
000002c0: 6e56 393f 082c 0e3e 2013 af3e a5ac eabe
000002d0: ff55 a63e 877e 02bf cefb 0e3e a769 3abe
000002e0: 89eb 7bbd ce5a c33e 2605 ecbe 3d04 663e
000002f0: b260 1fbf 73e1 11be 0009 c63d daec e43e
00000300: 4d84 8fbd ee5e df3d 940c aa3e 03bc 003f
00000310: 3905 a73e 79b0 d4be 29d2 e9bd ef47 a13e
00000320: 70c3 873d 7220 c9be 4a21 693e 33f6 fabd
00000330: 3d94 823d 7a67 403e d044 cabe e0e5 45be
00000340: 8a13 273f 2598 8c3e 4e99 583e c1a0 c23e
00000350: b6fd f43e 822c ab3c b27c 49bd d677 a8be
00000360: a750 bebe e20b 07bf a87c 713e 8b39 d7be
00000370: 6503 9a3e eacb 75bd a22b 76be f3c4 2dbf
00000380: 4667 a7be eb20 acbd 7ad1 d43d a0db 5b3f
00000390: 5497 bd3d bf98 8fbf c828 183f c763 813f
000003a0: e4b6 d93e c1ea 2f3d e2f6 083e 7a11 6abd
000003b0: cf80 103e a728 343f e6c6 fabd 3f4f 983f
000003c0: f588 ac3e 3eef 293f d37f c0bd d496 89be
000003d0: 8935 82bd 2508 b33d 0d98 9f3e 67d8 27be
000003e0: 7a78 7bbe 34dd 62bf fb6a 14bc 86d3 dfbb
000003f0: 33bf 8ebf 61d9 863e 0469 953e 761e 873f
0.5426341 -0.03986954 -0.14022894 0.0105000455 0.7233685 0.8222369 0.19167659 0.68671656
0.44764748 -0.76859546 -0.27674592 0.042753763 -0.17003882 0.14884761 -0.05606867 0.29269785
-0.49691436 -0.14202549 0.54020894 -0.42134023 0.46931508 -0.55416805 -0.00571933 -0.013978188
0.40100327 0.63146925 0.070497945 -0.41684613 0.2115065 -1.1143676 -0.1899323 -0.6191313
0.19933435 -0.0059870034 0.15871452 0.3363458 -0.065942205 0.40180227 0.48191065 0.005324647
0.2282233 -0.1481628 0.09133636 -0.0684189 -0.1382931 0.54146284 -0.56674683 0.1156889
0.024529664 0.13556705 0.96098906 -0.593805 0.54022896 0.014528405 0.22694501 -0.518489
0.36465418 -0.6132982 0.29092684 0.18846665 -0.12381735 0.1475756 0.2580359 -0.5466464
-0.46712342 -0.6210101 -0.77619684 0.30253828 0.12572666 1.4067982 0.17452352 0.076388516
-0.17445296 -0.71752137 -0.17860429 0.7619056 -0.7088745 -0.2712088 0.0056605036 -0.3769772
0.08743177 0.04414145 0.17929669 -0.6264819 0.6732165 -0.4120762 0.011883006 -0.29307526
-0.048870936 0.7480194 -0.1501161 0.025236804 -0.38468808 -0.110080734 -0.7278355 -0.38479605
-0.20492615 -0.3410835 0.82187414 0.19074592 0.035640128 0.5658421 0.086956106 -0.015512877
-0.2629038 -0.43897864 -0.1997016 -0.046767898 -0.18126231 0.035519622 -0.5905161 -0.10161764
0.1843532 0.53192943 0.2001679 0.51012015 0.06598907 0.45032093 -0.26185167 -0.14486118
0.3255637 0.6036544 -0.4911541 0.33088845 -0.4670304 0.10891061 -0.038287908 0.6327363
0.17162836 -0.030707559 0.21691883 0.23108615 -0.099671856 -0.22724627 -0.07699417 -0.16817299
-0.08491495 -0.2449152 0.14300169 0.21922134 -0.16221127 -0.07033696 0.094012685 0.22969356
0.11160923 0.07766356 0.014429528 -0.24366106 0.20177934 0.07240673 -0.01177003 -0.049362596
-0.23558001 0.18668237 -0.07437077 0.18566747 -0.057263624 -0.077206984 0.0594458 0.18499778
-0.69139075 -0.3295812 0.5225176 0.17529155 0.39196923 -0.080005735 0.097945265 0.33311105
0.5737079 -0.24615729 0.52102596 0.5572442 -0.39328355 0.3287167 -0.30903724 -0.03168786
0.72397506 0.13883984 0.3419428 -0.45834842 0.32487485 -0.50974315 0.13963243 -0.18204366
-0.06150392 0.38155216 -0.46097678 0.22462554 -0.6225692 -0.14246158 0.09669685 0.44711953
-0.07007656 0.10906778 0.3321272 0.50286883 0.32621172 -0.41540888 -0.11417038 0.31500193
0.066290736 -0.39282566 0.22766605 -0.1225399 0.063759305 0.18789473 -0.39505625 -0.19325972
0.6526419 0.27459827 0.21152231 0.3801327 0.47849816 0.020895246 -0.049191184 -0.32903928
-0.37170908 -0.52752507 0.23582709 -0.4203609 0.30080715 -0.06000892 -0.24040082 -0.67878646
-0.3269598 -0.08404716 0.10391517 0.85881996 0.09257379 -1.121849 0.5943723 1.0108575
0.42522347 0.04294849 0.13375428 -0.057145573 0.14111637 0.7037453 -0.12244968 1.1899184
0.3369824 0.6638068 -0.093993805 -0.26872885 -0.06357867 0.08741788 0.31170693 -0.16391145
-0.24557677 -0.8861878 -0.009058709 -0.0068306355 -1.1152099 0.26337722 0.29181683 1.0556171

lstm.bias_ih_l0 f4 [128]
00000000: 4fac 3c3e 7505 743e 8fc0 623d 7d8a ba3d
00000010: 908f 5f3d e99a b63e df65 f93d b3b6 c83e
00000020: 37db 7b3e 00fc 2c3e 350d 643c c46a 283e
00000030: 364d 77bd b0de 413e 7d8d 6c3e 36cc 493e
00000040: 8714 2d3e 548e 0e3e 34be 003e 8ef9 4c3d
00000050: d92a a83d 1ea2 babd 3355 8c3c 0a37 0b3e
00000060: 5def 853e 2a1e 0e3e 4a42 4a3d c77d bd3e
00000070: 5037 c03d b737 9e3e 64de 943e c2b3 373e
00000080: d1d6 5fbe b442 57bb b0b7 303e 0bd1 883e
00000090: 0db6 ab3b d6a2 fc3d 38c7 ed3d 1871 33be
000000a0: 5684 91bc 5d61 ff3c 72c2 4f3d fdca c03d
000000b0: 3906 573e 4279 5e3d 24c0 b63d 5924 c9bd
000000c0: 36a8 0a3d c78a a03b d576 ad3d b9c3 133e
000000d0: 2296 ab3c 4a50 133e fcd9 8a3b 9f20 f0bc
000000e0: b700 113e 2391 2ebd 06de fdbd dfd6 b8bd
000000f0: 0abe 6c3e 13e5 9f3d c2db 9d3d 2b24 5cbd
00000100: 6ead 003e 49ce 2abe b3d9 9a3d c9a8 be3d
00000110: 5142 183e a949 1fbe 7ea7 cb3b 1cc7 40bd
00000120: 8d5d f3bd 717d bbbd ed19 2bbd 3089 99bc
00000130: 7a8e e23d 886f fb3d 738a 223d b21c 083d
00000140: 6f88 a0bd 1824 393e 1a64 b43d de11 003e
00000150: 10a1 023e 146a a33d 7a62 233e c0f3 ea3d
00000160: e668 37ba ea64 28be ab8a fb3c 460a 1d3e
00000170: 9f75 bfbd d4ce 833d 7d7a 4ebe 8327 02bd
00000180: 19b2 6e3e e7e6 0e3e 8587 883e 973e 093d
00000190: 7cc6 063d e56b a73e eeb8 703e 1efb f43d
000001a0: 106e 8dbd c45a 8e3e 6e28 1cbd 5900 e9bd
000001b0: 783c 143d 3a68 d93d 6da0 7d3e 6fa8 773e
000001c0: 234f a5bd 2e48 0d3e 8cad 033e eb4d c33d
000001d0: cccf 9d3e 6f79 9e3d 6fe0 c43d 1c81 aa3d
000001e0: 2105 033e 8613 063e d748 3f3e 8c4d 873d
000001f0: 0ca9 d23d 56f1 aabd 7946 1c3e 19f7 663e
0.18425106 0.23830207 0.05535942 0.09108446 0.05458027 0.35665062 0.121776335 0.39201888
0.24595343 0.16893005 0.013919164 0.16446978 -0.06037637 0.18932605 0.23100848 0.19706807
0.16902362 0.13921481 0.12572557 0.05004268 0.082112975 -0.09112953 0.01713047 0.13595214
0.26159182 0.13878694 0.049379624 0.37010023 0.0938555 0.30901882 0.2907592 0.17939666
-0.2185929 -0.0032846155 0.17257571 0.26721987 0.005240208 0.12335746 0.116102636 -0.1752361
-0.017763298 0.031174356 0.050722547 0.09413717 0.20998468 0.05431486 0.08923367 -0.09821386
0.033851825 0.004899356 0.08469931 0.14430131 0.020945612 0.14386097 0.0042374115 -0.02931243
0.14160429 -0.042618882 -0.12395863 -0.090253584 0.23119369 0.07807364 0.07707931 -0.05374543
0.12566158 -0.16680254 0.07561054 0.09309537 0.14869048 -0.15555443 0.006215035 -0.047064885
-0.11883078 -0.091547854 -0.04177277 -0.018742174 0.110623315 0.12277132 0.039682817 0.03323049
-0.07838523 0.18080175 0.08808155 0.12506816 0.12756753 0.07979217 0.15955535 0.11472273
-0.0006996527 -0.16444746 0.03070577 0.1533595 -0.09348606 0.06435934 -0.20163913 -0.031775963
0.23310126 0.1395527 0.26665893 0.033506956 0.032904133 0.32699504 0.23508045 0.11961959
-0.069057584 0.27803624 -0.038124494 -0.113770194 0.03619048 0.10615583 0.24768229 0.24185346
-0.08071735 0.13797066 0.12859172 0.09536346 0.308226 0.07738005 0.0961312 0.08325407
0.12794925 0.13093385 0.1868013 0.06606588 0.102861494 -0.083468124 0.15261258 0.22555198

lstm.bias_hh_l0 f4 [128]
00000000: 3e5f ba3e 72ac 2e3e 94f1 853e efdd 4f3e
00000010: 076a 8fbd ae77 dc3e 0a2e 143e a522 c83d
00000020: 6811 383e 2ab4 d33d bac6 1b3e 15b6 38bb
00000030: 28c1 323e dbbb e33d 090b f33d 2d33 7e3e
00000040: 8804 933e b59a 8a3e 026a bb3e 6c1a 463e
00000050: 0172 d9bc 2e36 083e b1b8 813d d1be ab3d
00000060: 6144 c73d 44ff 833e 76d1 513d f356 023e
00000070: ef92 1ebc dfb6 843e ba41 ccb9 745a 6b3e
00000080: 6bbc 4dbe dbd1 11bd b99c 0cbd ccc3 823e
00000090: a74c ea3d 1196 03be d056 093e c09c 9bbd
000000a0: 617a 0d3d 9ba6 58bd 949f c53d 9688 a2bd
000000b0: 1698 aebc 855c 833e a29a 61be 94bc 363e
000000c0: bccd 513e 79d1 e63d 439c d7bc d3c0 0abc
000000d0: 365b b63d abb6 52bd cf47 4c3e c5fc de3d
000000e0: a2e7 a5bd f62b c1bd 0480 d8bd f0d9 73bd
000000f0: b12a c43c 0578 2a3e db5a 8cbb 4444 07bb
00000100: 861c 743d eef2 ab3d a1fc ac3d 4f64 f73d
00000110: 7988 e63d caad b43d 717c 543e b178 dbbc
00000120: 5f2b 183c 78b6 acbd 7bcb abbd 9558 583a
00000130: 676c 303c f706 8c3d fe2a 40bd cbff 193c
00000140: f452 043e b08a 133e fff5 b73c 24d2 f0bb
00000150: 4169 293e a114 33be eccc 1a3e 3c37 f3bd
00000160: 9fa8 3dbe da29 19be 77f4 bfbd d665 0d3e
00000170: 4a47 21be 862f 35be a8b2 013e 5bfe 94bd
00000180: c67e f63d a322 ddbd 0588 8f3e f1e6 753e
00000190: 9f99 86bd 7b47 8f3e 55ca 2b3e b18e af3e
000001a0: 691c 40bd cd38 4d3e 669c 2abd fbd4 2dbd
000001b0: aa5a 013e 3d23 a93d e0b8 643e fb1a b93d
000001c0: 4311 593e 4f08 f2bc 8667 843e 6b5f 7d3e
000001d0: 0355 323e 06f5 4cbd c084 133e 2fff 80bd
000001e0: 4e22 2a3e 0372 913e 3cf9 803e 73c5 963e
000001f0: e6e1 a73e a092 f73d d5cf 023e ae3b 863e
0.3640079 0.1705797 0.26160872 0.20299505 -0.07002645 0.43060058 0.14470688 0.09772233
0.1797539 0.10337098 0.15212527 -0.0028184701 0.17456496 0.11119815 0.11867339 0.2482421
0.28714395 0.27071157 0.36604315 0.19346017 -0.02654362 0.13301918 0.06334055 0.08386005
0.09729839 0.2578069 0.05122515 0.12728481 -0.009678586 0.2592077 -0.00038958882 0.22983724
-0.20091407 -0.035600524 -0.03432915 0.25540006 0.114404015 -0.12850215 0.13412023 -0.07598257
0.034540538 -0.052893262 0.09649578 -0.07936208 -0.021312755 0.25656524 -0.22031644 0.17845374
0.20488638 0.112704225 -0.026319629 -0.008468824 0.08904116 -0.051443737 0.19949268 0.10888056
-0.08100821 -0.09432213 -0.10571292 -0.059534013 0.023946138 0.16647346 -0.0042832918 -0.0020640055
0.059597515 0.083959445 0.08446623 0.12079679 0.11256499 0.0882221 0.20750596 -0.026790949
0.009287684 -0.08433241 -0.0838842 0.0008252946 0.010768033 0.06837266 -0.046916 0.009399365
0.12922269 0.14408374 0.022456167 -0.0073492695 0.16544057 -0.17488338 0.15117234 -0.118757695
-0.18521355 -0.14957371 -0.093728 0.13808379 -0.15749851 -0.1769391 0.12665808 -0.07275077
0.12035899 -0.10797622 0.28033462 0.24013878 -0.0657227 0.27984223 0.16776402 0.34288552
-0.046902094 0.20041199 -0.04165306 -0.042439442 0.12632242 0.08258674 0.22336149 0.09038349
0.21197991 -0.029544977 0.25860232 0.2474343 0.17415242 -0.05003836 0.14406109 -0.062986724
0.16614649 0.28407297 0.2519015 0.29447517 0.32789534 0.120885134 0.12774594 0.26217407

fc.weight f4 [96, 32]
00000000: b70d 4d3e 2621 e23e e5e5 8dbe 660e acbe
00000010: 0219 e1be d671 dbbd 5462 8bbe 64c0 0abe
00000020: d4af adbe c5c7 f53d 5e1a bcbe 8850 8ebe
00000030: 9b62 883e 543c 3cbe a82e 3b3d 5e8a 8ebe
00000040: 4c4d abbe 2155 d7be 4abf c4be fbfd 8d3e
00000050: 6f71 adbe b472 463e 1006 89be 7602 903e
00000060: 238e 963e c317 8a3c 035b 973e 8606 9cbe
00000070: c565 f53e 4bf8 bd3e 06f8 073f 8366 aabe
00000080: b1fb 203f 258b 69be a697 a4be 0711 77bd
00000090: d18f f73e ab60 71bf b858 ccbd 925e 803f
000000a0: 0eb1 d93e 5a3b 03bf 2093 e83e bd55 cfbe
000000b0: c38d edbe b9a4 0b3e 7b8b 75bf 17ac df3e
000000c0: cda3 883e 83bb a0bf 6e2f 8bbe 4cef 05be
000000d0: da77 43bd 1bf4 dfbe d2a5 05bf 7a6b a4be
000000e0: a869 46be 4a20 023f df45 b2be b50e babe
000000f0: 62e5 3dbf 4a83 06bf a890 903f a6ce 753f
00000100: dfe9 cb3e 348d 093f b782 acbe 0be0 d9bd
00000110: ca0b dabe 26c0 4abc a94e 7cbe fb24 84be
00000120: e4a0 28be 5359 453e ef2a 82be 342f 8ebe
00000130: 3044 cc3e 4f19 febd 0410 f73d a1f6 aabe
00000140: 33e9 8bbe efb9 a9be ff00 d7be f954 503e
00000150: 2f8d bcbe c761 b23d a71b c7be 7889 e23e
00000160: 6795 9e3e 512e 80bd 07af 863e 76f0 5bbe
00000170: 4b09 703e 29e1 323e 8e4a cf3e bf5a 07be
00000180: b004 b83e 178b c73e dd60 d9be 622c f5bd
00000190: 58cc d0be 22d4 96bd dc78 3ebe 11a9 24bd
000001a0: 5c79 8dbe 367d e93d 6a01 9ebe 1a43 c0be
000001b0: 17dc 283e 361e 41be 55a4 2b3e e1b4 bdbe
000001c0: e54f 3dbe cd38 dcbe c47f dcbe bb1d 733e
000001d0: 64a4 ecbe fd53 333e 29b2 2fbe 24ab 8d3e
000001e0: cafb d53e d5e7 873c ec46 f13d 7962 76be
000001f0: a5c0 873e 16d7 bc3e 65ae ba3e f166 83be
00000200: 66b6 623e e28d 043f 1664 aabe c649 acbe
00000210: d6ef 2dbe 17eb a33d 595e cebe 76d6 49be
00000220: d4a5 a5be 0aa4 1b3e 28c5 95be 9a3f 10be
00000230: 63ee 4e3e 247d 46be 5f66 6d3e 4ff2 a6be
00000240: 6026 99bd 435c 8dbe dd48 4bbe 189a 333e
00000250: a6ff bebe 5427 3e3e 143f d7bd b883 e43e
00000260: ff50 013e dc6c 093d c5be 333e d27b 7dbe
00000270: 1f23 ab3e d019 ac3e 2cae bd3e 2aa4 6cbd
00000280: 87e8 cb3e 1237 dc3e 1227 b2be 6517 a1be
00000290: 0c8d e3be b662 cbbb defb b1be bfd3 1ebd
000002a0: cdce d8be 4ddc e43d d73b 21be 81e4 a3be
000002b0: e3b3 5c3e 704a 8bbe 15e6 563e b0f8 c1bd
000002c0: b2c1 babe cf32 53be 50fa d7be e64e bb3e
000002d0: 2018 55be dfd5 123e 00af d1be f036 b93e
000002e0: f1af 823e 8887 4a3c e87c 9b3e ae6f 4ebe
000002f0: 45be da3e 7e91 a53e 22ea 063f 86c6 ffbd
00000300: c1ba af3e 0619 aa3e 63c2 52be 9246 b7be
00000310: f857 31be 9f57 433b 418b 3abe 6106 3bbe
00000320: 688c 69be 2036 d43e 1434 babe 1cb6 bebe
00000330: 0f52 5a3e ca8e 2ebe a793 203e ce26 48be
00000340: 0e59 99be 288c 34be 7317 8cbe 203f 3e3e
00000350: e1d4 a7be 77f6 813e 7668 95be 7f83 573e
00000360: 44e5 393e e5af 53bc b9f1 d03e d894 46be
00000370: bc58 f53e 85cb 843e 96b0 c43e 4f27 62be
00000380: 57cf 62bc d7b9 a93d bc9d 92bd cb6e fdbe
00000390: 7cdf bcbe d343 e33e 4656 42bb b9f1 96be
000003a0: 77d7 2abe fdc6 c33d 0a8d 9bbe e78d 68be
000003b0: da1c 19bd 2f69 0c3d 4a0a 143f 312b f0be
000003c0: 4397 c2be 983d 1fbf 1505 b83b 32e2 7c3c
000003d0: d8e8 6cbc 6bf2 0e3e b0d9 d9be 0aa7 d03d
000003e0: 6c71 1e3f 89ab ca3e de15 b8bc 5ef7 543e
000003f0: 93e9 de3e cf76 363d c2a6 e9bc 7e49 08be
0.20024763 0.44165915 -0.27714458 -0.33604735 -0.43964392 -0.10715072 -0.27223456 -0.13549954
-0.3392321 0.12000994 -0.36738867 -0.27795815 0.2663773 -0.18382388 0.04569879 -0.2783994
-0.3345741 -0.42057136 -0.38427192 0.27732834 -0.33875605 0.19379693 -0.26762438 0.28126878
0.29405317 0.016857034 0.29561624 -0.30473727 0.47929206 0.37103495 0.5311283 -0.33281335
0.6288405 -0.22806986 -0.3214695 -0.060318973 0.4835191 -0.9428813 -0.09977859 1.002886
0.42517895 -0.5126244 0.45424747 -0.404951 -0.46397218 0.13637055 -0.95915955 0.43685982
0.2668747 -1.2557224 -0.27184623 -0.13079566 -0.04772172 -0.43740925 -0.52206147 -0.32113248
-0.19376242 0.5083052 -0.34818932 -0.36339346 -0.74178135 -0.5254408 1.1294146 0.96018445
0.39826867 0.53731084 -0.33693478 -0.10638436 -0.4258712 -0.012374913 -0.24639381 -0.25809464
-0.16467625 0.19272356 -0.2542338 -0.27770388 0.39895773 -0.12407171 0.120636016 -0.33391288
-0.27326354 -0.3314967 -0.41992947 0.20344914 -0.36826465 0.08710056 -0.38888285 0.44245505
0.3097336 -0.06258834 0.2630541 -0.21478447 0.23441045 0.17468704 0.40486568 -0.1321821
0.35941076 0.38973305 -0.42456713 -0.11971356 -0.40780902 -0.0736468 -0.18600792 -0.040200297
-0.27631652 0.11400835 -0.30860454 -0.37551194 0.16490208 -0.18859181 0.16761906 -0.37052062
-0.18487509 -0.43012086 -0.43066227 0.2374181 -0.4621917 0.17512508 -0.17157806 0.27669632
0.41793662 0.016590038 0.117811054 -0.24061002 0.26514164 0.36882848 0.36461177 -0.25664476
0.22139892 0.51778996 -0.33279485 -0.33650035 -0.16986021 0.08003824 -0.40306357 -0.19710717
-0.3235308 0.15199295 -0.2925198 -0.14086762 0.20208125 -0.19383675 0.23183583 -0.32606742
-0.074780226 -0.27609453 -0.19852014 0.17539251 -0.3730442 0.1856969 -0.10510078 0.44631743
0.12628554 0.033551082 0.17553242 -0.24754265 0.33425233 0.33613443 0.37046945 -0.057773747
0.39825842 0.43010765 -0.34795433 -0.3146316 -0.44443548 -0.0062068356 -0.34762472 -0.038776156
-0.42345276 0.111748315 -0.15745483 -0.32010272 0.21552996 -0.2720523 0.20986207 -0.094712615
-0.36475903 -0.2062485 -0.4218316 0.36583632 -0.20809984 0.14339398 -0.40953827 0.36174726
0.25524858 0.012361415 0.30368733 -0.2015979 0.4272329 0.32337564 0.5270101 -0.12489037
0.3432217 0.33222216 -0.20581965 -0.35796028 -0.17318714 0.0029806865 -0.18217184 -0.18264152
-0.22807467 0.41447544 -0.36367857 -0.37248313 0.21320365 -0.17046657 0.15681325 -0.19546053
-0.29950756 -0.1763159 -0.2736164 0.18578768 -0.327796 0.2538335 -0.2918126 0.21046256
0.18153864 -0.0129203545 0.4080942 -0.19392717 0.4791926 0.25936523 0.38415974 -0.22085308
-0.013843379 0.08287399 -0.07158992 -0.4949859 -0.36889255 0.44387683 -0.0029653474 -0.29481295
-0.16683756 0.095594384 -0.30381042 -0.22710381 -0.03738103 0.03428 0.578282 -0.46907952
-0.3800603 -0.6220336 0.00561584 0.015434789 -0.014459811 0.13959663 -0.42548895 0.1018811
0.6189182 0.39583996 -0.022471365 0.20797488 0.43537578 0.0445469 -0.0285219 -0.13309285

fc.bias f4 [96]
00000000: 2a34 8dbe bcd5 7d3e 02d2 22be 1850 a7be
00000010: 06d0 7cbe 6eed c0be 8cbc ecbd 29eb debd
00000020: 4888 99bd edcc 54bd 3aff b6be a256 cdbe
00000030: 2e12 6abe 03f1 14bc 7732 c0bd 83df e8be
00000040: 7ea1 85be 18fe 8abe fc41 53be a78f 92be
00000050: e1dc a9be e92e 25be 6c09 dabd 5edf 80be
00000060: 1c91 9fbd 9d04 b9be 5924 9fbe 1ff0 bdbe
00000070: dd3e 46bd 8d0e b9be 3a81 b4bd db22 8abe
00000080: c881 22be a332 7dbd 9594 0bbe d991 b9be
00000090: bded 4abe 4720 e8bc 6a56 a8be 8609 c3bd
000000a0: 2f54 b6be 7498 bebd 4ba8 5e3d 5624 6dbd
000000b0: bd69 433d eaab 04be 0cba d93d 7422 74be
000000c0: 4336 e2bd 7959 92bd 3377 7fbc e3b9 a3be
000000d0: d52d b23e 5305 e43d 2459 b5be e0fa 76be
000000e0: b062 5a3e 1b58 c1be 2735 59be a9da b0be
000000f0: cc9c 12be 9417 9abe dc7a 8ebe 9dff 63be
00000100: 2dd0 13bd 2a63 b0be 0877 ed3d a089 f43d
00000110: d44d 8c3d 9cec 4d3d b519 903e f13e 983e
00000120: e3d4 3e3c 59bd 913e d62f 433e e835 433e
00000130: df1e 023d 1558 5d3d fb02 ea3d 5525 a0bc
00000140: 7953 b83e 32d5 8d3e 4852 1bbe 92d5 04bc
00000150: 8364 283e 7c0b 8a3d 9397 e6bc b1a0 f8bd
00000160: c475 a13e 415b ebbd 9bf0 4b3e f8f3 e8bc
00000170: ae61 63be 73bd 82bd 140e 04be feb8 b5be
-0.2757886 0.24788564 -0.15900424 -0.32678294 -0.2468873 -0.37681144 -0.115594 -0.10884697
-0.07496697 -0.051953245 -0.35741597 -0.40105158 -0.22858498 -0.009090665 -0.093846254 -0.45483026
-0.2609977 -0.27146983 -0.2063064 -0.28625223 -0.3317633 -0.16131176 -0.10646328 -0.25170416
-0.07791349 -0.36136332 -0.3108242 -0.3709726 -0.048399795 -0.36143914 -0.088137105 -0.26979718
-0.1586982 -0.06181587 -0.13630898 -0.36244085 -0.19817252 -0.028335704 -0.3287843 -0.09523301
-0.35611102 -0.09306422 0.054359715 -0.05789598 0.04770826 -0.12956205 0.10631189 -0.23841268
-0.11045506 -0.07145972 -0.015592384 -0.31977758 0.34800592 0.11133828 -0.3541957 -0.24119139
0.21326709 -0.37762532 -0.21211682 -0.34541824 -0.14317626 -0.30096114 -0.2782811 -0.22265477
-0.036087204 -0.34450656 0.11594969 0.119403124 0.06850782 0.050274476 0.28144613 0.2973552
0.011647436 0.28464773 0.19061217 0.19063532 0.031767722 0.05403908 0.1142635 -0.019549051
0.36001185 0.27701718 -0.15168107 -0.00810756 0.16444592 0.06740472 -0.028148448 -0.121400245
0.3153516 -0.11492015 0.19916002 -0.028436646 -0.2220523 -0.06383791 -0.12895995 -0.354927
