checkpoints_qa/sum_tok_ner_epoch_3.pt (torch, 262893 bytes, 7 tensors)

embedding.weight f4 [96, 256]
00000000: be6e 97be c894 78bf c1ed 95bf 60d8 08c0
00000010: f8a2 15be cb83 0e3f 50a8 d0bf b2c0 c3bf
00000020: 797b 05bf de90 813f fee2 c23f dce9 3bbf
00000030: 7d8d 7b3e 6670 363e e52b 733f eb59 15c0
00000040: 89e7 8dbf b6aa 81be 32b5 8ebe 1e08 633f
00000050: 43e4 d83e 78ef ccbc 97b1 5d3f 981e 3fbf
00000060: 7777 bcbe e3ae 4cbf a419 953e 92d6 7abf
00000070: cfd6 dc3e ff7e aa3f e18a 33bf 80fe b23e
00000080: f199 2a3f e665 cf3f 9733 65be 6dba babf
00000090: effd 833f 611c cabf c535 fe3e 6631 7f3f
000000a0: 907b 85bd cdc4 8ebe 13de 473f e2f3 633f
000000b0: a9ab d2bf c254 cdbe 27d7 40bf 3baf 00c0
000000c0: 92cb 463f 781e da3c dc9c b13e 71ab 273f
000000d0: fbfa f73f 824f b33f cbfd 70bf 1923 2ebf
000000e0: c4b4 cbbf 8cfd 673e 9612 0cbf 66f6 7d3f
000000f0: ae90 a5be 0305 13c0 809d 96bf 65d8 5a3f
00000100: ed98 d43e f890 c23f f1a4 78be 8c72 0940
00000110: fe31 383f e34a aebf d3ee 453f e16f 07c0
00000120: 9b32 c6bf 3a4d b6bf d04d 9ebf 655f f73f
00000130: 6f45 853e 2576 89bf 1f47 cbbf 15e6 08bf
00000140: 2a83 99be bb10 863f d188 ffbd f3ee 053f
00000150: 0abd e23f 281a e6be 36fa 2a3d aaef f0bf
00000160: 9f1a 21bf 9fff a93f b93c 81bf d1cd 66bd
00000170: cc7a 88bf d994 8c3e 4eec 71bf 178b 82bf
00000180: 250d d4be 22c1 f03f 0453 5dbe 1759 813f
00000190: ed76 00bf b2d2 b93e 8c73 b1bf d240 5e3e
000001a0: 7144 4a3f 88f7 09c0 afc7 a6be 3f15 d53e
000001b0: ecd2 fcbe 3ead 843e 1b1e 9ebf 8870 03c0
000001c0: c03d ae3d b6f4 02bf a61f b03f afaf d6be
000001d0: 3316 d3bf e509 ef3e 0462 e73f f132 013f
000001e0: b989 903e d18d 67bf e04c e53d 3706 6d3f
000001f0: a001 833e eac4 8abf b008 933f c1b5 f6be
00000200: 1d89 a23e fa14 a1be a1aa 653e 5a6a 123f
00000210: 052a 12bf 87fe 0a3e 88d5 16bf 9f9b 643f
00000220: 5574 44bf 3d53 7fbf d885 303e cde5 febe
00000230: 9b56 573f 883d 1dbf 5d20 a33f 2ec3 f8be
00000240: 958e 18bf eb06 963f 8138 2cbf 8b88 4a3f
00000250: 9ca8 61be 764a 163e 2c6d 413e 1777 5ebf
00000260: c3e1 ba3f afd6 383d 21d8 b53f a08f d2be
00000270: 67d8 103f dd0d 313f f0e7 cf3f 3f65 533f
00000280: 8fa1 b7bf 0ae3 b1be 16e1 2ebe 1927 0ac0
00000290: 8e03 98bd 0acb 14bf 8cec 833f 18a6 173f
000002a0: 4487 12bf e37a 96bf ad37 0f3f 8a5d 463e
000002b0: 0251 503f 556b 6e3d d536 99bf c9ee 33bf
000002c0: b39e 0cc0 b3d0 693e 13d5 9fbf 3ca9 9b3f
000002d0: 85e4 473f e4ef dbbf bb2a a93f 6dff e23e
000002e0: d0d6 6a3f a977 3c3d 0980 a8bf cbb7 08bf
000002f0: 750f 1c40 ad48 d23d 306a 523e 322e b83f
00000300: 1226 c5bf e1ba 063f ebb2 80bd e7f1 953f
00000310: 07ca f43e e504 7ebd 6c16 c4bf 10a0 13bf
00000320: dfbf 503e ddd8 423f bc25 8a3e f10b 9c3e
00000330: fb22 9d3e 4f27 26be 8fa8 2f3f 8401 953f
00000340: 18f4 2c3e a400 66bf 8f78 d5be 8d11 543e
00000350: 548c 0f3f 67b2 f1be 59b3 353f ac73 be3f
00000360: c745 d53e c53d 1f3f 39c9 f93e fa5b 9a3e
00000370: 3a8c 03c0 bb3b 0fbe f95c 92bf c546 31bf
00000380: 8d5e e4bf 5b7d b53e c22c 76bf 10f7 33bf
00000390: 2ade 643e b8f3 79bf 191d 803e d608 3a40
000003a0: 8937 3b3e 39b8 023f da73 5e3e 70a6 db3b
000003b0: 3336 d43f 9811 e9bd de54 d43f cd98 563e
000003c0: 4e41 0dc0 bc4b 39bf 34ba b73e e0e9 0c3f
000003d0: bdec 1f3e cd0f 4fbf e6c8 b8be 272f 1abf
000003e0: e719 843e b46a 443f 70bb a23e aacc b6bd
000003f0: 3804 adbe e0ce 8dbf dc52 bfbe 5ea2 713f
-0.29576677 -0.9710202 -1.1713182 -2.1382065 -0.14612949 0.5566985 -1.6301365 -1.5293181
-0.5214153 1.0122335 1.5225523 -0.73403716 0.24565692 0.17816314 0.9498885 -2.3336132
-1.1086284 -0.25325555 -0.27872616 0.8868426 0.4236165 -0.025016531 0.86599106 -0.7465606
-0.36809894 -0.79954356 0.29121125 -0.9798366 0.43132636 1.3320006 -0.7013379 0.34959793
0.66641146 1.6202972 -0.22382961 -1.4588143 1.0311869 -1.578991 0.49650398 0.9968475
-0.06517708 -0.27884522 0.78073233 0.8904401 -1.6458637 -0.40103728 -0.75328296 -2.0106952
0.77654374 0.026625857 0.34689987 0.65495974 1.9373468 1.4008639 -0.9413726 -0.68022305
-1.591454 0.22655314 -0.5471586 0.992041 -0.32336944 -2.297181 -1.1766815 0.8548644
0.41522923 1.5200491 -0.2428167 2.1476164 0.7195128 -1.3616604 0.7731754 -2.1162035
-1.5484194 -1.4242318 -1.2367496 1.9325987 0.26029536 -1.073918 -1.588108 -0.5347608
-0.29982883 1.0473856 -0.124772675 0.5231773 1.771394 -0.4494183 0.041742526 -1.882314
-0.62931246 1.3281134 -1.0096656 -0.056348626 -1.0662475 0.27457312 -0.945012 -1.0198697
-0.41416278 1.880894 -0.21613699 1.0105313 -0.50181466 0.3629356 -1.3863387 0.21704414
0.79010683 -2.155733 -0.32574221 0.41617772 -0.4937967 0.25913423 -1.2352937 -2.0537434
0.08507872 -0.5115465 1.3759658 -0.4193091 -1.649115 0.46687236 1.8076787 0.50468355
0.28230074 -0.9045077 0.11196303 0.9258761 0.25587177 -1.0841343 1.1487026 -0.48185542
0.31745234 -0.31461316 0.22428371 0.5719353 -0.57095367 0.13573657 -0.5891957 0.8929996
-0.7674001 -0.99736387 0.17238557 -0.497847 0.84116524 -0.61422014 1.2744251 -0.4858641
-0.5959256 1.1720861 -0.6727372 0.791146 -0.22036976 0.14676842 0.18889302 -0.86900467
1.4600147 0.045126613 1.4206582 -0.41125202 0.56580204 0.6916178 1.6242657 0.82576364
-1.4346179 -0.3474353 -0.17078051 -2.1586363 -0.07422553 -0.58122313 1.0306563 0.59237814
-0.5723765 -1.1756252 0.5594433 0.1937162 0.8137361 0.05820783 -1.1969858 -0.7028623
-2.1971862 0.22833519 -1.24869 1.2161021 0.7808307 -1.7182584 1.3216165 0.443355
0.9173403 0.046012554 -1.3164073 -0.53405446 2.4384434 0.10267768 0.2054832 1.4389098
-1.5402243 0.52628905 -0.06284126 1.1714448 0.47810385 -0.062016387 -1.5319343 -0.5766611
0.20385693 0.7611216 0.26981914 0.3047786 0.3069075 -0.16225933 0.68616575 1.1641088
0.1688999 -0.8984473 -0.4169354 0.2070982 0.560735 -0.47206423 0.7097679 1.487905
0.41654798 0.6220363 0.48786333 0.30148298 -2.0554338 -0.13987629 -1.1434623 -0.6924861
-1.7841355 0.354472 -0.96162045 -0.7029886 0.22350374 -0.9763751 0.250222 2.9067893
0.18282904 0.5106235 0.21723881 0.0067031905 1.657904 -0.11380309 1.65884 0.20956726
-2.207111 -0.72381186 0.3588425 0.55044365 0.15617652 -0.80883485 -0.36090773 -0.602282
0.25801012 0.76725316 0.31783628 -0.08925755 -0.3379228 -1.1078758 -0.37367904 0.9438838

lstm.weight_ih_l0 f4 [128, 256]
00000000: f857 303e 561e 65bd f5df e53c c018 223c
00000010: 8c0b 123d 81f9 953d 2755 f53d 0434 06bd
00000020: 4d09 033e 2254 a33d a89a 1f3d 048c 45ba
00000030: 9ffa 243d 40df f53d 82cd 833d a47f dc3c
00000040: eece 453d 3240 d83d 369f 97be 3d4d 803d
00000050: 270e 97bd 734a d23d faf0 4c3e f990 03bd
00000060: ef80 833e 0abf 9f3d 0784 c13d 98b7 4fbd
00000070: 13b5 553c 4325 f3bd 9513 043e be93 16be
00000080: 6182 13be de09 cd3c 8c4b 0f3e 007c 173e
00000090: ad3d f93d 4be3 043e 0c9f 45be 1250 e43d
000000a0: 6ca7 26bc 137e f03c 47a2 103e c6cd d0bb
000000b0: fbc3 a63d 3fa0 2f3e c6d3 313e 5eda 143e
000000c0: 946c ea3c e9b4 85bd c335 d23d f8d6 73bd
000000d0: b8f7 1e3e 983d dabd e9fa 3dbe fcbf 6a3d
000000e0: 5181 31be 1721 22be 69f9 2fbe e324 eb3b
000000f0: 9873 7fbd c25f 8abd 6e33 95be 84e8 86be
00000100: c91d 69be b8c5 8b3d ca94 e0bd a7e0 a23d
00000110: 102e 86bc bef7 aabd e84b 543d c9a8 6bbd
00000120: e5dd 5f3e 84f4 64bc b38c fa3d 5c58 62bd
00000130: e4c2 0a3d b58b 2a3e 8ed8 a6bd d439 b2bd
00000140: 9235 393d 877c d2bd a38d c5bb 67d6 443e
00000150: e47c eabd 1824 adbc 2d81 823e ae20 05be
00000160: b148 f3bd 5916 e93d 31f3 893d 8664 f03d
00000170: 35d1 f9bc 5164 203e 8146 033e 96c4 103b
00000180: 45eb 60bd aa13 403d d602 b3bd 3784 273d
00000190: 28d4 f23c 3ac9 303e 0613 3f3e fe23 5cbe
000001a0: a8ff 34bd f335 adbd 88cc 6c3e 337c fcbc
000001b0: 1461 193e 6aa6 b1bd 47cf 32bd 1f1e 24be
000001c0: 085f 2e3e c92c bdbd 8754 57be 4c7b 063d
000001d0: 60b9 af3c 074f e43d 1a9a b23c 071c 3dbc
000001e0: ef22 343e 5539 223e a972 ae3d 82c5 cdbc
000001f0: 2068 05bd a879 b3bd c230 043d 0f7b 8fbc
00000200: 0662 12ba 5a7f 34bd 4e92 c4bd 71d1 be3d
00000210: 23e0 52bd d7c0 0c3d 9129 293e 050a 333e
00000220: dd39 7c3e cb5d 08bd eb56 b43d 7585 d0bd
00000230: 9a08 2b3c 2218 733e af9b 593e 9b9e a53d
00000240: 9c4d d43d 6292 78be 1e38 c2bc e732 c93d
00000250: c44d 5b3e 2023 e23d ee74 83bd 6e01 9e3d
00000260: 7c5e 42be 6178 1c3e 03a7 0b3e bfb5 c0bd
00000270: 386e 8cbe 9216 003e 4d6d 2abe a420 803e
00000280: d3d8 86bd 7810 afbc ed3c cc3d 3367 7c3e
00000290: dd08 fabd e919 8abe 5eee 69bd ac96 e83d
000002a0: 1c5d 313d 22e6 233e 1e86 25be ff50 9ebd
000002b0: a14d aa3d b341 fbbd 16ee 2f3c 7e91 cfbd
000002c0: bf16 0bbe 1bbe 66be 81f0 5d3e 8472 20be
000002d0: 14ce f8bd b8ed b6bd 6bdd 5c3b a722 373e
000002e0: b869 f93c 811f 4d3d 26d7 a5bd bb16 423c
000002f0: d661 93bd 0f93 c6bd fb55 c8bd cc47 e03d
00000300: 3c97 2b3d 3800 253e 652e 953d deb0 813e
00000310: 72ba fc3d dc42 1fbe cf3c 083e ba43 8fbd
00000320: 18ea 363d 47e9 a63c eab2 67be 1876 49be
00000330: 77e7 85bd 7ce2 26bd 09be 37bd d538 203e
00000340: d654 e93d eb3c 803d a5f9 62be e080 943c
00000350: a2d3 283e a9c9 25be fd11 fbbd eebf 6a3e
00000360: 6293 593d 1c7a 403e c774 0c3e 7572 3f3d
00000370: 8ea6 81bd e0b8 91be 65ad 173c a43f 193e
00000380: eaf4 313e 09d6 af3d 5f58 4abc f5f2 ca3d
00000390: 59e0 0abe 924d 343e d678 0c3e 5d0e 29bd
000003a0: 0e28 0bbc 22a2 64bd 35b1 d53d e9cf a63d
000003b0: 2c8f 943d cb28 34be 96f3 4d3e c041 9ebd
000003c0: 7411 fbbc 98f3 03be 19a9 1d3c 18c7 febd
000003d0: b10f fb3d ac49 f3bc 5f38 71bd 4a63 cd3d
000003e0: 4276 1fbe ca1e 69bc 74ee 1a3c 688f e93b
000003f0: f90f a63d abeb c2bd 22d5 a3bd a33e 09bc
0.17221057 -0.055937134 0.028060893 0.009893596 0.035655543 0.0732298 0.11979132 -0.03276445
0.12796517 0.079750314 0.03896585 -0.00075358176 0.040278073 0.12005472 0.06435682 0.026916333
0.048293047 0.10559119 -0.29613656 0.06264732 -0.07375746 0.10268106 0.200138 -0.03212068
0.25684306 0.0780011 0.0944901 -0.050712198 0.01304366 -0.118723415 0.12898095 -0.14704797
-0.14405204 0.02502912 0.13993663 0.14793396 0.12169967 0.1297733 -0.19298953 0.11148085
-0.010171752 0.029356992 0.14124404 -0.0063721864 0.08142849 0.17150973 0.17365941 0.14536425
0.028616227 -0.065286465 0.102641605 -0.059531182 0.15524185 -0.10656279 -0.18552746 0.057311997
-0.17334487 -0.15832935 -0.17184986 0.007176028 -0.0623661 -0.067565456 -0.291408 -0.2634927
-0.22765268 0.06824821 -0.10965879 0.07953005 -0.016379386 -0.08348034 0.051830202 -0.057534013
0.2186199 -0.013974313 0.122338675 -0.055260047 0.03387727 0.16654857 -0.08146773 -0.08702436
0.045217104 -0.10277658 -0.0060288473 0.19222413 -0.11449602 -0.021135375 0.25489178 -0.13000748
-0.11879099 0.113812156 0.06735838 0.11737923 -0.030495265 0.15663268 0.12819864 0.002208983
-0.05491187 0.046893753 -0.08740775 0.040897574 0.02964218 0.17264262 0.186596 -0.21498105
-0.044189125 -0.084575556 0.23124897 -0.030820942 0.14978439 -0.08674319 -0.043654706 -0.16027115
0.17028439 -0.09237058 -0.21028338 0.03283243 0.021450698 0.11147886 0.021801997 -0.011542327
0.17591451 0.15842183 0.085179634 -0.025118593 -0.032570004 -0.087634385 0.03227306 -0.017514734
-0.00055840646 -0.044066764 -0.09598218 0.093172915 -0.051483285 0.034363594 0.16519763 0.17484291
0.24631448 -0.033292573 0.08805641 -0.10181705 0.0104390625 0.23739675 0.21250795 0.08086892
0.10366365 -0.2427459 -0.0237084 0.09824162 0.21416384 0.11041856 -0.06418787 0.077151164
-0.18981355 0.15280296 0.13637929 -0.09409665 -0.2742784 0.1250861 -0.16643257 0.25024903
-0.06584325 -0.021370158 0.09972558 0.24648742 -0.12208722 -0.26972893 -0.05711209 0.113568634
0.043301687 0.16005757 -0.16164443 -0.077302925 0.08315588 -0.122683905 0.010737916 -0.10135172
-0.13582896 -0.22533457 0.21673776 -0.15668684 -0.12148681 -0.0893206 0.0033701311 0.17884313
0.030445918 0.050078873 -0.08097677 0.01184624 -0.07196395 -0.09696018 -0.097820245 0.10951194
0.041892275 0.16113365 0.0728424 0.2533025 0.12340249 -0.15552849 0.13304447 -0.0699534
0.044656843 0.020374907 -0.22626844 -0.19673955 -0.06538289 -0.040743336 -0.044858966 0.1564668
0.11393134 0.06261619 -0.22165544 0.018127859 0.16486982 -0.16190208 -0.1225929 0.22924778
0.05311907 0.18796581 0.13716422 0.046740014 -0.06330596 -0.2846136 0.009257649 0.14965683
0.17378584 0.08585746 -0.012350171 0.099096216 -0.13562144 0.17607716 0.1371797 -0.041273464
-0.0084934365 -0.055818684 0.1043419 0.081451245 0.0725387 -0.17593686 0.20112452 -0.077273846
-0.03064797 -0.12885892 0.009622836 -0.12440318 0.12258852 -0.029698215 -0.05889165 0.100287035
-0.15572456 -0.014228532 0.009456266 0.007127691 0.08108515 -0.09517606 -0.07999636 -0.00837675

lstm.weight_hh_l0 f4 [128, 32]
00000000: fdbf 9a3d cb9d a5be 3dad 2f3d 6fad 7d3d
00000010: a026 f13e 6256 c23e ab15 573e ea17 cb3d
00000020: d798 013e 78bb 0abf e412 3dbd 924d d53c
00000030: d8d8 b5bc d9a4 563d 41b9 5bbd 3b52 8c3e
00000040: bd55 07be d638 113e 3ca6 843e fcba c8be
00000050: 3c01 ab3e 50cf c5be 67b9 0ebe e27d cfbd
00000060: ed0a 2ebe f42c 35bd ef69 d43d 265f f9bc
00000070: c75e 5abe feba e0be 5c7b 10be 1144 93be
00000080: b4f8 133d a35a 1dbe 7e42 403e 50d5 ba3d
00000090: 0c57 6fbc 5241 e83d 6f4a 013e a3aa 34bd
000000a0: c1d7 2d3e 41fd 513d 0395 5ebb 086d b4bd
000000b0: 368f 1fbd 2f40 973e d09a 95be 2752 f23d
000000c0: 2675 18bc c0d7 153d 1e87 d43e 741d d8bd
000000d0: 6932 823e 3cf6 48bc fa18 fa3a f925 99be
000000e0: d9e3 0e3e b40e acbe 2b29 8cbd 5c6d 6f3e
000000f0: c702 8cbd 109d 82bd c0e6 0a3d dabd d2bc
00000100: 4462 83be b2af f9bd 44c6 eebd 7b80 173e
00000110: b735 d0bc 5e95 f33e 4762 a13e e566 4d3e
00000120: d2d0 1d3e 312b efbd 489f f13d c446 263c
00000130: 2d78 bebe 3350 10bd 3a61 3abc d100 d9bc
00000140: ba62 9b3d c27f 273d edae 35bd 0a2f d6be
00000150: 0e42 bf3e c4e9 11be f4d0 213e e236 b1be
00000160: 3b4c 77be 368f 863e 041f 89be 3ee9 d0bb
00000170: 74d2 debd 49bd 48be 488f abbd a4ef cfbc
00000180: 017a ad3d df57 433d 3765 993e a145 e3bd
00000190: 7528 61bd b139 ca3e c124 a13e 80ab 7bbe
000001a0: a1c6 7abb 4c10 9fbd 1ac5 98bd 7824 2d3e
000001b0: 835e 2fbc 4e2a 533d 0939 c83d 312f 3cbe
000001c0: a3c3 a93c 21d2 f33d 3f90 33be 6cf6 543e
000001d0: a670 433e bb1b 893d a993 ffbd 6e09 af3c
000001e0: fc17 0cbd 812c 673c da96 56be 1097 d03e
000001f0: 24f3 bbbd a315 76be afa2 8dbe 4d45 ea3d
00000200: d3c9 a33d f831 9dbb 8c13 2e3e 3306 2a3e
00000210: 7043 a0bc 953f 04be acd2 c6bd f476 22bd
00000220: 90cf bfbd 7d32 5ebe 2ecb 1c3e 027c b43d
00000230: a55b 5dbe 9bec 90bb 0fa6 b5bd 6851 363e
00000240: 1086 f03d a1ae 183e c09d 0cbd e0c8 4bbe
00000250: 88d8 5c3e a040 263d b773 cb3b 66a6 0cbd
00000260: 446a cbbd 9aa8 8cbc 4b37 b3bd 0fdb f63d
00000270: 7c0f 1e3d 1c58 aabc 6610 143d 76db a43d
00000280: 23c9 9abe 49ff 54be 336e 513e 9466 3c3e
00000290: 601d 553e 63fd e7bd ded0 a23d f928 e23d
000002a0: 48b8 943e b246 b3bd 572f 323e 3ecf 2b3e
000002b0: 2437 95be fdcb bf3e 9573 ecbd e00f 5abd
000002c0: e37e 9d3e db23 223e 101f 973e dd03 86be
000002d0: 0fd5 313e 1b8f 95be e6f9 803e bbb9 42be
000002e0: 1547 2bbd 18b9 583d 74dc a5bd 6509 8d3d
000002f0: c90c 27be d472 c4bd 710e 98bd a85e 893e
00000300: b8d8 aabd 3a76 79be 2da3 123e df36 b5bb
00000310: b239 763e 52ea 02be fa8d 983d 47fe 4cbc
00000320: 2fc6 f03d 84f5 823d 2903 55bc 5f75 9ebc
00000330: 7c0c dfbd 6bf9 a8bc 4306 4abd 64c1 0ebe
00000340: ac11 583e a137 433e 451e 6c3e 54a6 b5bc
00000350: 3163 b2bd 1b92 5ebe 1920 1a3c fcb1 42bc
00000360: c64b a6bb 1743 00be 2818 54bc 6265 1c3e
00000370: 66b8 ffbd 4be4 52be 5075 c8bd 795a 693d
00000380: dfee 25bd c80c b3bd 4c5a f9bd 965e b43e
00000390: cab1 8b3d 2e68 98be 231f d63e ceed 623e
000003a0: fbab 733e 3914 f1bd fec7 083e 222f 2e3e
000003b0: 556f a53d 7c4e ed3e ab2c b9be 7343 ff3e
000003c0: 763a a03e 5841 1d3e a450 703e 11b4 a1bd
000003d0: 2db6 48bb 3fd6 10bd 5690 b33d 0884 2ebe
000003e0: c8d1 32be d9ee c5be c50f dabc da63 623e
000003f0: 9610 04bf 13aa df3d 9baa cb3d 29e5 fe3e
0.0755615 -0.3234695 0.042889822 0.061932977 0.4709978 0.3795653 0.2100436 0.099166706
0.1265596 -0.54192305 -0.046160594 0.026037965 -0.022198126 0.052403305 -0.05364347 0.27406487
-0.132163 0.14181837 0.25908077 -0.39205158 0.3339938 -0.3863473 -0.13937913 -0.10131432
-0.16996355 -0.044232324 0.10371768 -0.030440878 -0.21325217 -0.43892664 -0.14109558 -0.28762868
0.036125854 -0.15366606 0.18775365 0.091227174 -0.014608156 0.11340584 0.1262605 -0.044108044
0.16976835 0.051266912 -0.003396333 -0.088098586 -0.038954936 0.29541156 -0.29219675 0.118320756
-0.009305274 0.03658271 0.41509336 -0.10552493 0.25429085 -0.012265738 0.001908093 -0.29911783
0.13954104 -0.33604968 -0.0684379 0.23381561 -0.06836467 -0.063776135 0.033911467 -0.025725294
-0.25660908 -0.12191714 -0.1165891 0.14795105 -0.025416238 0.47574896 0.31520292 0.20058782
0.1541169 -0.1167816 0.117979586 0.010148708 -0.37201062 -0.035232734 -0.01137572 -0.026489647
0.0758719 0.040893324 -0.044356275 -0.41832763 0.37355083 -0.14249331 0.15802366 -0.34612185
-0.24150173 0.26281136 -0.26781476 -0.006375461 -0.108799845 -0.19603457 -0.08376938 -0.025382824
0.08470536 0.047691222 0.29960033 -0.11097265 -0.054970223 0.3949714 0.31473354 -0.24577141
-0.0038265365 -0.0776678 -0.07459469 0.16908443 -0.010703686 0.051554017 0.097765036 -0.18377377
0.02072317 0.11905313 -0.17535494 0.20797127 0.1908594 0.06694742 -0.12479336 0.021366801
-0.03420256 0.014109732 -0.20955983 0.40740252 -0.09177235 -0.24031691 -0.2766318 0.11438999
0.07997479 -0.0047972165 0.16999644 0.16603927 -0.019563407 -0.1291488 -0.09708151 -0.039664224
-0.09365761 -0.21698947 0.15311882 0.08812715 -0.21616991 -0.004422737 -0.08869564 0.17804492
0.117443204 0.14910366 -0.03433013 -0.19900846 0.21566975 0.040588975 0.0062088626 -0.034338377
-0.09932378 -0.01717024 -0.08750781 0.12053501 0.038588986 -0.020793967 0.03614845 0.08049671
-0.3023158 -0.20800509 0.20452194 0.18398505 0.20811987 -0.113276266 0.079499945 0.11042971
0.29046845 -0.087537184 0.17400871 0.16778275 -0.2914363 0.37460318 -0.11545483 -0.053237796
0.3076087 0.1583399 0.29515886 -0.26174822 0.17366432 -0.29210743 0.25190657 -0.19016163
-0.041815836 0.052910894 -0.08098689 0.068865575 -0.16313471 -0.09592214 -0.074246295 0.2683003
-0.08342117 -0.24361506 0.14320059 -0.005530223 0.24045447 -0.12784699 0.07448955 -0.012511796
0.117565505 0.06394485 -0.013001242 -0.019343076 -0.10891053 -0.020626744 -0.049322378 -0.1394096
0.21100491 0.1906419 0.23058422 -0.022174038 -0.087103255 -0.21735422 0.009407067 -0.011883255
-0.005074951 -0.12525593 -0.012945212 0.1527305 -0.12486343 -0.205949 -0.097880006 0.056971047
-0.04051101 -0.08742672 -0.12175426 0.35228413 0.0682102 -0.29766983 0.4182063 0.22161028
0.23796074 -0.11771435 0.13357541 0.17010167 0.080778755 0.4634894 -0.3616689 0.49856147
0.31294602 0.15356958 0.23468262 -0.07895673 -0.0030626163 -0.03536057 0.08767764 -0.17042553
-0.17462838 -0.3865879 -0.026618848 0.22108403 -0.5158781 0.10921111 0.0994465 0.4978421

lstm.bias_ih_l0 f4 [128]
00000000: 5eef 053e 48b3 153e 01b4 41bc 863e dd3c
00000010: 99e9 0e3d c8f6 8d3e 5c05 ed3d 862e a93e
00000020: 0906 473e 44cc d03d f4cc 43bc ced5 003e
00000030: a6af 9bbd c386 5a3e fd43 7f3e c845 303e
00000040: 1fd8 cc3d 34da 9b3d d814 c73c f1a6 42bc
00000050: 5023 913d 3398 cbbd 4ed8 1f3c 7003 c53d
00000060: 28a5 883e d12e 9a3d 4323 bebd c85b 8b3e
00000070: 53f7 1d3d 20d4 8c3e f1f9 933e a1ab 323e
00000080: 261d 46be 8b4a c5bc 8ee7 463e fdf8 5e3e
00000090: 2d4a a8bc d763 003e 5eba d83d ab9e 2abe
000000a0: ce17 0ebd c0f3 80bb a5dc 2e3d 176d 883d
000000b0: 01c6 373e 312a 013d 2dca e53d 0f30 a6bd
000000c0: e62b 193d 481e 1dbc fad0 b03d bcd1 213e
000000d0: 7d7f 043c 38ad 0d3e 385a 01ba aad1 07bd
000000e0: 5fa6 fe3d 62b3 8abd 1a2d e7bd f087 c0bd
000000f0: 3217 603e 9fb6 4f3d 89a5 f33c 31da 12bd
00000100: 2b72 fe3d 25d4 21be ecbd 853d 60d3 963d
00000110: da32 0b3e 223d 1bbe 40bc 123b 17a9 6bbd
00000120: 3792 e7bd c06b b6bd 2c8b 57bd 491a 9dbc
00000130: ce44 d93d d29f 043e b015 6b3d 23e0 623d
00000140: c760 a5bd 2ba2 2e3e 33c1 b23d 2b4c 093e
00000150: a382 033e cdda a63d 1301 293e bedc f43d
00000160: 3b05 d9bb fc92 1ebe c659 803d 602c 243e
00000170: 672d e5bd 4f26 a63d be28 45be 516e f0bc
00000180: d823 6c3e 331b 103e 714f 533e 05e7 d73c
00000190: a1f3 ca3a a259 833e ab55 653e 3da3 a4ba
000001a0: 690a c9bd d37d 553e 0240 80bd ac89 8dbd
000001b0: e83f 983d 5927 053e 2432 583e e67a 753e
000001c0: c40b 86bd 8298 fb3d bac8 bb3d f5fd 33bb
000001d0: 256f 673e 8ce8 a13d 83da 813d 01a3 b83d
000001e0: f35a 8e3d e5c8 df3d a654 b03d aca6 213c
000001f0: c6ab cb3d 5703 a7bd 87a3 173e 2017 6f3e
0.13079593 0.14619172 -0.011822701 0.027007353 0.034890745 0.27727342 0.11573288 0.33043307
0.19435896 0.101952106 -0.01195072 0.1258156 -0.07601862 0.2134047 0.24928279 0.1721412
0.10002159 0.07609978 0.024301931 -0.011880622 0.070868134 -0.09941139 0.009756161 0.09619796
0.26688504 0.07528461 -0.092840694 0.2721846 0.038565945 0.2750559 0.28901628 0.17448284
-0.19347057 -0.024083396 0.19424269 0.21774669 -0.020543182 0.12538086 0.10582422 -0.1666209
-0.03469067 -0.0039353073 0.04269089 0.06661432 0.17946626 0.031534377 0.112202026 -0.08114635
0.03739538 -0.009589739 0.08633609 0.15802664 0.008087036 0.13835609 -0.0004934403 -0.033158936
0.124340765 -0.06772496 -0.11287899 -0.09400928 0.21883848 0.05071127 0.02974202 -0.035852615
0.124241196 -0.15803583 0.06530365 0.07364535 0.13593617 -0.15160039 0.0022390038 -0.057534304
-0.11307185 -0.089072704 -0.05262296 -0.019177573 0.106088266 0.12951592 0.05739373 0.055389535
-0.080750994 0.1705405 0.08728256 0.13407962 0.12842803 0.08147202 0.16504316 0.11956166
-0.006622938 -0.15485758 0.06267123 0.16032553 -0.111903004 0.081127755 -0.19253823 -0.029349478
0.23060548 0.14072876 0.20635773 0.026355276 0.0015483984 0.25654322 0.22395961 -0.0012560856
-0.09816439 0.2084878 -0.062622085 -0.069110245 0.07434064 0.13003291 0.21112877 0.23972663
-0.06545213 0.12284948 0.09169145 -0.0027464603 0.22600992 0.07905683 0.06340506 0.090154655
0.06950941 0.109269895 0.086098954 0.009866398 0.099448726 -0.08154934 0.14808474 0.23348665

lstm.bias_hh_l0 f4 [128]
00000000: ca00 9f3e 7db4 a03d ec17 473e 8740 0e3e
00000010: f4bc b7bd 8cd3 b33e bffd 0d3e 9603 143d
00000020: 363c 033e ca10 153d 0d49 013e 15df 29bd
00000030: 8dbc 223e 0286 0a3e 0b3c 0c3e c0ac 643e
00000040: 9860 5f3e 2694 543e 467c 873e 93b1 063e
00000050: 2dc8 1abd 7176 ff3d fd3c 653d 5ea8 343d
00000060: de1b d23d b9f7 463e b05b babd 6797 f03c
00000070: 0b0e 85bd 92a6 663e 6abe 0bbb 5052 663e
00000080: bc02 34be dd02 67bd db74 4fbc 5bde 523e
00000090: c07e b53d a183 01be dea0 fd3d cbf7 89bd
000000a0: 8649 903c e13a b4bd a92c b53d 83e6 dabd
000000b0: 004d 54bd 4865 6f3e af15 4abe b736 483e
000000c0: b46e 553e fb24 c93d e033 cabc 603e ac3b
000000d0: 9105 9c3d 1043 69bd 986f 473e 2a1c d73d
000000e0: c242 c9bd d396 f4bd 17cf c1bd 119e 81bd
000000f0: 51e7 3d3c 2a73 0e3e 2d70 53bd 54ab 813c
00000100: 1b4b 6e3d 09e7 bd3d d8e0 973d e88e cf3d
00000110: 8d69 cc3d e2c6 bc3d 346a 503e 529e 18bd
00000120: 2486 763c cfa4 a7bd 1204 c2bd 8a69 cc39
00000130: a73d cc3b 0ad7 993d 833f efbc 6c43 013d
00000140: c8e6 013e bf08 093e 9c6a b13c 7ae5 d93a
00000150: c34a 2a3e 375c 31be 816b 203e 3c4e e9bd
00000160: 5fb9 43be e857 0fbe a9fa 7cbd f187 143e
00000170: 3023 34be de03 24be 6904 0b3e 2406 90bd
00000180: 3962 f13d efb9 dabd 6c50 613e 1a94 6e3e
00000190: 07d1 c6bd 5e6a 563e 0e67 203e 8a56 633e
000001a0: 7faa 9bbd 0601 063e 017a 87bd bc83 113b
000001b0: 806b 283e b509 da3d 934a 3f3e 1ac0 b43d
000001c0: e9b2 683e d5f3 36bd e205 633e 79e8 183e
000001d0: 3249 bc3d b616 46bd 9d03 e43d 7cba 65bd
000001e0: 6895 dc3d 745a 863e ded3 1a3e 8dfe 733e
000001f0: 7822 a63e 9f80 fb3d d059 fc3d aa4b 8a3e
0.3105529 0.078469254 0.19442719 0.13891803 -0.08971587 0.35122335 0.13866328 0.036136232
0.12815937 0.036392964 0.12625523 -0.041472513 0.15892239 0.13527682 0.1369478 0.22331524
0.21814191 0.20759639 0.26462 0.13153677 -0.03778856 0.12473763 0.055966366 0.04410588
0.102592215 0.19430436 -0.09099519 0.02936907 -0.06496819 0.22524479 -0.0021323212 0.22492337
-0.17579168 -0.056399215 -0.012662138 0.20592634 0.08862066 -0.12647869 0.123841986 -0.06736716
0.017613184 -0.08800293 0.08846409 -0.10688498 -0.051831245 0.2337848 -0.19734834 0.19552122
0.20843011 0.098215066 -0.024682939 0.005256459 0.07618249 -0.05694872 0.19476163 0.10503419
-0.09827186 -0.1194283 -0.094633274 -0.06328977 0.011590795 0.13911119 -0.05162065 0.015828766
0.058177095 0.09272582 0.074159324 0.10134679 0.0998107 0.092176214 0.20353013 -0.03726036
0.01504663 -0.081857316 -0.094734326 0.00038988545 0.0062329355 0.075117186 -0.02920509 0.03155844
0.12685692 0.13382243 0.02165728 0.0016624175 0.16630082 -0.17320333 0.1566601 -0.11391875
-0.19113682 -0.13998377 -0.061762486 0.14504983 -0.17591548 -0.160171 0.13575901 -0.07032421
0.117863126 -0.10679995 0.22003335 0.23298684 -0.097078376 0.20939013 0.15664312 0.22200981
-0.07600879 0.13086328 -0.06615067 0.0022203764 0.16447258 0.10646383 0.18680792 0.08825703
0.22724499 -0.04466613 0.22170213 0.14932431 0.091936484 -0.048361503 0.11133502 -0.05608605
0.107706845 0.26240885 0.15119883 0.23827572 0.32448173 0.12280392 0.12321818 0.27010852

fc.weight f4 [96, 32]
00000000: fcaf c73d 62fb 903e 5cbe 35be 13c0 87be
00000010: a2cd a8be cb0e f0bc 0f3e 20be 4b8e 2fbe
00000020: fd1b 76be 9a72 1c3d 2a46 88be efc4 53be
00000030: b680 0b3e 422a a1bd a584 ff3c 95c0 5dbe
00000040: fb58 83be 871f a8be 1036 85be 6a9c 2a3e
00000050: e7d5 61be c001 e03d 00b1 22be 75d3 163e
00000060: 32b8 563e 1beb de3d d331 533e 9c9a 44be
00000070: b1fe bb3e a0ce 8e3e 604d ba3e 4e67 a6be
00000080: a980 cc3e fa29 4abe 8fcd 0cbd fe48 1c3d
00000090: 46d3 bd3e ac85 e4be a859 bf3d 45fa f93e
000000a0: ec99 6f3e df3a 83be d7de 6f3e 2f75 0fbe
000000b0: 368f 51be db38 433e 9a62 10bf 0d4d a03e
000000c0: 603a 543e aba2 1cbf 4b6a 4bbd db8e 13be
000000d0: d5d3 2c3e c44f 90be f97b e4bd c15b 34be
000000e0: 7294 08be 5650 7e3e ca35 3ebe 619c 143d
000000f0: 2a91 cdbe 9ddc 81be 5216 043f 66e7 0c3f
00000100: 758a 9d3e ba76 ca3e f0fc 82be 2061 f4bc
00000110: 4c37 a6be af3e d63d db5a 06be 8cb8 94be
00000120: 7930 7abd e149 eb3d 76e4 26be b902 5abe
00000130: 0ed5 943e e739 cebc 4d13 153e da2d 95be
00000140: 468e 52be b731 74be 3225 9ebe aa85 cf3d
00000150: 9164 8bbe 276c df39 02a6 93be 1d2d aa3e
00000160: 20f9 723e 8d5d c1bc 734e 343e 68fa d0bd
00000170: a713 ed3d 60e0 a53d e67b 803e 8367 efbd
00000180: bb40 873e f972 763e 615d b1be 3f5e 29bd
00000190: f724 9bbe 3f3e f9bb 1b66 93bd 6672 32bd
000001a0: 790b 32be 9c7b 013d 8287 58be a8ec a2be
000001b0: c07f 303d ad01 afbd 0a7f 203e 5805 a4be
000001c0: af14 e3bd 839b afbe 7dab 9fbe e456 053e
000001d0: 0c66 bcbe efe7 b53d dc8b 7fbd 9159 233e
000001e0: 1c0f b33e 31df f43d 6b96 e13c 44f5 0ebe
000001f0: 6a71 1a3e 1efe 8c3e 4ba9 403e bb76 7dbe
00000200: 1f7b 003e 50fe c43e 312f 81be fa8c 8cbe
00000210: ed68 a0bd 210c 2a3e 93f7 99be a012 66be
00000220: 7d45 6bbe 6380 963d 6644 56be 6afa 90bd
00000230: 855e bc3d aa08 cebd ec0f 873e ee10 8dbe
00000240: 3888 37bb 9243 47be 8604 b9bd 2a66 9e3d
00000250: 88d0 8dbe a9a5 d43d 3c99 ebbb 29d1 ab3e
00000260: 401a 3e3d ecd3 cb3d f8c5 bc3d 0cb0 0ebe
00000270: 2e0c 713e 71b6 7e3e 89ed 673e 8a6c 36bd
00000280: dde3 963e 8ed3 8e3e 0304 84be d0f0 79be
00000290: 5c9b acbe 3c68 da3c f9e6 72be 39a7 09bd
000002a0: 31de a8be f806 133d 2e19 7cbd 2c0a 81be
000002b0: 294e b63d 9e11 2dbe 8442 333e ec23 b9bc
000002c0: dc8e 94be 2b7e d9bd 7495 99be ad2a 863e
000002d0: e254 c3bd 6786 6d3d c24b 9fbe 9057 713e
000002e0: 7c5f 353e a0d1 943d 0500 623e 1e21 d6bd
000002f0: ed15 a13e b466 703e 7117 ba3e dab4 b7bd
00000300: 58e6 813e 07a0 413e 7483 f1bd 9a73 95be
00000310: b1ef 84bd 1913 073d 6112 95bd 3955 50be
00000320: a67c 06be 8c2a b03e fca7 8cbe 5a13 a2be
00000330: 65a9 b83d 7657 88bd 413e 103e a1d8 f7bd
00000340: af0f 65be b22f aabd 05e0 1fbe bf9d 9c3d
00000350: a53d 61be 1e29 2c3e 9796 40be 8aa6 b33d
00000360: f610 c93d 2e90 973c 39d5 a83e f262 b8bd
00000370: 3c94 c33e c542 263e 915b 643e 2ab5 5bbe
00000380: 8af9 0b3e 7d6a d63c f842 70be 6117 b7bd
00000390: ab03 01be d882 923e dbd0 4ebd 221f b7be
000003a0: 26ed 5ebe 9242 443e 7231 d1bd 0434 5bbe
000003b0: 2897 5c3d 2b47 fabc 0039 b73e e2af abbe
000003c0: 56de 39be 9626 61be 7010 31be 610c bd3d
000003d0: 6442 3dbe e973 473e 1f47 a9be f4dd 5f3d
000003e0: df0f 553e 625b 163e a545 e73d bd17 003d
000003f0: 3720 4c3e 7faa d03d 6f8a 303e 40e6 3dbe
0.09750363 0.2831679 -0.17748398 -0.26513728 -0.32969385 -0.029303929 -0.15648673 -0.17144124
-0.24034114 0.03819523 -0.2661603 -0.20680593 0.13623318 -0.07869388 0.03119118 -0.21655495
-0.25653824 -0.32836553 -0.2601781 0.1666123 -0.22054254 0.10937834 -0.15887833 0.14729102
0.20968702 0.108846866 0.20624475 -0.19199604 0.36717752 0.27892017 0.36387157 -0.3250069
0.3994191 -0.19742575 -0.034375723 0.03815555 0.3707525 -0.44633234 0.093432724 0.48823753
0.2339856 -0.25630853 0.2342485 -0.14009546 -0.20464787 0.19064657 -0.56400454 0.31308785
0.20725393 -0.6118571 -0.049661916 -0.14409964 0.16877683 -0.28185856 -0.111564584 -0.17613126
-0.13337877 0.24835333 -0.18575206 0.036281947 -0.40149814 -0.25363627 0.5159656 0.55040586
0.30769697 0.39543706 -0.255836 -0.029831469 -0.32464063 0.10461175 -0.13120596 -0.29047048
-0.061081383 0.11488701 -0.16298088 -0.21290101 0.29068798 -0.025174094 0.14558144 -0.29136544
-0.20562086 -0.2384709 -0.30887753 0.10132916 -0.27225164 0.00042614454 -0.2883759 0.33237544
0.23727846 -0.023604179 0.17608051 -0.10204011 0.11576014 0.08099437 0.25094527 -0.11689665
0.26416573 0.24067296 -0.34641555 -0.041349646 -0.3030164 -0.0076062973 -0.071972094 -0.04356613
-0.17387189 0.031612024 -0.21145442 -0.3182118 0.043090582 -0.085452415 0.15673462 -0.32035327
-0.110879295 -0.34298334 -0.31185523 0.13021427 -0.36796606 0.088821284 -0.06238924 0.15952136
0.34972465 0.11956633 0.027537545 -0.13960749 0.15082327 0.27537626 0.1881458 -0.24752323
0.12546967 0.38475275 -0.25231317 -0.27451307 -0.07832513 0.1660619 -0.30071697 -0.22468042
-0.22975726 0.073487066 -0.2092453 -0.07079013 0.09197716 -0.10060246 0.26379335 -0.2755198
-0.0028004777 -0.1945937 -0.09034066 0.0773433 -0.2769816 0.1038316 -0.007189898 0.33558014
0.046411753 0.0995253 0.09217447 -0.13934344 0.23539802 0.24874283 0.22649206 -0.044537105
0.2947072 0.27895778 -0.2578431 -0.24408269 -0.3371228 0.026661031 -0.23720922 -0.03360674
-0.3298202 0.035895318 -0.06154745 -0.25203073 0.089016266 -0.16901252 0.17505842 -0.022600137
-0.29015243 -0.10619768 -0.29996836 0.26204434 -0.095376745 0.057989504 -0.31112486 0.23568559
0.17712206 0.07266545 0.2207032 -0.10455535 0.3146204 0.23476678 0.3634601 -0.089700416
0.2537105 0.18908702 -0.11792651 -0.2918976 -0.0649103 0.032977197 -0.07278896 -0.2034501
-0.13133487 0.3440746 -0.27471912 -0.3165539 0.090166844 -0.06657307 0.14086248 -0.121018656
-0.22369264 -0.083098784 -0.156128 0.07647275 -0.21996172 0.1681256 -0.18807445 0.08771999
0.09817688 0.018501367 0.32975176 -0.09003247 0.3819903 0.16236408 0.22300555 -0.21455827
0.1366941 0.026173824 -0.23463047 -0.08940006 -0.12599055 0.2861545 -0.05049215 -0.3576594
-0.21770152 0.1916602 -0.10214509 -0.21406561 0.05385509 -0.030551514 0.35785675 -0.33532625
-0.1815122 -0.21987376 -0.17291427 0.09230877 -0.18482357 0.1947781 -0.33062074 0.05465503
0.20806836 0.14683297 0.112925805 0.03127264 0.19934164 0.101887695 0.17240308 -0.18544865

fc.bias f4 [96]
00000000: 0658 43be 7596 623e 071e 94bd 295e 6fbe
00000010: f263 1fbe 1fb8 96be a362 92bc 45ad aebd
00000020: 1c81 723c 767f 1a3d 4d68 8abe d5a8 9abe
00000030: 903b 0fbe c321 d8bc b22e 223a bae9 80be
00000040: 40bd 2bbe f158 40be f369 f5bd 7867 47be
00000050: 37cc 7cbe 6fa0 82bd a6aa 9fbc 2dad 25be
00000060: 4461 823c 0243 89be 3f53 65be b755 8fbe
00000070: 9427 123d 9ee4 8cbe 6b46 a33b 8f89 3fbe
00000080: f025 8abd 281b f43c 1484 f4bd c686 8fbe
00000090: 28a9 41be 7c4d 46bb f174 71be ab69 1ebe
000000a0: e8d1 85be f2ad 15ba 5f7c 25be 0917 f03c
000000b0: f4a3 133d da45 06be 0787 803d eeb9 5fbe
000000c0: 9e59 a5bc ae7e 3cbe 6d60 a2bd 6dc7 72be
000000d0: fa8b 103e 0c2d c63d 7874 87be 85a7 17be
000000e0: 8fc5 ab3d 018f 91be fdca fdbd 9d62 85be
000000f0: 165a 5abd 57f8 60be fb58 3ebe c9c8 08be
00000100: 2fc2 453d d094 82be 2f6b 0b3e 68fb b33d
00000110: ceda ef3d c98f 3b3c 6035 683e 7d30 563e
00000120: b3d5 0fbc 745a 023e 3fcb 7d3e a6f4 b93d
00000130: 2319 003c cb92 4c3c fac8 b43d 62c5 e23c
00000140: 0d65 843e e13a 1c3e 57e6 95bd 45d7 653d
00000150: d3de 163e c288 d63d 8953 4b3c 0b88 37be
00000160: 544d 2a3e f088 57be d4be 473e a3a3 ae3d
00000170: bbf9 06be ccd2 c03c 0bb3 2ebd 16e6 89be
-0.19076547 0.22127707 -0.0723229 -0.23375763 -0.1556547 -0.29437348 -0.0178693 -0.08529142
0.01480129 0.037719212 -0.270327 -0.30206934 -0.13987565 -0.026383286 0.0006186768 -0.2517832
-0.16771412 -0.18783928 -0.11983099 -0.19473064 -0.24687277 -0.063782565 -0.019490551 -0.16179343
0.01591552 -0.26808935 -0.22395037 -0.27995083 0.035682276 -0.2751817 0.0049827597 -0.18704818
-0.06745517 0.029798105 -0.119392544 -0.2803251 -0.18912184 -0.0030258587 -0.23579766 -0.15469997
-0.26136708 -0.0005709819 -0.16160725 0.029307859 0.03604503 -0.13112584 0.062757544 -0.2184827
-0.020184334 -0.184077 -0.07928548 -0.23708887 0.14115897 0.09676561 -0.26456046 -0.14809997
0.08387291 -0.28429416 -0.123922326 -0.26051798 -0.05330857 -0.21969734 -0.18588631 -0.13357843
0.04828089 -0.2550416 0.13615106 0.08788186 0.117116556 0.011447855 0.22676611 0.20916934
-0.008778977 0.12729818 0.24784563 0.09079866 0.007818493 0.01248617 0.08827396 0.02768201
0.25858346 0.15256836 -0.073193245 0.0561135 0.14733438 0.10475303 0.012410053 -0.1792299
0.16631061 -0.21048331 0.19506389 0.08527305 -0.13181202 0.023538016 -0.042651217 -0.26933354
