checkpoints_qa/sum_tok_ner_epoch_2.pt (torch, 262893 bytes, 7 tensors)

embedding.weight f4 [96, 256]
0	0xbe976ebe	-0.29576677
1	0xbf7894c8	-0.9710202
2	0xbf95edc1	-1.1713182
3	0xc008d860	-2.1382065
4	0xbe15a2f8	-0.14612949
5	0x3f0e83cb	0.5566985
6	0xbfd0a850	-1.6301365
7	0xbfc3c0b2	-1.5293181
8	0xbf057b79	-0.5214153
9	0x3f8190de	1.0122335
10	0x3fc2e2fe	1.5225523
11	0xbf3be9dc	-0.73403716
12	0x3e7b8d7d	0.24565692
13	0x3e367066	0.17816314
14	0x3f732be5	0.9498885
15	0xc01559eb	-2.3336132
16	0xbf8de789	-1.1086284
17	0xbe81aab6	-0.25325555
18	0xbe8eb532	-0.27872616
19	0x3f63081e	0.8868426
20	0x3ed8e443	0.4236165
21	0xbcccef78	-0.025016531
22	0x3f5db197	0.86599106
23	0xbf3f1e98	-0.7465606
24	0xbebc7777	-0.36809894
25	0xbf4caee3	-0.79954356
26	0x3e9519a4	0.29121125
27	0xbf7ad692	-0.9798366
28	0x3edcd6cf	0.43132636
29	0x3faa7eff	1.3320006
30	0xbf338ae1	-0.7013379
31	0x3eb2fe80	0.34959793
32	0x3f2a99f1	0.66641146
33	0x3fcf65e6	1.6202972
34	0xbe653397	-0.22382961
35	0xbfbaba6d	-1.4588143
36	0x3f83fdef	1.0311869
37	0xbfca1c61	-1.578991
38	0x3efe35c5	0.49650398
39	0x3f7f3166	0.9968475
40	0xbd857b90	-0.06517708
41	0xbe8ec4cd	-0.27884522
42	0x3f47de13	0.78073233
43	0x3f63f3e2	0.8904401
44	0xbfd2aba9	-1.6458637
45	0xbecd54c2	-0.40103728
46	0xbf40d727	-0.75328296
47	0xc000af3b	-2.0106952
48	0x3f46cb92	0.77654374
49	0x3cda1e78	0.026625857
50	0x3eb19cdc	0.34689987
51	0x3f27ab71	0.65495974
52	0x3ff7fafb	1.9373468
53	0x3fb34f82	1.4008639
54	0xbf70fdcb	-0.9413726
55	0xbf2e2319	-0.68022305
56	0xbfcbb4c4	-1.591454
57	0x3e67fd8c	0.22655314
58	0xbf0c1296	-0.5471586
59	0x3f7df666	0.992041
60	0xbea590ae	-0.32336944
61	0xc0130503	-2.297181
62	0xbf969d80	-1.1766815
63	0x3f5ad865	0.8548644
64	0x3ed498ed	0.41522923
65	0x3fc290f8	1.5200491
66	0xbe78a4f1	-0.2428167
67	0x4009728c	2.1476164
68	0x3f3831fe	0.7195128
69	0xbfae4ae3	-1.3616604
70	0x3f45eed3	0.7731754
71	0xc0076fe1	-2.1162035
72	0xbfc6329b	-1.5484194
73	0xbfb64d3a	-1.4242318
74	0xbf9e4dd0	-1.2367496
75	0x3ff75f65	1.9325987
76	0x3e85456f	0.26029536
77	0xbf897625	-1.073918
78	0xbfcb471f	-1.588108
79	0xbf08e615	-0.5347608
80	0xbe99832a	-0.29982883
81	0x3f8610bb	1.0473856
82	0xbdff88d1	-0.124772675
83	0x3f05eef3	0.5231773
84	0x3fe2bd0a	1.771394
85	0xbee61a28	-0.4494183
86	0x3d2afa36	0.041742526
87	0xbff0efaa	-1.882314
88	0xbf211a9f	-0.62931246
89	0x3fa9ff9f	1.3281134
90	0xbf813cb9	-1.0096656
91	0xbd66cdd1	-0.056348626
92	0xbf887acc	-1.0662475
93	0x3e8c94d9	0.27457312
94	0xbf71ec4e	-0.945012
95	0xbf828b17	-1.0198697
96	0xbed40d25	-0.41416278
97	0x3ff0c122	1.880894
98	0xbe5d5304	-0.21613699
99	0x3f815917	1.0105313
100	0xbf0076ed	-0.50181466
101	0x3eb9d2b2	0.3629356
102	0xbfb1738c	-1.3863387
103	0x3e5e40d2	0.21704414
104	0x3f4a4471	0.79010683
105	0xc009f788	-2.155733
106	0xbea6c7af	-0.32574221
107	0x3ed5153f	0.41617772
108	0xbefcd2ec	-0.4937967
109	0x3e84ad3e	0.25913423
110	0xbf9e1e1b	-1.2352937
111	0xc0037088	-2.0537434
112	0x3dae3dc0	0.08507872
113	0xbf02f4b6	-0.5115465
114	0x3fb01fa6	1.3759658
115	0xbed6afaf	-0.4193091
116	0xbfd31633	-1.649115
117	0x3eef09e5	0.46687236
118	0x3fe76204	1.8076787
119	0x3f0132f1	0.50468355
120	0x3e9089b9	0.28230074
121	0xbf678dd1	-0.9045077
122	0x3de54ce0	0.11196303
123	0x3f6d0637	0.9258761
124	0x3e8301a0	0.25587177
125	0xbf8ac4ea	-1.0841343
126	0x3f9308b0	1.1487026
127	0xbef6b5c1	-0.48185542
128	0x3ea2891d	0.31745234
129	0xbea114fa	-0.31461316
130	0x3e65aaa1	0.22428371
131	0x3f126a5a	0.5719353
132	0xbf122a05	-0.57095367
133	0x3e0afe87	0.13573657
134	0xbf16d588	-0.5891957
135	0x3f649b9f	0.8929996
136	0xbf447455	-0.7674001
137	0xbf7f533d	-0.99736387
138	0x3e3085d8	0.17238557
139	0xbefee5cd	-0.497847
140	0x3f57569b	0.84116524
141	0xbf1d3d88	-0.61422014
142	0x3fa3205d	1.2744251
143	0xbef8c32e	-0.4858641
144	0xbf188e95	-0.5959256
145	0x3f9606eb	1.1720861
146	0xbf2c3881	-0.6727372
147	0x3f4a888b	0.791146
148	0xbe61a89c	-0.22036976
149	0x3e164a76	0.14676842
150	0x3e416d2c	0.18889302
151	0xbf5e7717	-0.86900467
152	0x3fbae1c3	1.4600147
153	0x3d38d6af	0.045126613
154	0x3fb5d821	1.4206582
155	0xbed28fa0	-0.41125202
156	0x3f10d867	0.56580204
157	0x3f310ddd	0.6916178
158	0x3fcfe7f0	1.6242657
159	0x3f53653f	0.82576364
160	0xbfb7a18f	-1.4346179
161	0xbeb1e30a	-0.3474353
162	0xbe2ee116	-0.17078051
163	0xc00a2719	-2.1586363
164	0xbd98038e	-0.07422553
165	0xbf14cb0a	-0.58122313
166	0x3f83ec8c	1.0306563
167	0x3f17a618	0.59237814
168	0xbf128744	-0.5723765
169	0xbf967ae3	-1.1756252
170	0x3f0f37ad	0.5594433
171	0x3e465d8a	0.1937162
172	0x3f505102	0.8137361
173	0x3d6e6b55	0.05820783
174	0xbf9936d5	-1.1969858
175	0xbf33eec9	-0.7028623
176	0xc00c9eb3	-2.1971862
177	0x3e69d0b3	0.22833519
178	0xbf9fd513	-1.24869
179	0x3f9ba93c	1.2161021
180	0x3f47e485	0.7808307
181	0xbfdbefe4	-1.7182584
182	0x3fa92abb	1.3216165
183	0x3ee2ff6d	0.443355
184	0x3f6ad6d0	0.9173403
185	0x3d3c77a9	0.046012554
186	0xbfa88009	-1.3164073
187	0xbf08b7cb	-0.53405446
188	0x401c0f75	2.4384434
189	0x3dd248ad	0.10267768
190	0x3e526a30	0.2054832
191	0x3fb82e32	1.4389098
192	0xbfc52612	-1.5402243
193	0x3f06bae1	0.52628905
194	0xbd80b2eb	-0.06284126
195	0x3f95f1e7	1.1714448
196	0x3ef4ca07	0.47810385
197	0xbd7e04e5	-0.062016387
198	0xbfc4166c	-1.5319343
199	0xbf13a010	-0.5766611
200	0x3e50bfdf	0.20385693
201	0x3f42d8dd	0.7611216
202	0x3e8a25bc	0.26981914
203	0x3e9c0bf1	0.3047786
204	0x3e9d22fb	0.3069075
205	0xbe26274f	-0.16225933
206	0x3f2fa88f	0.68616575
207	0x3f950184	1.1641088
208	0x3e2cf418	0.1688999
209	0xbf6600a4	-0.8984473
210	0xbed5788f	-0.4169354
211	0x3e54118d	0.2070982
212	0x3f0f8c54	0.560735
213	0xbef1b267	-0.47206423
214	0x3f35b359	0.7097679
215	0x3fbe73ac	1.487905
216	0x3ed545c7	0.41654798
217	0x3f1f3dc5	0.6220363
218	0x3ef9c939	0.48786333
219	0x3e9a5bfa	0.30148298
220	0xc0038c3a	-2.0554338
221	0xbe0f3bbb	-0.13987629
222	0xbf925cf9	-1.1434623
223	0xbf3146c5	-0.6924861
224	0xbfe45e8d	-1.7841355
225	0x3eb57d5b	0.354472
226	0xbf762cc2	-0.96162045
227	0xbf33f710	-0.7029886
228	0x3e64de2a	0.22350374
229	0xbf79f3b8	-0.9763751
230	0x3e801d19	0.250222
231	0x403a08d6	2.9067893
232	0x3e3b3789	0.18282904
233	0x3f02b839	0.5106235
234	0x3e5e73da	0.21723881
235	0x3bdba670	0.0067031905
236	0x3fd43633	1.657904
237	0xbde91198	-0.11380309
238	0x3fd454de	1.65884
239	0x3e5698cd	0.20956726
240	0xc00d414e	-2.207111
241	0xbf394bbc	-0.72381186
242	0x3eb7ba34	0.3588425
243	0x3f0ce9e0	0.55044365
244	0x3e1fecbd	0.15617652
245	0xbf4f0fcd	-0.80883485
246	0xbeb8c8e6	-0.36090773
247	0xbf1a2f27	-0.602282
248	0x3e8419e7	0.25801012
249	0x3f446ab4	0.76725316
250	0x3ea2bb70	0.31783628
251	0xbdb6ccaa	-0.08925755
252	0xbead0438	-0.3379228
253	0xbf8dcee0	-1.1078758
254	0xbebf52dc	-0.37367904
255	0x3f71a25e	0.9438838

lstm.weight_ih_l0 f4 [128, 256]
0	0x3e1d5464	0.15364224
1	0xbd9c726f	-0.07639014
2	0x3cd44007	0.025909437
3	0xbc207c69	-0.009795287
4	0x3d2804e6	0.041020297
5	0x3d484c0b	0.048900645
6	0x3e0015d5	0.12508328
7	0xbd73faf6	-0.059565507
8	0x3dd05419	0.1017229
9	0x3d1e55f2	0.038656183
10	0x3d14838d	0.03625827
11	0x3c0e2ae1	0.008677215
12	0x3cf6ac9b	0.030111602
13	0x3de39bf1	0.11113728
14	0x3d745181	0.05964804
15	0x3cda81c2	0.026673201
16	0x3d40b5f4	0.047048524
17	0x3dec992a	0.11552651
18	0xbe860479	-0.26175287
19	0x3d332e51	0.043745343
20	0xbd9962c7	-0.074895434
21	0x3de763fb	0.11298367
22	0x3e4cf11f	0.20013855
23	0xbd2ca40b	-0.04214863
24	0x3e62905d	0.22125383
25	0x3dbda3e6	0.09259777
26	0x3dc19231	0.09451712
27	0xbcf91aa0	-0.030408204
28	0x3bf1d87c	0.0073805433
29	0xbdd4f007	-0.10397344
30	0x3e005340	0.12531757
31	0xbe1a482e	-0.15066597
32	0xbe136e0b	-0.14397447
33	0x3cd664fb	0.026171198
34	0x3e15d4f8	0.14632022
35	0x3e1f20a4	0.15539795
36	0x3e07ea8e	0.1327307
37	0x3e03dca0	0.1287713
38	0xbe315a0b	-0.17319505
39	0x3dc61228	0.09671432
40	0x3cdd854c	0.0270411
41	0x3ce1c5b5	0.027560094
42	0x3e1d06e3	0.15334658
43	0xbc005077	-0.007831684
44	0x3d9f6f63	0.07784917
45	0x3e28216d	0.16419001
46	0x3e441fa9	0.19152702
47	0x3df76f90	0.12081826
48	0x3d42c498	0.047550768
49	0xbd49a495	-0.049229223
50	0x3dd0d076	0.10196011
51	0xbd722bd7	-0.05912384
52	0x3e15c1df	0.14624737
53	0xbde9882a	-0.11402924
54	0xbe201ca2	-0.15635923
55	0x3db09911	0.08622945
56	0xbe2ee8fa	-0.17081061
57	0xbe2341c7	-0.15943061
58	0xbe22f859	-0.1591505
59	0x3d52f97c	0.051507458
60	0xbd099399	-0.033588026
61	0xbe00052c	-0.12501973
62	0xbe911050	-0.28332758
63	0xbe8350e8	-0.25647664
64	0xbe71ed55	-0.23625691
65	0x3d569d0a	0.052395858
66	0xbdf8772b	-0.121321045
67	0x3d6527fe	0.055946343
68	0x3c235a8c	0.0099703185
69	0xbd9cc075	-0.07653896
70	0x3d418e69	0.047254954
71	0xbd5b51e4	-0.053544894
72	0x3e4e9f64	0.2017799
73	0xbc45983d	-0.012060222
74	0x3dfe9bf6	0.12432091
75	0xbce4954d	-0.027903223
76	0x3cb54d0a	0.022131462
77	0x3e2fa3ec	0.17152375
78	0xbdb0ed0d	-0.08638964
79	0xbdb18899	-0.08668632
80	0x3c27efc6	0.010250038
81	0xbddede83	-0.108822845
82	0x3b3d709e	0.0028906236
83	0x3e531184	0.2061215
84	0xbdd35756	-0.103193924
85	0xbca8f1b8	-0.020623073
86	0x3e7da2ff	0.2476921
87	0xbdfef938	-0.124498785
88	0xbdfb2d1c	-0.12264463
89	0x3de9f832	0.114242926
90	0x3d2eec9e	0.042706124
91	0x3ded346f	0.115822665
92	0xbcda51fb	-0.02665042
93	0x3e20c020	0.1569829
94	0x3e059a85	0.13047226
95	0x3ced938a	0.029001016
96	0xbcd53f0e	-0.026031043
97	0x3d63836b	0.05554525
98	0xbdaa8534	-0.08326188
99	0x3d004fae	0.03132599
100	0x3bf901ed	0.0075991065
101	0x3e4fbaa5	0.20286043
102	0x3e34fa20	0.1767354
103	0xbe6a9b01	-0.22910692
104	0xbcf7d14a	-0.030251164
105	0xbdb9f867	-0.09080582
106	0x3e6875ff	0.22701262
107	0xbd83625a	-0.064152434
108	0x3e12caf0	0.14335227
109	0xbdac2d68	-0.08407098
110	0xbd3eaf58	-0.04655394
111	0xbe1400be	-0.14453408
112	0x3e2c2f52	0.16814926
113	0xbdbad818	-0.09123248
114	0xbe4a43b1	-0.19752385
115	0xbc22ed4d	-0.009944272
116	0x3cf98865	0.030460546
117	0x3ddbfc6e	0.107415065
118	0xbc08df15	-0.008353968
119	0xbcdb2f21	-0.026755871
120	0x3e16e85a	0.14737073
121	0x3e36c27f	0.17847632
122	0x3dd08d02	0.10183145
123	0xbd4bcf87	-0.04975846
124	0xbce5694f	-0.028004317
125	0xbd7f9739	-0.062400077
126	0x3ce7b7ed	0.028285945
127	0xbcce7497	-0.025202079
128	0x3d84b08e	0.06478988
129	0xbd50dbc0	-0.05099082
130	0xbdb97852	-0.090561524
131	0x3dc5a132	0.09649886
132	0xbd2f53b6	-0.042804442
133	0x3d51d068	0.051224142
134	0x3e3eed1b	0.18645136
135	0x3e1c61e4	0.15271717
136	0x3e78a483	0.24281506
137	0xbd174e8b	-0.03694014
138	0x3da66074	0.08123866
139	0xbdfd8e09	-0.12380607
140	0x3cefaae2	0.029256288
141	0x3e70c660	0.23513174
142	0x3e54bbf4	0.20774823
143	0x3d80c492	0.06287493
144	0x3ddf538a	0.10904606
145	0xbe5e6828	-0.2171942
146	0xbd104fc3	-0.035232317
147	0x3dce6a7d	0.10078905
148	0x3e3a329c	0.18183368
149	0x3d8d770b	0.06907471
150	0xbdb1bbb7	-0.08678382
151	0x3de2ee7d	0.11080644
152	0xbe3747a0	-0.17898417
153	0x3e347676	0.17623314
154	0x3dbc0e81	0.09182454
155	0xbdcd05f5	-0.10010902
156	0xbe79dba9	-0.244002
157	0x3e04d239	0.12970819
158	0xbe2ae5bb	-0.16689198
159	0x3e8557b9	0.2604349
160	0xbd645e4d	-0.055753995
161	0xbcbab25f	-0.022790132
162	0x3dbf9d0f	0.093561284
163	0x3e6da7ad	0.23208494
164	0xbde39d72	-0.11114015
165	0xbe8e869b	-0.2783707
166	0xbd403867	-0.04692879
167	0x3ddc279c	0.107497424
168	0x3d591105	0.052994747
169	0x3e03f28c	0.12885493
170	0xbe1aee1c	-0.15129894
171	0xbdb9fc5f	-0.09081339
172	0x3dcb3273	0.09921732
173	0xbdc73a23	-0.097278856
174	0x3b53dbca	0.003232705
175	0xbdd1da8c	-0.10246763
176	0xbdffc57d	-0.1248884
177	0xbe61b481	-0.22041513
178	0x3e51f3d1	0.20503165
179	0xbe25c0af	-0.16186784
180	0xbde72ddc	-0.11288044
181	0xbdc97a63	-0.098377965
182	0x3c7ef101	0.0155603895
183	0x3e1573af	0.14594911
184	0x3ceec359	0.029145883
185	0x3d4e53c9	0.050372873
186	0xbd9d83d4	-0.0769116
187	0xbb67ce52	-0.003537078
188	0xbdb0dfcd	-0.086364366
189	0xbdf04cfa	-0.11733432
190	0xbd45d4c3	-0.04829861
191	0x3dbe1a0b	0.09282311
192	0x3d8443e0	0.06458259
193	0x3e344e81	0.17608072
194	0x3d92213e	0.07135247
195	0x3e6d261d	0.2315907
196	0x3e0dba6e	0.13840649
197	0xbe1e3f8d	-0.1545393
198	0x3dd0dfa7	0.10198908
199	0xbda78305	-0.08179287
200	0x3d4d3530	0.05009955
201	0x3cca4ae3	0.024693912
202	0xbe67dbdd	-0.22642465
203	0xbe43c7da	-0.19119206
204	0xbcde0b0a	-0.027104873
205	0xbd5337f7	-0.051567044
206	0xbd59fbd9	-0.053218696
207	0x3e0e40e4	0.13891941
208	0x3db8faee	0.09032236
209	0x3d73d4cb	0.059529107
210	0xbe419a4f	-0.1890652
211	0x3d1c55a2	0.038167603
212	0x3e3618b6	0.17782864
213	0xbe0868f0	-0.1332128
214	0xbdc0778f	-0.09397804
215	0x3e614768	0.21999896
216	0x3d785921	0.060631875
217	0x3e3cd4cc	0.1844055
218	0x3e35500e	0.1770632
219	0x3d919681	0.071087845
220	0xbdb1b161	-0.086764105
221	0xbe77533d	-0.24152847
222	0x3cbfb8f6	0.023403626
223	0x3e134e5f	0.14385365
224	0x3e3cf15f	0.18451451
225	0x3dda4f05	0.10659603
226	0xbcfd93c9	-0.030954259
227	0x3dc19d53	0.09453835
228	0xbdbd1099	-0.092316814
229	0x3e1f0014	0.15527374
230	0x3e0a6eed	0.13518877
231	0xbd409a63	-0.047022235
232	0x3bf2b2b5	0.0074065574
233	0xbd16b423	-0.036792886
234	0x3dde916e	0.10867582
235	0x3d9a1b20	0.07524705
236	0x3d7068f8	0.058693856
237	0xbe265425	-0.16243036
238	0x3e542cff	0.2072029
239	0xbd9cf326	-0.076635644
240	0xbd2fff26	-0.042967938
241	0xbe03f581	-0.12886621
242	0x3b49fcbd	0.003082081
243	0xbd698b9f	-0.05701792
244	0x3dfbe78b	0.12300023
245	0xbd304ed8	-0.04304394
246	0xbd5a840b	-0.053348582
247	0x3dc18c4c	0.09450588
248	0xbe2027bc	-0.15640157
249	0xbd09d04e	-0.03364592
250	0xbc867b3c	-0.016416185
251	0xbb334601	-0.0027354958
252	0x3daaa039	0.08331341
253	0xbde4978e	-0.11161719
254	0xbdbdb18c	-0.0926238
255	0xbbcd8ad2	-0.006272652

lstm.weight_hh_l0 f4 [128, 32]
0	0xbdf9acd8	-0.121911705
1	0xbe874e33	-0.2642685
2	0x3c9b1116	0.018929046
3	0x3d4f0eff	0.05055141
4	0x3ed4954b	0.41520151
5	0x3e3192e2	0.17341188
6	0x3e68ab71	0.2272165
7	0x3dd9c069	0.106324024
8	0x3e3b9554	0.18318683
9	0xbecaff33	-0.39647827
10	0x3d160fd5	0.036636192
11	0x3d961794	0.07328716
12	0xbd3997db	-0.045310836
13	0x3db6e9f2	0.0893134
14	0xbd2fac3b	-0.04288886
15	0x3e3e2ea6	0.18572482
16	0xbd5e9454	-0.054340675
17	0x3dadb43c	0.084816426
18	0x3e0da87d	0.13833804
19	0xbe92af1d	-0.28649226
20	0x3e87e667	0.2654297
21	0xbebc3851	-0.36761716
22	0xbd7c7028	-0.061630398
23	0xbddb0164	-0.106936246
24	0xbe732627	-0.23745023
25	0xbe148f6c	-0.14507836
26	0x3c2d07dd	0.010560957
27	0x3dac9211	0.084262975
28	0xbe837794	-0.25677168
29	0xbe91899c	-0.284253
30	0xbe02b46b	-0.12764136
31	0xbd26521e	-0.040605657
32	0x3cc6f5d4	0.024287142
33	0xbdccf895	-0.10008351
34	0x3e430421	0.19044544
35	0x3d838df0	0.06423557
36	0xbcc72fd7	-0.024314804
37	0x3db6814d	0.08911381
38	0x3dbf5499	0.093423076
39	0xbd6e63c9	-0.05820063
40	0x3e135b8f	0.14390396
41	0x3d98c899	0.07460136
42	0xbc58bf8b	-0.013229261
43	0xbdab6fa3	-0.083709024
44	0x3c5c9bf9	0.013464921
45	0x3e834042	0.25634962
46	0xbe884be2	-0.26620394
47	0x3db78d17	0.089624576
48	0xbceee0e3	-0.029159969
49	0x3ccf37a1	0.02529508
50	0x3eb871f8	0.3602445
51	0xbdbb6e4b	-0.09151896
52	0x3e73d770	0.23812652
53	0x3c775111	0.015095011
54	0xbc4e9040	-0.012607634
55	0xbe8c058d	-0.27347985
56	0x3e1fcb7f	0.15604971
57	0xbe8bf700	-0.27336884
58	0xbd3f7aab	-0.046747845
59	0x3e49b474	0.19697744
60	0xbd56647f	-0.052341934
61	0xbd59b279	-0.05314872
62	0x3c5fd54f	0.013661697
63	0x3c9b1d35	0.018934825
64	0xbea7743e	-0.32705873
65	0xbcf06f2d	-0.029349888
66	0xbd2c19c9	-0.04201678
67	0x3e1a956f	0.15096067
68	0xbda493db	-0.08036014
69	0x3ea649c4	0.32478154
70	0x3e8e4767	0.2778885
71	0x3e882b6c	0.26595628
72	0x3e3bc034	0.18335038
73	0xbdafbf7e	-0.08581446
74	0x3d9cc162	0.07654072
75	0xbbe271f1	-0.0069105555
76	0xbe8d9f45	-0.27660576
77	0xbce4a9f0	-0.027913064
78	0x3d3ef2f5	0.04661842
79	0x3ca42a34	0.020039655
80	0x3cdef21f	0.027215062
81	0xbd1d1941	-0.038354162
82	0xbc70f518	-0.014706872
83	0xbec104db	-0.37699017
84	0x3eb0c759	0.3452709
85	0xbdc5f998	-0.09666747
86	0x3e4706d1	0.19436194
87	0xbe7ca60d	-0.24672718
88	0xbe66df53	-0.22546129
89	0x3e44b544	0.19209772
90	0xbe3b83e9	-0.18312038
91	0xbd4a3ff0	-0.04937738
92	0xbde79114	-0.11306968
93	0xbe0ec58e	-0.13942549
94	0xbd35913f	-0.04432797
95	0x3d2e5214	0.042558745
96	0x3d67e31d	0.056613076
97	0x3d6b69e8	0.057474047
98	0x3e327ccc	0.17430419
99	0xbd85d5ae	-0.06534897
100	0xbd157455	-0.036487896
101	0x3e3e4e96	0.18584666
102	0x3e6db16b	0.23212211
103	0xbde62054	-0.11236635
104	0xbcc9b91d	-0.024624402
105	0xbcb950cb	-0.022621533
106	0x3d07ad66	0.03312435
107	0x3e72d66d	0.2371461
108	0xbca9651c	-0.020678096
109	0x3dc4e836	0.09614603
110	0x3dea0f96	0.11428754
111	0xbdc6f2f2	-0.09714307
112	0x3d87ce28	0.06631118
113	0x3e17716d	0.14789362
114	0xbd1f4d99	-0.038892362
115	0x3e1e8667	0.15480958
116	0x3e56b992	0.20969227
117	0x3d5a84e0	0.053349376
118	0xbb0fd366	-0.0021946072
119	0x3cd706c6	0.026248347
120	0xbd1ddcca	-0.03854064
121	0xbe22cc2b	-0.15898196
122	0xbe01c418	-0.1267246
123	0x3ea5bb75	0.3236958
124	0xbe1e0aa5	-0.15433748
125	0xbe25d419	-0.1619419
126	0xbe0a897c	-0.13529009
127	0x3d7d4c2e	0.06184023
128	0x3da3c0b1	0.07995737
129	0xbb88921a	-0.0041678073
130	0x3e2d4156	0.16919455
131	0x3e29d770	0.16586089
132	0xbca2980f	-0.019847898
133	0xbe048e37	-0.12944876
134	0xbdc76688	-0.09736353
135	0xbd282542	-0.041051157
136	0xbdc075de	-0.093974814
137	0xbe5df4b2	-0.21675375
138	0x3e1c021f	0.15235184
139	0x3db376b0	0.08762872
140	0xbe5d3c08	-0.21604931
141	0xbb97dc2e	-0.0046344018
142	0xbdb385f1	-0.08765782
143	0x3e366cb0	0.17814898
144	0x3defef43	0.117155574
145	0x3e17d2e9	0.1482655
146	0xbd0f0c18	-0.034923643
147	0xbe4b4db6	-0.19853863
148	0x3e5c5dca	0.21520153
149	0x3d26eeac	0.04075496
150	0x3bc8dd38	0.006129887
151	0xbd0bb906	-0.034112
152	0xbdcbe15b	-0.099550925
153	0xbc973850	-0.01845947
154	0xbdb25021	-0.087066896
155	0x3df73bb0	0.12071931
156	0x3d1fbc56	0.03899797
157	0xbca85a17	-0.02055077
158	0x3d13c1ee	0.036073618
159	0x3da20e06	0.07912831
160	0xbe87ebd1	-0.265471
161	0xbe355439	-0.1770791
162	0x3e3427de	0.17593333
163	0x3e346109	0.17615141
164	0x3e1ec8bd	0.15506263
165	0xbdc33135	-0.0953087
166	0x3d988d85	0.07448868
167	0x3da55061	0.08071972
168	0x3e8f692f	0.28009936
169	0xbd8ee4a5	-0.06977204
170	0x3e027f44	0.1274386
171	0x3e12def9	0.1434287
172	0xbe825304	-0.2545396
173	0x3eaa6d11	0.33286336
174	0xbdba3862	-0.090927854
175	0xbd57ad33	-0.05265541
176	0x3e7d9559	0.24764003
177	0x3e1e6f7e	0.15472218
178	0x3e982057	0.29712173
179	0xbe71c291	-0.23609377
180	0x3e2be66f	0.16787122
181	0xbe84534a	-0.25844795
182	0x3e84c03f	0.25927922
183	0xbe332bfc	-0.17497247
184	0xbd0b41c1	-0.033998255
185	0xbcc83da5	-0.024443457
186	0xbd270131	-0.04077262
187	0x3d393bc1	0.045223
188	0xbde090b3	-0.10965099
189	0xbda474ef	-0.08030116
190	0xbd5bbcde	-0.053646915
191	0x3e6c2282	0.23060039
192	0xbd6c48d8	-0.057686657
193	0xbe2c8e80	-0.16851234
194	0x3dd3728e	0.10324584
195	0xbcf304b0	-0.029665321
196	0x3e5f4e04	0.21807104
197	0xbde507c3	-0.11183121
198	0x3d5f65eb	0.054540556
199	0xbd247ddb	-0.040159088
200	0x3dcbb5f3	0.099468134
201	0x3db2f0ca	0.08737333
202	0xbd2865d7	-0.041112747
203	0xbd900af2	-0.07033338
204	0xbdd4d386	-0.103919074
205	0xbd2c04dd	-0.041996825
206	0xbbb65bf8	-0.0055651627
207	0xbe2875c7	-0.16451178
208	0x3e41bf45	0.1892062
209	0x3dca6577	0.09882634
210	0x3e538d0e	0.20659277
211	0xbb07bfea	-0.0020713755
212	0xbdf4b3b8	-0.11948341
213	0xbe442d23	-0.19157843
214	0xbc12c916	-0.008959075
215	0x3cbd567e	0.023112532
216	0xbb9022ae	-0.0043986654
217	0xbdb65200	-0.08902359
218	0x3c61e320	0.013787061
219	0x3e0118eb	0.12607162
220	0xbd1764ca	-0.036961354
221	0xbe54903e	-0.20758149
222	0xbd39d15a	-0.04536567
223	0x3cdf012a	0.027222235
224	0xbdf09183	-0.11746504
225	0xbdabc7ad	-0.083876945
226	0xbde5afa8	-0.112151444
227	0x3e964c18	0.2935493
228	0x3cde20a1	0.027115168
229	0xbe4fb658	-0.20284402
230	0x3eac9154	0.33704627
231	0x3d83b826	0.06431608
232	0x3e586ecf	0.2113602
233	0xbdc44996	-0.09584348
234	0x3d849244	0.064732105
235	0x3e0ef75c	0.13961548
236	0x3c1531a5	0.009106074
237	0x3eb6922d	0.35658398
238	0xbe86e683	-0.2634774
239	0x3eafe486	0.34354037
240	0x3e7a121e	0.24420974
241	0x3db32984	0.08748153
242	0x3e2c6994	0.1683715
243	0xbd8d6638	-0.06904262
244	0x3ce0240e	0.027360942
245	0xbd005e63	-0.031340014
246	0x3d1d1f15	0.03835972
247	0xbe67fdc1	-0.22655393
248	0xbe453411	-0.19258143
249	0xbe7741dd	-0.24146219
250	0x3c4d93fa	0.012547487
251	0x3e1ffaaf	0.15622972
252	0xbeb5b534	-0.3548981
253	0x3d8e1ef8	0.069395006
254	0x3cbb3ad6	0.022855204
255	0x3ed26b26	0.41097373

lstm.bias_ih_l0 f4 [128]
0	0x3e014880	0.12625313
1	0x3e00e868	0.12588656
2	0xbd37643e	-0.044773333
3	0x3c173bfd	0.009230611
4	0x3d0e75fa	0.03478048
5	0x3e83e55e	0.2576093
6	0x3dd2e6b3	0.10297909
7	0x3e9b637a	0.30349332
8	0x3e44ab63	0.19206004
9	0x3d9b3949	0.07579286
10	0xbc8b06a6	-0.016970944
11	0x3df6d10c	0.12051591
12	0xbdbc7991	-0.092028745
13	0x3e59e998	0.21280515
14	0x3e7995d1	0.24373557
15	0x3e243793	0.16036825
16	0x3daec0bf	0.08532857
17	0x3d838706	0.06422238
18	0x3b65d18e	0.0035067531
19	0xbb0d9a0b	-0.002160671
20	0x3daf3d23	0.08556583
21	0xbdcd0a79	-0.10011763
22	0xbbd4f912	-0.006499418
23	0x3dccf492	0.100075856
24	0x3e7844af	0.2424495
25	0x3d96b023	0.07357814
26	0xbdb1ed50	-0.08687842
27	0x3e830582	0.2559014
28	0x3cd3974a	0.025828976
29	0x3e86e5ad	0.26347104
30	0x3e868989	0.26276806
31	0x3e24c3ec	0.16090363
32	0xbe3f9e4e	-0.18712732
33	0xbce6e6f9	-0.028186308
34	0x3e3d22d0	0.18470311
35	0x3e4e514d	0.20148201
36	0xbcb7b694	-0.022425927
37	0x3dfb2e5b	0.12264701
38	0x3dbbba48	0.0916639
39	0xbe2b5430	-0.16731334
40	0xbd0e991c	-0.034813985
41	0xbc3ebdd4	-0.011641938
42	0x3d1d5f08	0.038420707
43	0x3d764a86	0.060129665
44	0x3e307cd4	0.17235118
45	0x3cf24940	0.029575944
46	0x3e0aa853	0.13540773
47	0xbdad2901	-0.084550865
48	0x3d137181	0.035996918
49	0xbc0aee66	-0.00847969
50	0x3d9e0c62	0.077172056
51	0x3e22a74c	0.15884131
52	0x3b822027	0.003971118
53	0x3e0c6d7c	0.1371364
54	0xbc2c30f5	-0.010509719
55	0xbd0e6082	-0.034760006
56	0x3df53b84	0.11974242
57	0xbda283f0	-0.07935321
58	0xbdcf2e86	-0.101162955
59	0xbde3e89d	-0.11128352
60	0x3e59f75e	0.2128577
61	0x3d47a187	0.04873803
62	0x3d0b6e99	0.03404102
63	0xbcfb1179	-0.03064798
64	0x3df4ccba	0.11953111
65	0xbe1fbcf1	-0.15599419
66	0x3d9419c0	0.07231474
67	0x3d852ed3	0.06503072
68	0x3e0b0794	0.1357711
69	0xbe1e8e25	-0.15483911
70	0x3a9fef48	0.0012202049
71	0xbd72c51c	-0.05927001
72	0xbde5d195	-0.11221615
73	0xbdab43d3	-0.08362546
74	0xbd615c3d	-0.055019606
75	0xbcc5395f	-0.024075208
76	0x3dcac68e	0.099011526
77	0x3e04641d	0.12928815
78	0x3d81c261	0.06335903
79	0x3d74f124	0.059800282
80	0xbda774ac	-0.0817655
81	0x3e2bd2da	0.16779652
82	0x3db39b8e	0.08769904
83	0x3e05cfb4	0.13067514
84	0x3e04ca17	0.12967716
85	0x3da7399a	0.081652835
86	0x3e229b70	0.15879607
87	0x3df0e303	0.11762049
88	0xbbcb9209	-0.006212477
89	0xbe1d7e38	-0.1538018
90	0x3d7e7774	0.062125638
91	0x3e298c73	0.16557483
92	0xbde0d381	-0.10977841
93	0x3db173c6	0.0866466
94	0xbe43ecd3	-0.1913331
95	0xbce20881	-0.027591946
96	0x3e60cac4	0.21952349
97	0x3e104c99	0.1409172
98	0x3e531579	0.2061366
99	0x3cb9d537	0.022684677
100	0xbbd4bc25	-0.006492155
101	0x3e7276b1	0.2367809
102	0x3e59e07a	0.21277037
103	0xbcedac19	-0.029012727
104	0xbdadfd83	-0.08495619
105	0x3e4a84ac	0.19777173
106	0xbd87023b	-0.06592222
107	0xbd9c3ce2	-0.076288
108	0x3d978f47	0.07400375
109	0x3e081253	0.1328824
110	0x3e599bd0	0.21250844
111	0x3e61fb11	0.2206843
112	0xbd8ce62f	-0.068798415
113	0x3ddd6078	0.108094156
114	0x3da87bd9	0.08226747
115	0xbc0cbf03	-0.008590463
116	0x3e602182	0.21887782
117	0x3dadb8d8	0.08482522
118	0x3d4ea09e	0.050446145
119	0x3dbed1e1	0.09317375
120	0x3d799dc0	0.060941458
121	0x3db7f289	0.08981807
122	0x3d928951	0.07155097
123	0xbc77ec13	-0.015131968
124	0x3db66e8e	0.089078054
125	0xbd8fe75d	-0.07026551
126	0x3e0bb1cd	0.13642044
127	0x3e66a6f8	0.22524631

lstm.bias_hh_l0 f4 [128]
0	0x3e9cad57	0.30600998
1	0x3d6e3d6d	0.05816405
2	0x3e255a18	0.1614765
3	0x3df818e9	0.12114126
4	0xbdb7f6c5	-0.089826144
5	0x3ea9c222	0.33155924
6	0x3e00ee65	0.1259094
7	0x3c16ad37	0.009196571
8	0x3e00e190	0.12586045
9	0x3c27ab2d	0.010233683
10	0x3df84a04	0.12123492
11	0xbd3f942d	-0.04677217
12	0x3e125792	0.14291218
13	0x3e09e8d7	0.13467728
14	0x3e068ddc	0.13140053
15	0x3e589e8c	0.21154231
16	0x3e5054f1	0.20344903
17	0x3e486a8a	0.19571891
18	0x3e79ad3b	0.24382488
19	0x3e10a594	0.14125663
20	0xbcbd293a	-0.023090947
21	0x3dfe042b	0.12403139
22	0x3d22a7bd	0.03971075
23	0x3d448aac	0.04798381
24	0x3da010a7	0.07815676
25	0x3e453863	0.19259791
26	0xbdae25be	-0.085032925
27	0x3c5666e3	0.013086054
28	0xbd9f23e5	-0.07770518
29	0x3e5ac99d	0.21365972
30	0xbce87e08	-0.028380409
31	0x3e586a9c	0.21134418
32	0xbe2d83e4	-0.16944844
33	0xbd77d104	-0.060502067
34	0xbcb5e071	-0.022201749
35	0x3e4236ac	0.18966168
36	0x3db1a3a2	0.086737886
37	0xbe045048	-0.1292125
38	0x3de0a0cd	0.1096817
39	0xbd8b62da	-0.06805964
40	0x3c8f46f8	0.017489895
41	0xbdc40366	-0.09570961
42	0x3dac6de3	0.08419397
43	0xbde82e54	-0.113369614
44	0xbd7171bc	-0.058946356
45	0x3e6d63e3	0.23182635
46	0xbe325270	-0.1741426
47	0x3e44ba3c	0.19211668
48	0x3e540028	0.20703185
49	0x3dcb6afa	0.099325135
50	0xbd0aa322	-0.03384698
51	0x3bc6f0f9	0.0060712066
52	0x3d9397ad	0.07206664
53	0xbd6e421c	-0.058168516
54	0x3e3d2dee	0.18474552
55	0x3dd3d4c1	0.10343314
56	0xbdd2ad9d	-0.1028702
57	0xbe0633a9	-0.13105644
58	0xbda9d082	-0.08291723
59	0xbda4febb	-0.080563985
60	0x3bb7d479	0.0056100455
61	0x3e0c6de1	0.1371379
62	0xbd41d450	-0.047321618
63	0x3cac4e44	0.021033414
64	0x3d5b0041	0.05346704
65	0x3dc21571	0.09476746
66	0x3da63caa	0.081170395
67	0x3dbdea5e	0.092732176
68	0x3dcc130b	0.0996457
69	0x3db624cf	0.088937394
70	0x3e4f5f1c	0.20251125
71	0xbd1fba56	-0.038996063
72	0x3c8245a5	0.01590235
73	0xbd9c7ce6	-0.0764101
74	0xbdc6ec98	-0.097130954
75	0xbb93b5d0	-0.0045077577
76	0xba5d33ec	-0.0008438218
77	0x3d995f9b	0.074889384
78	0xbcbe6167	-0.023239804
79	0x3d135474	0.035969213
80	0x3e00dcd9	0.12584247
81	0x3e063970	0.13107848
82	0x3cb4d417	0.022073789
83	0xbae45556	-0.0017420452
84	0x3e2b9237	0.16754995
85	0xbe312cd2	-0.17302254
86	0x3e1a05de	0.150413
87	0xbded47f7	-0.11585992
88	0xbe434dc9	-0.19072641
89	0xbe0e4325	-0.13892801
90	0xbd7f36c3	-0.062308084
91	0x3e19e804	0.15029913
92	0xbe31f644	-0.17379099
93	0xbe1e5d1a	-0.15465203
94	0x3e0c4054	0.13696414
95	0xbd8c6caf	-0.06856667
96	0x3ddab01d	0.10678122
97	0xbdda572f	-0.1066116
98	0x3e611674	0.21981221
99	0x3e6ad1e3	0.22931628
100	0xbdd7489b	-0.10511895
101	0x3e422dd2	0.18962792
102	0x3e14f1df	0.14545391
103	0x3e46ea49	0.1942531
104	0xbd809d98	-0.062800586
105	0x3df60fc3	0.12014725
106	0xbd8e3c34	-0.069450766
107	0xbba2710e	-0.004957325
108	0x3e281338	0.16413581
109	0x3ddfdfa6	0.109313294
110	0x3e40b43d	0.18818755
111	0x3d8dc070	0.0692147
112	0x3e6545ba	0.2238988
113	0xbd7363ec	-0.059421465
114	0x3e595f76	0.21227822
115	0x3e12ec81	0.14348032
116	0x3dadaded	0.08480439
117	0xbd2e7604	-0.042593017
118	0x3dc97969	0.0983761
119	0xbd595caf	-0.053066906
120	0x3dcb0958	0.099138916
121	0x3e78c9b2	0.2429569
122	0x3e0bee33	0.13665085
123	0x3e5a655e	0.21327731
124	0x3ea0d32e	0.31411117
125	0x3e094e4d	0.13408776
126	0x3de47650	0.11155379
127	0x3e86138e	0.26186794

fc.weight f4 [96, 32]
0	0x3d9773a5	0.07395104
1	0x3e773c9c	0.24144214
2	0xbe1262ca	-0.14295498
3	0xbe797677	-0.24361597
4	0xbe9c511b	-0.3053063
5	0xbc343e38	-0.011001162
6	0xbe04b7ba	-0.12960711
7	0xbe36edd5	-0.17864163
8	0xbe591b45	-0.21201809
9	0x3c7aa891	0.015298978
10	0xbe72918d	-0.23688336
11	0xbe3658b5	-0.17807277
12	0x3dcb9a90	0.0994159
13	0xbd4ef8eb	-0.050530355
14	0x3ca5a268	0.020219043
15	0xbe5186a7	-0.20461522
16	0xbe7143d7	-0.23561035
17	0xbe98c093	-0.29834422
18	0xbe60de1a	-0.21959725
19	0x3e05f5e9	0.13082089
20	0xbe3c78cf	-0.1840546
21	0x3db13d9e	0.08654331
22	0xbe08c57d	-0.13356586
23	0x3de31c10	0.11089337
24	0x3e31b189	0.1735288
25	0x3e0327a8	0.12808096
26	0x3e342391	0.17591693
27	0xbe195768	-0.14974749
28	0x3ea922dc	0.33034408
29	0x3e80d747	0.25164244
30	0x3ea573db	0.32314953
31	0xbea30ec0	-0.3184719
32	0x3ebf0126	0.37305564
33	0xbe4fa377	-0.202772
34	0x3c32b084	0.010906342
35	0x3d13c9b8	0.036081046
36	0x3eafa322	0.34304148
37	0xbeb27780	-0.34856796
38	0x3e020274	0.12696248
39	0x3ed32021	0.4123545
40	0x3e5d556a	0.21614614
41	0xbe715ce6	-0.23570594
42	0x3e5390da	0.20660725
43	0xbdb6cb03	-0.0892544
44	0xbe3455be	-0.17610833
45	0x3e3de5ee	0.18544742
46	0xbeefaa86	-0.46809787
47	0x3e8a78ed	0.27045384
48	0x3e5798b6	0.21054348
49	0xbeeafdc8	-0.45896745
50	0xbcbc3428	-0.022974089
51	0xbe102226	-0.14075527
52	0x3e2ef29a	0.17084733
53	0xbe864ac5	-0.2622892
54	0xbd9ef538	-0.077616155
55	0xbe2021c6	-0.15637884
56	0xbdf61f5b	-0.12017699
57	0x3e3a61dc	0.18201393
58	0xbe3fbb1f	-0.18723725
59	0x3d8d9e8e	0.069150075
60	0xbeacd8d4	-0.33759177
61	0xbe6f14df	-0.23347805
62	0x3ed6e249	0.41969517
63	0x3ee958e4	0.4557563
64	0x3e94cc70	0.29062223
65	0x3eb75238	0.35804915
66	0xbe672a7a	-0.22574797
67	0xbc005f7d	-0.007835266
68	0xbe9a4118	-0.30127788
69	0x3e051786	0.12997255
70	0xbdd4da64	-0.10393217
71	0xbe95b6ef	-0.2924113
72	0xbd056791	-0.03256947
73	0x3dbe07b1	0.09278811
74	0xbe0b8839	-0.13626184
75	0xbe3f378d	-0.18673535
76	0x3e84d1eb	0.25941405
77	0x3ad80a2f	0.0016482527
78	0x3e0dabf1	0.13835122
79	0xbe9098dd	-0.28241625
80	0xbe3e9d96	-0.18614802
81	0xbe55cf61	-0.2087989
82	0xbe8a645f	-0.27029702
83	0x3d8c4a21	0.068500765
84	0xbe76f2e3	-0.24116091
85	0xbcb232d6	-0.021752756
86	0xbe873d89	-0.26414135
87	0x3e99bf8d	0.30028954
88	0x3e50f523	0.20406012
89	0xbcec45f9	-0.02884196
90	0x3e17c5af	0.14821504
91	0xbd76430a	-0.060122527
92	0x3da3b3c9	0.07993276
93	0x3d5d27ba	0.053992964
94	0x3e5d1246	0.21589002
95	0xbdddd062	-0.108307615
96	0x3e7e65b7	0.24843489
97	0x3e50620b	0.203499
98	0xbea23ef9	-0.3168867
99	0xbc9c61e0	-0.01908964
100	0xbe8e93eb	-0.27847227
101	0x3ade81a4	0.0016975892
102	0xbd3cfe0a	-0.046140708
103	0xbd205afa	-0.039149262
104	0xbe15bad4	-0.1462205
105	0x3c222395	0.009896179
106	0xbe3bf45a	-0.18354931
107	0xbe96d143	-0.2945653
108	0x3c2c37f0	0.010511383
109	0xbd6bada0	-0.05753863
110	0x3e0cf78d	0.13766308
111	0xbe9e4dfb	-0.3091887
112	0xbdb80f8a	-0.08987339
113	0xbea1f30a	-0.31630737
114	0xbe8bcf14	-0.27306426
115	0x3dc565d1	0.096385606
116	0xbeac5ffe	-0.33666986
117	0x3d8919f7	0.066944055
118	0xbd160bec	-0.036632463
119	0x3e01f840	0.12692356
120	0x3ea2efde	0.3182363
121	0x3e081d7c	0.13292497
122	0xbaa3aa62	-0.0012486691
123	0xbdd51608	-0.10404593
124	0x3ded0a6c	0.115742534
125	0x3e7e7bdf	0.2485194
126	0x3e19042c	0.14942998
127	0xbe76700e	-0.24066183
128	0x3dd38f52	0.103300706
129	0x3eb2deec	0.349357
130	0xbe63e0d6	-0.22253737
131	0xbe827ee4	-0.25487435
132	0xbd65dc2b	-0.05611817
133	0x3e37f323	0.17963843
134	0xbe8d0f89	-0.27550915
135	0xbe6af98e	-0.2294676
136	0xbe4f37b8	-0.20236099
137	0x3d51f660	0.051260352
138	0xbe3d060d	-0.1845934
139	0xbd37b3c9	-0.04484919
140	0x3d7670c2	0.060166128
141	0xbd97aa86	-0.07405572
142	0x3e83de00	0.2575531
143	0xbe87a3c1	-0.26492122
144	0x3c8cdb67	0.017194463
145	0xbe2c0207	-0.16797648
146	0xbd66d428	-0.05635467
147	0x3d3b74e9	0.04576579
148	0xbe7bf6a9	-0.24605812
149	0x3da55749	0.08073289
150	0x3c8ba1f2	0.017044995
151	0x3e9b996c	0.3039049
152	0x3c6f185c	0.01459321
153	0x3dd1b008	0.102386534
154	0x3d8493dd	0.06473515
155	0xbdce938e	-0.100867376
156	0x3e4e9a51	0.20176055
157	0x3e64ab78	0.22331035
158	0x3e428add	0.18998285
159	0xbd12b33a	-0.035815455
160	0x3e8aedd0	0.27134562
161	0x3e77c392	0.24195698
162	0xbe68cd4f	-0.22734569
163	0xbe657902	-0.22409442
164	0xbea0985f	-0.3136625
165	0x3d072752	0.032996483
166	0xbe5959d9	-0.2122568
167	0xbce837c3	-0.028346902
168	0xbe9b8d44	-0.30381215
169	0x3c7d756d	0.015469891
170	0xbd11ec03	-0.03562547
171	0xbe66ad57	-0.22527061
172	0x3d652636	0.055944644
173	0xbe11bf43	-0.14233117
174	0x3e24fcc3	0.16112046
175	0xbbf4632c	-0.0074581113
176	0xbe8a7d22	-0.27048594
177	0xbda113bf	-0.078650944
178	0xbe86609d	-0.26245585
179	0x3e6b5751	0.22982527
180	0xbd80b55a	-0.0628459
181	0x3d11dc81	0.03561068
182	0xbe93e0e0	-0.28882504
183	0x3e4fb91b	0.20285456
184	0x3e148c4a	0.14506641
185	0x3d93a89f	0.07209896
186	0x3e46f0d7	0.1942781
187	0xbd8c94c1	-0.0686431
188	0x3e8eb7f3	0.27874717
189	0x3e571074	0.2100237
190	0x3ea66ee0	0.32506466
191	0xbd9f599e	-0.07780765
192	0x3e6bd2f9	0.23029698
193	0x3e195e67	0.14977418
194	0xbdb002ab	-0.08594259
195	0xbe8a458f	-0.27006194
196	0xbd28077a	-0.041022755
197	0x3d493c99	0.049130056
198	0xbd39a780	-0.045325756
199	0xbe558b45	-0.20853908
200	0xbdd1b15f	-0.10238909
201	0x3ea49ae2	0.32149416
202	0xbe7f2208	-0.24915326
203	0xbe94ec6c	-0.29086626
204	0x3d5f8e4a	0.054579057
205	0xbd1e7d89	-0.03869394
206	0x3e087662	0.1332641
207	0xbdd6956e	-0.1047772
208	0xbe4fa09f	-0.20276116
209	0xbd5e2511	-0.054234568
210	0xbdf226f9	-0.1182384
211	0x3d2622a6	0.040560387
212	0xbe3ed475	-0.18635733
213	0x3e12b0d6	0.1432527
214	0xbe27b221	-0.16376545
215	0x3d5bdb3c	0.053675875
216	0x3d8415cb	0.06449469
217	0x3cabc31b	0.020967057
218	0x3e9a28dd	0.301093
219	0xbd47a854	-0.048744515
220	0x3eb17433	0.34658965
221	0x3e087e51	0.13329436
222	0x3e3b0d07	0.18266688
223	0xbe56253e	-0.20912644
224	0x3e279815	0.16366608
225	0x3c860e6a	0.016364295
226	0xbe7c06df	-0.24611996
227	0xbd38d1ed	-0.045122076
228	0xbdb3dd4c	-0.087824434
229	0x3e843471	0.2582126
230	0xbd35e678	-0.044409245
231	0xbea4b09f	-0.32166
232	0xbe586916	-0.21133837
233	0x3e43bf71	0.19115998
234	0xbd7fbba9	-0.062434826
235	0xbe526080	-0.20544624
236	0x3d3cbe33	0.046079826
237	0xba34e61a	-0.0006900743
238	0x3e9e4c30	0.309175
239	0xbea26180	-0.31715012
240	0xbe15bdcc	-0.14623183
241	0xbe346980	-0.1761837
242	0xbe35a06f	-0.17736982
243	0x3da1832c	0.07886347
244	0xbe3f192b	-0.18661945
245	0x3e432df5	0.190605
246	0xbe9963e0	-0.2995901
247	0x3d2854c9	0.041096482
248	0x3e2b8a5b	0.16751997
249	0x3dd7fb17	0.105459385
250	0x3daa0d3b	0.08303305
251	0x3cdb862a	0.026797373
252	0x3e1735dc	0.1476664
253	0x3dc8fbf6	0.09813683
254	0x3e4407cc	0.191436
255	0xbe3e004c	-0.18554801

fc.bias f4 [96]
0	0xbe2ff9e0	-0.17185163
1	0x3e610a32	0.21976545
2	0xbd5808b8	-0.05274269
3	0xbe5a4f73	-0.2131937
4	0xbe095599	-0.13411559
5	0xbe8dbb86	-0.27682132
6	0x3b9b04be	0.00473079
7	0xbd93f37f	-0.072241776
8	0x3d0ec02f	0.03485125
9	0x3d6c83e7	0.05774298
10	0xbe8120f7	-0.25220463
11	0xbe8f679c	-0.28008735
12	0xbdf847cd	-0.1212307
13	0xbcb3ccce	-0.021948244
14	0x3cc58f13	0.024116075
15	0xbe3db678	-0.18526638
16	0xbe16d0ff	-0.14728163
17	0xbe2dc28a	-0.16968742
18	0xbdce63b9	-0.10077614
19	0xbe333623	-0.1750112
20	0xbe69981f	-0.22811936
21	0xbd294b45	-0.04133155
22	0xba13e6a1	-0.00056419714
23	0xbe116583	-0.1419888
24	0x3d154698	0.036444277
25	0xbe7d6b83	-0.24748044
26	0xbe52af91	-0.20574786
27	0xbe856da4	-0.26060212
28	0x3d5be5f4	0.053686097
29	0xbe834a51	-0.25642636
30	0x3cd97637	0.026545627
31	0xbe2dee75	-0.16985495
32	0xbd422671	-0.04739994
33	0x3d4a0f4b	0.04933099
34	0xbddeedad	-0.10885177
35	0xbe86949c	-0.26285255
36	0xbe39c602	-0.1814194
37	0x3be7c84f	0.007073439
38	0xbe5cb834	-0.21554643
39	0xbe1d1f5b	-0.15343992
40	0xbe756910	-0.2396586
41	0x3caa938e	0.020822313
42	0xbe29c526	-0.16579112
43	0x3d444e20	0.04792607
44	0x3d4d9524	0.05019106
45	0xbe273d0f	-0.16331886
46	0x3d6009d8	0.054696888
47	0xbe57d246	-0.21076307
48	0xba26eec0	-0.0006367974
49	0xbe434396	-0.1906875
50	0xbdad364a	-0.084576204
51	0xbe60caa3	-0.219523
52	0x3def8d69	0.11696894
53	0x3dbf2b7f	0.09334468
54	0xbe7a9c35	-0.24473651
55	0xbe0295ae	-0.12752411
56	0x3da2aa43	0.07942631
57	0xbe872aad	-0.26399747
58	0xbdd6b86f	-0.10484397
59	0xbe78e618	-0.24306524
60	0xbd0cb235	-0.03434964
61	0xbe4f4d33	-0.20244293
62	0xbe28fca8	-0.1650263
63	0xbde8cfbf	-0.113677494
64	0x3d87eb4e	0.06636678
65	0xbe71f407	-0.23628245
66	0x3dfa631e	0.12225936
67	0x3db6ae94	0.08920017
68	0x3dfa5d0c	0.122247785
69	0x3bd07fb8	0.0063628815
70	0x3e63afcb	0.22235028
71	0x3e40c7b8	0.18826187
72	0xbc4e744d	-0.01260097
73	0x3dc17969	0.09446985
74	0x3e6d6477	0.23182856
75	0x3dabc3b5	0.083869375
76	0xbc5767ac	-0.013147276
77	0x3aacc8bb	0.0013182381
78	0x3da00086	0.078126
79	0x3d1cf2dc	0.038317546
80	0x3e74d5df	0.2390971
81	0x3e0f0923	0.13968329
82	0xbd688ebd	-0.05677675
83	0x3d43d1e6	0.047807597
84	0x3e092694	0.13393623
85	0x3dccecc3	0.10006096
86	0xbaf4c650	-0.0018674824
87	0xbe3506b2	-0.17678335
88	0x3e1d3fa4	0.15356308
89	0xbe5efbec	-0.21775788
90	0x3e335b61	0.17515327
91	0x3db087dd	0.08619664
92	0xbde5966c	-0.11210331
93	0x3d2a827b	0.041628342
94	0xbcc5d58b	-0.024149677
95	0xbe802bff	-0.25033566
