checkpoints_qa/sum_tok_ner_epoch_9.pt (torch, 262893 bytes, 7 tensors)

embedding.weight f4 [96, 256]
-0.29576677 -0.9710202 -1.1713182 -2.1382065 -0.14612949 0.5566985 -1.6301365 -1.5293181
-0.5214153 1.0122335 1.5225523 -0.73403716 0.24565692 0.17816314 0.9498885 -2.3336132
-1.1086284 -0.25325555 -0.27872616 0.8868426 0.4236165 -0.025016531 0.86599106 -0.7465606
-0.36809894 -0.79954356 0.29121125 -0.9798366 0.43132636 1.3320006 -0.7013379 0.34959793
0.66641146 1.6202972 -0.22382961 -1.4588143 1.0311869 -1.578991 0.49650398 0.9968475
-0.06517708 -0.27884522 0.78073233 0.8904401 -1.6458637 -0.40103728 -0.75328296 -2.0106952
0.77654374 0.026625857 0.34689987 0.65495974 1.9373468 1.4008639 -0.9413726 -0.68022305
-1.591454 0.22655314 -0.5471586 0.992041 -0.32336944 -2.297181 -1.1766815 0.8548644
0.41522923 1.5200491 -0.2428167 2.1476164 0.7195128 -1.3616604 0.7731754 -2.1162035
-1.5484194 -1.4242318 -1.2367496 1.9325987 0.26029536 -1.073918 -1.588108 -0.5347608
-0.29982883 1.0473856 -0.124772675 0.5231773 1.771394 -0.4494183 0.041742526 -1.882314
-0.62931246 1.3281134 -1.0096656 -0.056348626 -1.0662475 0.27457312 -0.945012 -1.0198697
-0.41416278 1.880894 -0.21613699 1.0105313 -0.50181466 0.3629356 -1.3863387 0.21704414
0.79010683 -2.155733 -0.32574221 0.41617772 -0.4937967 0.25913423 -1.2352937 -2.0537434
0.08507872 -0.5115465 1.3759658 -0.4193091 -1.649115 0.46687236 1.8076787 0.50468355
0.28230074 -0.9045077 0.11196303 0.9258761 0.25587177 -1.0841343 1.1487026 -0.48185542
0.31745234 -0.31461316 0.22428371 0.5719353 -0.57095367 0.13573657 -0.5891957 0.8929996
-0.7674001 -0.99736387 0.17238557 -0.497847 0.84116524 -0.61422014 1.2744251 -0.4858641
-0.5959256 1.1720861 -0.6727372 0.791146 -0.22036976 0.14676842 0.18889302 -0.86900467
1.4600147 0.045126613 1.4206582 -0.41125202 0.56580204 0.6916178 1.6242657 0.82576364
-1.4346179 -0.3474353 -0.17078051 -2.1586363 -0.07422553 -0.58122313 1.0306563 0.59237814
-0.5723765 -1.1756252 0.5594433 0.1937162 0.8137361 0.05820783 -1.1969858 -0.7028623
-2.1971862 0.22833519 -1.24869 1.2161021 0.7808307 -1.7182584 1.3216165 0.443355
0.9173403 0.046012554 -1.3164073 -0.53405446 2.4384434 0.10267768 0.2054832 1.4389098
-1.5402243 0.52628905 -0.06284126 1.1714448 0.47810385 -0.062016387 -1.5319343 -0.5766611
0.20385693 0.7611216 0.26981914 0.3047786 0.3069075 -0.16225933 0.68616575 1.1641088
0.1688999 -0.8984473 -0.4169354 0.2070982 0.560735 -0.47206423 0.7097679 1.487905
0.41654798 0.6220363 0.48786333 0.30148298 -2.0554338 -0.13987629 -1.1434623 -0.6924861
-1.7841355 0.354472 -0.96162045 -0.7029886 0.22350374 -0.9763751 0.250222 2.9067893
0.18282904 0.5106235 0.21723881 0.0067031905 1.657904 -0.11380309 1.65884 0.20956726
-2.207111 -0.72381186 0.3588425 0.55044365 0.15617652 -0.80883485 -0.36090773 -0.602282
0.25801012 0.76725316 0.31783628 -0.08925755 -0.3379228 -1.1078758 -0.37367904 0.9438838
00000000: be6e 97be c894 78bf c1ed 95bf 60d8 08c0
00000010: f8a2 15be cb83 0e3f 50a8 d0bf b2c0 c3bf
00000020: 797b 05bf de90 813f fee2 c23f dce9 3bbf
00000030: 7d8d 7b3e 6670 363e e52b 733f eb59 15c0
00000040: 89e7 8dbf b6aa 81be 32b5 8ebe 1e08 633f
00000050: 43e4 d83e 78ef ccbc 97b1 5d3f 981e 3fbf
00000060: 7777 bcbe e3ae 4cbf a419 953e 92d6 7abf
00000070: cfd6 dc3e ff7e aa3f e18a 33bf 80fe b23e
00000080: f199 2a3f e665 cf3f 9733 65be 6dba babf
00000090: effd 833f 611c cabf c535 fe3e 6631 7f3f
000000a0: 907b 85bd cdc4 8ebe 13de 473f e2f3 633f
000000b0: a9ab d2bf c254 cdbe 27d7 40bf 3baf 00c0
000000c0: 92cb 463f 781e da3c dc9c b13e 71ab 273f
000000d0: fbfa f73f 824f b33f cbfd 70bf 1923 2ebf
000000e0: c4b4 cbbf 8cfd 673e 9612 0cbf 66f6 7d3f
000000f0: ae90 a5be 0305 13c0 809d 96bf 65d8 5a3f
00000100: ed98 d43e f890 c23f f1a4 78be 8c72 0940
00000110: fe31 383f e34a aebf d3ee 453f e16f 07c0
00000120: 9b32 c6bf 3a4d b6bf d04d 9ebf 655f f73f
00000130: 6f45 853e 2576 89bf 1f47 cbbf 15e6 08bf
00000140: 2a83 99be bb10 863f d188 ffbd f3ee 053f
00000150: 0abd e23f 281a e6be 36fa 2a3d aaef f0bf
00000160: 9f1a 21bf 9fff a93f b93c 81bf d1cd 66bd
00000170: cc7a 88bf d994 8c3e 4eec 71bf 178b 82bf
00000180: 250d d4be 22c1 f03f 0453 5dbe 1759 813f
00000190: ed76 00bf b2d2 b93e 8c73 b1bf d240 5e3e
000001a0: 7144 4a3f 88f7 09c0 afc7 a6be 3f15 d53e
000001b0: ecd2 fcbe 3ead 843e 1b1e 9ebf 8870 03c0
000001c0: c03d ae3d b6f4 02bf a61f b03f afaf d6be
000001d0: 3316 d3bf e509 ef3e 0462 e73f f132 013f
000001e0: b989 903e d18d 67bf e04c e53d 3706 6d3f
000001f0: a001 833e eac4 8abf b008 933f c1b5 f6be
00000200: 1d89 a23e fa14 a1be a1aa 653e 5a6a 123f
00000210: 052a 12bf 87fe 0a3e 88d5 16bf 9f9b 643f
00000220: 5574 44bf 3d53 7fbf d885 303e cde5 febe
00000230: 9b56 573f 883d 1dbf 5d20 a33f 2ec3 f8be
00000240: 958e 18bf eb06 963f 8138 2cbf 8b88 4a3f
00000250: 9ca8 61be 764a 163e 2c6d 413e 1777 5ebf
00000260: c3e1 ba3f afd6 383d 21d8 b53f a08f d2be
00000270: 67d8 103f dd0d 313f f0e7 cf3f 3f65 533f
00000280: 8fa1 b7bf 0ae3 b1be 16e1 2ebe 1927 0ac0
00000290: 8e03 98bd 0acb 14bf 8cec 833f 18a6 173f
000002a0: 4487 12bf e37a 96bf ad37 0f3f 8a5d 463e
000002b0: 0251 503f 556b 6e3d d536 99bf c9ee 33bf
000002c0: b39e 0cc0 b3d0 693e 13d5 9fbf 3ca9 9b3f
000002d0: 85e4 473f e4ef dbbf bb2a a93f 6dff e23e
000002e0: d0d6 6a3f a977 3c3d 0980 a8bf cbb7 08bf
000002f0: 750f 1c40 ad48 d23d 306a 523e 322e b83f
00000300: 1226 c5bf e1ba 063f ebb2 80bd e7f1 953f
00000310: 07ca f43e e504 7ebd 6c16 c4bf 10a0 13bf
00000320: dfbf 503e ddd8 423f bc25 8a3e f10b 9c3e
00000330: fb22 9d3e 4f27 26be 8fa8 2f3f 8401 953f
00000340: 18f4 2c3e a400 66bf 8f78 d5be 8d11 543e
00000350: 548c 0f3f 67b2 f1be 59b3 353f ac73 be3f
00000360: c745 d53e c53d 1f3f 39c9 f93e fa5b 9a3e
00000370: 3a8c 03c0 bb3b 0fbe f95c 92bf c546 31bf
00000380: 8d5e e4bf 5b7d b53e c22c 76bf 10f7 33bf
00000390: 2ade 643e b8f3 79bf 191d 803e d608 3a40
000003a0: 8937 3b3e 39b8 023f da73 5e3e 70a6 db3b
000003b0: 3336 d43f 9811 e9bd de54 d43f cd98 563e
000003c0: 4e41 0dc0 bc4b 39bf 34ba b73e e0e9 0c3f
000003d0: bdec 1f3e cd0f 4fbf e6c8 b8be 272f 1abf
000003e0: e719 843e b46a 443f 70bb a23e aacc b6bd
000003f0: 3804 adbe e0ce 8dbf dc52 bfbe 5ea2 713f

lstm.weight_ih_l0 f4 [128, 256]
0.20768607 0.0106120575 0.046721056 0.038500115 0.06313506 0.08875916 0.14424464 -0.04047922
0.12274916 0.124475025 0.037891485 -0.03462509 0.10370504 0.10809301 0.07113013 0.008179456
0.042981848 0.11599519 -0.31554085 0.014136475 0.020880515 0.05417937 0.23184192 0.05399707
0.25222254 0.08754724 0.08719844 -0.09695785 0.057064835 -0.10575872 0.14096296 -0.16498245
-0.1369163 0.0038407554 0.12117362 0.15888937 0.13462721 0.16215067 -0.16581988 0.08762727
-0.03253607 0.09224509 0.16882169 0.022719163 0.09343452 0.092989415 0.12695481 0.13593957
-0.03492012 -0.05851422 0.067604974 -0.092409275 0.1755267 -0.037135534 -0.22352679 -0.00017942213
-0.16526522 -0.12714608 -0.111861296 -0.12723048 -0.07357204 -0.022587877 -0.25615105 -0.25382662
-0.23238263 0.07895945 -0.12999235 0.074209176 -0.041502636 -0.17928739 0.0022364105 -0.027332835
0.21120487 -0.021686137 0.061066438 -0.14168155 0.059674397 0.18451622 -0.09344885 -0.10844605
0.12649384 -0.033846408 -0.0043080775 0.2260991 -0.14096902 -0.036703803 0.17350508 -0.14822327
-0.159038 0.039536517 0.09313921 0.15384498 -0.027407631 0.20181906 0.08083273 -0.085730486
-0.026550286 0.010691232 -0.09169857 0.072462454 0.039701067 0.13602786 0.21099778 -0.19524752
-0.074433036 -0.04992183 0.22239998 0.01923377 0.11533262 -0.11436993 -0.040366326 -0.22743803
0.20269725 -0.055979732 -0.26282313 0.035784665 0.040542785 0.08256797 0.030850582 -0.006110927
0.20877393 0.16652495 0.030752655 0.03274936 0.009561204 -0.12952581 -0.038826317 0.031148281
-0.18382913 -0.048918106 -0.08169006 0.11404643 -0.045532726 0.022143098 0.17266144 0.4309835
0.21757942 -0.0515844 0.06556449 -0.073189326 0.007156778 0.26560467 0.10727362 0.08731908
0.028107084 -0.31291348 -0.046598136 0.108345546 0.32716095 0.16115165 0.012611285 -0.048079308
-0.1952288 0.18284117 0.2011731 -0.06441515 -0.2818374 0.13186781 -0.17429219 0.20510179
-0.021447022 -0.04486781 0.07991393 0.17791581 -0.15711628 -0.19167602 -0.08897975 0.11434093
0.033295613 0.1649303 -0.24051684 -0.091524504 0.044819508 -0.12659673 0.03682444 -0.14191467
-0.16215858 -0.27752388 0.20154549 -0.16612203 -0.16452782 -0.092729144 -0.05530222 0.19315122
-0.0010074197 0.051324937 -0.09424561 0.03817422 -0.05804556 -0.058059335 -0.08172574 0.09030157
0.041839935 0.13573791 0.04114026 0.22343409 0.14554447 -0.21554059 0.16370095 -0.09258847
0.058972172 0.03817384 -0.29109028 -0.1464542 -0.12814115 -0.040040065 -0.041527484 0.19240774
0.1553464 0.06297189 -0.2070796 0.05004877 0.18659608 -0.17077893 -0.13312176 0.16352196
0.08027949 0.20736961 0.09749984 0.021987224 -0.10501358 -0.26076972 -0.06357549 0.08899048
0.1804399 0.026926955 -0.011185518 0.07893395 -0.1694344 0.1296317 0.10893202 0.075503126
-0.034616448 -0.07275998 0.07416901 0.11836522 0.11631554 -0.19013466 0.14112017 -0.07594218
0.068536736 -0.10231547 0.06258943 -0.22093171 0.18707173 -0.06895507 0.024667842 0.111145
-0.25747067 -0.045844946 0.07422491 0.023688257 0.09793422 -0.05681448 -0.08335517 -0.028231764
00000000: a8ab 543e 32de 2d3c 945e 3f3d 4cb2 1d3d
00000010: f44c 813d 5dc7 b53d deb4 133e 8acd 25bd
00000020: e963 fb3d c3ec fe3d 1a34 1b3d 0ad3 0dbd
00000030: 4f63 d43d de5f dd3d acac 913d 2003 063c
00000040: bc0d 303d e38e ed3d 928e a1be ac9c 673c
00000050: 9d0d ab3c 30eb 5d3d f867 6d3e 082c 5d3d
00000060: 5023 813e f84b b33d 1995 b23d d691 c6bd
00000070: d1bc 693d 0798 d8bd 9858 103e 29f1 28be
00000080: c933 0cbe 2fb5 7b3b e029 f83d e5b3 223e
00000090: b7db 093e d30a 263e b0cc 29be ed75 b33d
000000a0: 8b44 05bd feea bc3d 98df 2c3e 8a1d ba3c
000000b0: 995a bf3d 3c71 be3d 7100 023e be33 0b3e
000000c0: 6608 0fbd 9bac 6fbd 7a74 8a3d 1341 bdbd
000000d0: 45bd 333e 6e1b 18bd 35e4 64be 4323 3cb9
000000e0: 493b 29be 9532 02be 8917 e5bd b548 02be
000000f0: f0ac 96bd 360a b9bc 3b26 83be 90f5 81be
00000100: b6f5 6dbe 7eb5 a13d b71c 05be fbfa 973d
00000110: abfe 29bd 1d97 37be be90 123b 1ce9 dfbc
00000120: 1746 583e 20a7 b1bc cd20 7a3d f814 11be
00000130: 246d 743d d2f1 3c3e 1c62 bfbd f618 debd
00000140: 9a87 013e 88a2 0abd c62a 8dbb 8686 673e
00000150: 2f5a 10be ba56 16bd 51ab 313e d7c7 17be
00000160: dcda 22be 0bf1 213d c5bf be3d 8a89 1d3e
00000170: f885 e0bc a8a9 4e3e a18b a53d 7793 afbd
00000180: fc7f d9bc 472a 2f3c 76cc bbbd 3267 943d
00000190: 969d 223d e34a 0b3e cd0f 583e f7ee 47be
000001a0: 5970 98bd d57a 4cbd d2bc 633e 2490 9d3c
000001b0: 8233 ec3d c83a eabd 2957 25bd 84e5 68be
000001c0: de8f 4f3e 014b 65bd c190 86be f192 123d
000001d0: 3110 263d 6519 a93d 5cba fc3c 2c3e c8bb
000001e0: d5c8 553e 8485 2a3e feec fb3c 3124 063d
000001f0: 99a6 1c3c 6aa2 04be 5808 1fbd ae2a ff3c
00000200: b43d 3cbe 5a5e 48bd 1e4d a7bd 2d91 e93d
00000210: 8680 3abd 7165 b53c 29ce 303e dfa9 dc3e
00000220: 24cd 5e3e 2a4a 53bd ad46 863d 49e4 95bd
00000230: 6883 ea3b 56fd 873e 46b2 db3d 59d4 b23d
00000240: d440 e63c 3236 a0be b0dd 3ebd 45e4 dd3d
00000250: a481 a73e f004 253e 909f 4e3c cfee 44bd
00000260: 0fea 47be b73a 3b3e 5200 4e3e 17ec 83bd
00000270: fe4c 90be 5b08 073e a779 32be 3406 523e
00000280: aab1 afbc 4fc7 37bd eaa9 a33d 902f 363e
00000290: 17e3 20be b846 44be 043b b6bd 942b ea3d
000002a0: fb60 083d 7de3 283e 0c4a 76be 3371 bbbd
000002b0: a994 373d 93a2 01be 39d5 163d 1452 11be
000002c0: e60c 26be 9c17 8ebe f161 4e3e e51b 2abe
000002d0: fb79 28be c7e8 bdbd 9584 62bd 6fc9 453e
000002e0: 650b 84ba 193a 523d d803 c1bd 925c 1c3d
000002f0: 2ec1 6dbd a0cf 6dbd d35f a7bd 08f0 b83d
00000300: 5a60 2b3d e1fe 0a3e b082 283d e8cb 643e
00000310: 9c09 153e acb6 5cbe 39a1 273e 069f bdbd
00000320: ce8c 713d 2c5c 1c3d c909 95be 17f8 15be
00000330: 6f37 03be 0d01 24bd b918 2abd 8906 453e
00000340: 2013 1f3e 68f7 803d ad0c 54be f0ff 4c3d
00000350: 0b13 3f3e ace0 2ebe 1251 08be 4d72 273e
00000360: 9369 a43d b358 543e ffad c73d 8d1e b43c
00000370: 5c11 d7bd 9c83 85be de33 82bd a440 b63d
00000380: 3dc5 383e eb95 dc3c 7643 37bc 1fa8 a13d
00000390: 3680 2dbe 2cbe 043e c017 df3d 62a1 9a3d
000003a0: fac9 0dbd 2f03 95bd ece5 973d 7769 f23d
000003b0: d836 ee3d a9b2 42be ce81 103e 9387 9bbd
000003c0: fd5c 8c3d c68a d1bd e32e 803d ec3b 62be
000003d0: bb8f 3f3e 5138 8dbd 3714 ca3c fd9f e33d
000003e0: 32d3 83be e9c7 3bbd 3b03 983d e00d c23c
000003f0: bd91 c83d 4db6 68bd 1eb6 aabd 4d46 e7bc

lstm.weight_hh_l0 f4 [128, 32]
0.5309424 -0.071263894 -0.14393903 -0.0018192604 0.6696007 0.80373925 0.22773847 0.6278023
0.42581713 -0.7881866 -0.260152 0.05339716 -0.13295811 0.14804906 -0.03466897 0.25743675
-0.4595212 -0.09021349 0.54152954 -0.4243179 0.4636195 -0.5453109 -0.025187537 -0.016469048
0.30897295 0.59075844 0.04399432 -0.38586578 0.18564276 -1.0671939 -0.18714511 -0.6186653
0.19752946 -0.0755558 0.1438669 0.30425966 -0.06360474 0.361877 0.47770888 -0.009884187
0.22642297 -0.12907144 0.108694986 -0.093895875 -0.15375744 0.5271676 -0.5382887 0.12859705
0.038873117 0.11143966 0.91561556 -0.5254369 0.5332562 -0.006202825 0.19989136 -0.4815346
0.36447284 -0.60213137 0.26476 0.21259649 -0.1293156 0.11522967 0.2533044 -0.4522495
-0.40831843 -0.58372384 -0.6856335 0.21141694 0.14568354 1.3350501 0.2070686 -0.010654441
-0.14282967 -0.685404 -0.12784669 0.6667067 -0.68263143 -0.23229451 -0.018183624 -0.3239691
0.097059764 0.07831243 0.19138041 -0.60807437 0.63208437 -0.38177496 0.05352328 -0.32723495
-0.05456424 0.681168 -0.18294148 0.024200056 -0.36663893 -0.108080976 -0.677258 -0.37219134
-0.15763468 -0.2852728 0.80320764 0.15284574 0.024118489 0.5860568 0.1297 -0.084696546
-0.21877702 -0.3818758 -0.19248363 0.025198735 -0.1485024 0.008181745 -0.51355714 -0.15440749
0.1927579 0.45808396 0.108308 0.4760434 0.0916421 0.4054791 -0.25257447 -0.12823074
0.27285454 0.5397652 -0.4937541 0.3400489 -0.40242466 0.11414815 -0.08922105 0.6080514
0.118164666 -0.016174842 0.18369982 0.20096676 -0.021490782 -0.20684715 -0.053546462 -0.15779196
-0.066125676 -0.24745598 0.13244933 0.24123003 -0.21266209 -0.0036069783 0.10487273 0.19173183
0.10701032 0.089705534 0.017559528 -0.2346021 0.20052966 0.040548585 -0.00481129 -0.046177678
-0.16325076 0.185758 -0.14029609 0.21397318 -0.052136634 -0.08826534 0.054666966 0.112611085
-0.6021412 -0.337987 0.43733612 0.17275858 0.40482166 -0.102291375 0.10357683 0.29420182
0.543858 -0.21856092 0.4314181 0.44795614 -0.404852 0.37109777 -0.23828559 -0.015636597
0.650621 0.18972506 0.34343573 -0.43229452 0.3287091 -0.47911337 0.13856874 -0.17922245
-0.06409147 0.3653564 -0.41050047 0.16317184 -0.5130737 -0.17072392 0.043944124 0.44655824
-0.07265744 0.06706672 0.2737255 0.47328255 0.32749748 -0.3518847 -0.08080523 0.28496197
0.07925024 -0.32238594 0.19323806 -0.110914476 0.051137052 0.16414662 -0.3682522 -0.1935539
0.6203731 0.29670504 0.21333233 0.3278938 0.46775833 0.013066344 -0.05435309 -0.30413288
-0.30506894 -0.4859361 0.2053524 -0.38203675 0.30869758 -0.07959454 -0.23627125 -0.61571795
-0.31454796 -0.09245457 0.060972225 0.82094556 0.10078847 -1.0164102 0.5888959 0.95805335
0.40592766 0.032815304 0.15183026 -0.016544504 0.14632162 0.6789599 -0.12769134 1.1630545
0.3303818 0.64136684 -0.049449764 -0.22506271 -0.05223915 0.05236624 0.26622483 -0.17328963
-0.26959798 -0.8568156 -0.019967047 0.041292958 -1.0872182 0.24169087 0.28776312 0.9960112
00000000: d7eb 073f cef2 91bd c164 13be 4074 eeba
00000010: f46a 2b3f dbc1 4d3f 4634 693e a7b7 203f
00000020: b404 da3e 99c6 49bf a532 85be fbb6 5a3d
00000030: 2c26 08be 2c9a 173e 0d01 0ebd c0ce 833e
00000040: 5d46 ebbe dac1 b8bd aea1 0a3f 3240 d9be
00000050: 895f ed3e 7f99 0bbf 1856 cebc 19ea 86bc
00000060: b431 9e3e f23b 173f 6333 343d 3390 c5be
00000070: 2319 3e3e cf99 88bf f8a2 3fbe d960 1ebf
00000080: 2a45 4a3e 00bd 9abd d851 133e ecc7 9b3e
00000090: 3443 82bd f147 b93e 4296 f43e 49f1 21bc
000000a0: 6cdb 673e 4e2b 04be 7a9b de3d 7b4c c0bd
000000b0: 9772 1dbe 75f4 063f 4acd 09bf f2ae 033e
000000c0: 6b39 1f3d 7a3a e43d c865 6a3f 0883 06bf
000000d0: 7a83 083f 1141 cbbb 52b0 4c3e b48b f6be
000000e0: 2f9c ba3e 4825 1abf 9f8e 873e e5b2 593e
000000f0: 4f6b 04be 89fd eb3d 1db1 813e 3f8d e7be
00000100: 1d0f d1be ed6e 15bf ad85 2fbf af7d 583e
00000110: 112e 153e ece2 aa3f cb09 543e f78f 2ebc
00000120: f141 12be a376 2fbf 3eea 02be 4aad 2a3f
00000130: efc0 2ebf 9dde 6dbe d3f5 94bc 47df a5be
00000140: 45c7 c63d 4462 a03d 3af9 433e c3aa 1bbf
00000150: 48d0 213f 0278 c3be 3a3b 5b3d 578b a7be
00000160: c17e 5fbd 0761 2e3f 0355 3bbe 323f c63c
00000170: 19b8 bbbe 8f59 ddbd c860 2dbf dd8f bebe
00000180: fc6a 21be 470f 92be 049f 4d3f 9883 1c3e
00000190: 2394 c53c d207 163f 14d0 043e 6275 adbd
000001a0: 1507 60be 3a85 c3be 6e1a 45be 946d ce3c
000001b0: 0311 18be ba0c 063c 7b78 03bf ff1c 1ebe
000001c0: 5462 453e fb89 ea3e 96d0 dd3d f6bb f33e
000001d0: daae bb3d f59a cf3e 7151 81be eb4e 03be
000001e0: 97b3 8b3e 0d2e 0a3f 56cd fcbe e41a ae3e
000001f0: 9b0a cebe 81c6 e93d 87b9 b6bd 42a9 1b3f
00000200: 5100 f23d 1a81 84bc ce1b 3c3e 3bca 4d3e
00000210: 700d b0bc bdcf 53be 8953 5bbd 3794 21be
00000220: e66c 87bd 1a65 7dbe cca0 073e 0105 773e
00000230: 17c4 59be 0e63 6cbb 84c7 d63d 5955 443e
00000240: 3a28 db3d 89b7 b73d 00d9 8f3c 883b 70be
00000250: a657 4d3e 4616 263d 07a8 9dbb ce24 3dbd
00000260: 352b 27be 5837 3e3e c7a9 0fbe c91b 5b3e
00000270: 398d 55bd 75c4 b4bd 78ea 5f3d a4a0 e63d
00000280: ed25 1abf a20c adbe 85ea df3e a0e7 303e
00000290: c944 cf3e 247e d1bd 1720 d43d 9fa1 963e
000002a0: 473a 0b3f 6fce 5fbe d5e2 dc3e 825a e53e
000002b0: c348 cfbe 8700 be3e 2301 74be 5218 80bc
000002c0: 198f 263f 4947 423e cfd6 af3e b555 ddbe
000002d0: 8f4c a83e 594e f5be f7e4 0d3e 1786 37be
000002e0: 6342 83bd fe0f bb3e 1e2d d2be 8516 273e
000002f0: cc58 03bf 40d2 2ebe c1fe 333d 48a3 e43e
00000300: 6dcd 94bd 475a 893d c025 8c3e 1752 f23e
00000310: c0ad a73e 3b2a b4be 367d a5bd 89e6 913e
00000320: f34d a23d c50f a5be 33e0 453e 2127 e3bd
00000330: 1675 513d 0d16 283e 8d8b bcbe fe32 46be
00000340: c5d0 1e3f b9e9 973e ca73 5a3e b2e1 a73e
00000350: 057e ef3e 3814 563c 58a1 5ebd 4eb7 9bbe
00000360: ff31 9cbe 9ecc f8be e647 523e 529a c3be
00000370: 9c0d 9e3e 7602 a3bd 17f1 71be b19f 1dbf
00000380: 6e0c a1be d258 bdbd 03be 793d 7d29 523f
00000390: 2f6a ce3d bb19 82bf e2c1 163f fc42 753f
000003a0: c0d5 cf3e 5769 063d 6479 1b3e 5788 87bc
000003b0: 56d5 153e 51d0 2d3f 85c1 02be f8de 943f
000003c0: ce27 a93e 9e30 243f d68b 4abd d776 66be
000003d0: b8f8 55bd fc7d 563d 9f4e 883e d672 31be
000003e0: bf08 8abe 4458 5bbf ef91 a3bc ce22 293d
000003f0: f729 8bbf d07d 773e b055 933e 97fa 7e3f

lstm.bias_ih_l0 f4 [128]
0.17742892 0.22911921 0.054806016 0.089304395 0.053418674 0.34669662 0.12376291 0.38781095
0.2368447 0.1657629 0.011445692 0.16271211 -0.06269314 0.18948646 0.23118779 0.19152047
0.16873014 0.13604702 0.11933132 0.040342834 0.08505654 -0.09068415 0.016216122 0.13177787
0.25962806 0.13054445 0.045772806 0.36053655 0.092030495 0.31129435 0.29134113 0.17863499
-0.21705776 -0.004334045 0.17816472 0.2640407 0.005612025 0.12530933 0.115497544 -0.1697076
-0.020089412 0.023817614 0.05014741 0.09358222 0.21034463 0.0522395 0.087075844 -0.09177028
0.03799887 0.0068275826 0.085284 0.14656726 0.01979155 0.13886535 -0.0027280147 -0.029264826
0.1432076 -0.044735387 -0.1198446 -0.09063208 0.22950627 0.073090225 0.072837315 -0.050988685
0.12383202 -0.1659194 0.072883345 0.09153631 0.12666477 -0.15405026 0.008604382 -0.04740852
-0.118978955 -0.09034068 -0.04242929 -0.018753728 0.10846216 0.11895979 0.042592924 0.036866516
-0.07846974 0.17940016 0.08710215 0.12629968 0.12886839 0.080063805 0.16057497 0.12176333
-0.0007878961 -0.1622488 0.03323398 0.15340321 -0.09294907 0.06441689 -0.20136738 -0.031746667
0.23580287 0.13845034 0.26888067 0.03490853 0.028311094 0.31849757 0.23735595 0.10824763
-0.07112389 0.27230954 -0.040022038 -0.11273197 0.038877916 0.09881326 0.24334268 0.24141075
-0.0768117 0.1502131 0.12116566 0.07272237 0.29718155 0.07834447 0.09183555 0.084291115
0.12512465 0.1314132 0.17777227 0.073698536 0.093484625 -0.08201793 0.15484752 0.22603275
00000000: edaf 353e 3a9e 6a3e 467c 603d 39e5 b63d
00000010: 8acd 5a3d 3882 b13e 6977 fd3d 288f c63e
00000020: 6b87 723e c0bd 293e b686 3b3c 019e 263e
00000030: 4365 80bd bd08 423e 7ebc 6c3e f11d 443e
00000040: 98c7 2c3e e94f 0b3e fb63 f43d 873e 253d
00000050: 2032 ae3d 9db8 b9bd acd7 843c c7f0 063e
00000060: f8ed 843e 72ad 053e 447c 3b3d 3f98 b83e
00000070: 7c7a bc3d f961 9f3e aa2a 953e 17ec 363e
00000080: 6444 5ebe 9b04 8ebb d070 363e 5830 873e
00000090: 14e5 b73b 1751 003e fa89 ec3d d4c7 2dbe
000000a0: 8d92 a4bc 281d c33c 5f67 4d3d 09a8 bf3d
000000b0: 9564 573e 16f9 553d d254 b23d 0ef2 bbbd
000000c0: b4a4 1b3d eab9 df3b 61a9 ae3d ba15 163e
000000d0: e321 a23c b832 0e3e 7ec8 32bb cabc efbc
000000e0: 03a5 123e 743c 37bd 1671 f5bd 509d b9bd
000000f0: b103 6b3e 54b0 953d bb2b 953d 83d9 50bd
00000100: a49b fd3d c6e6 29be dd43 953d 6477 bb3d
00000110: 69b4 013e 5abf 1dbe 65f9 0c3c 702f 42bd
00000120: 3dab f3bd 8904 b9bd 56ca 2dbd 6ba1 99bc
00000130: 6921 de3d 31a1 f33d eb75 2e3d 5801 173d
00000140: beb4 a0bd adb4 373e 9d62 b23d b454 013e
00000150: 13f6 033e 7ef8 a33d c46d 243e 0e5f f93d
00000160: d08a 4eba 8d24 26be 5b20 083d bb15 1d3e
00000170: 155c bebd 01ed 833d 4033 4ebe cb08 02bd
00000180: 4f76 713e edc5 0d3e baaa 893e 3ffc 0e3d
00000190: abec e73c 1d12 a33e 700d 733e efb0 dd3d
000001a0: 67a9 91bd 286c 8b3e 26ee 23bd 05e0 e6bd
000001b0: 733e 1f3d 9b5e ca3d d32e 793e 6134 773e
000001c0: 744f 9dbd 76d1 193e b425 f83d 77ef 943d
000001d0: 2e28 983e 1173 a03d 4714 bc3d d2a0 ac3d
000001e0: ad20 003e 2f91 063e ef09 363e 42ef 963d
000001f0: de74 bf3d 04f9 a7bd 5990 1e3e 2175 673e

lstm.bias_hh_l0 f4 [128]
0.35718566 0.16139685 0.2610554 0.201215 -0.07118805 0.42064658 0.14669338 0.093514204
0.17064515 0.1002037 0.14965177 -0.00457619 0.17224808 0.111358576 0.11885258 0.2426945
0.28685063 0.26754364 0.3596489 0.1837604 -0.023600062 0.13346453 0.062426206 0.0796859
0.09533481 0.24956436 0.04761831 0.11772128 -0.011503594 0.26148325 0.00019217397 0.22907555
-0.19937894 -0.036649942 -0.02874012 0.25222087 0.114775844 -0.12655026 0.13351503 -0.07045407
0.032214444 -0.06025004 0.09592065 -0.07991705 -0.020952906 0.25449 -0.22247438 0.18489732
0.20903353 0.11463244 -0.025734976 -0.0062027583 0.08788705 -0.056439415 0.19252728 0.1089282
-0.07940491 -0.09643869 -0.101598926 -0.05991252 0.022258751 0.16149001 -0.008525282 0.00069274014
0.05776798 0.08484261 0.08173903 0.119237736 0.09053928 0.0897263 0.20989534 -0.027134608
0.009139532 -0.08312525 -0.084540665 0.00081373524 0.008606858 0.06456111 -0.04400589 0.013035413
0.12913814 0.14268214 0.021476772 -0.0061177523 0.16674142 -0.1746116 0.15219194 -0.11171709
-0.18530184 -0.14737502 -0.09119979 0.13812748 -0.15696152 -0.17688148 0.1269298 -0.072721444
0.123060554 -0.10907842 0.28255638 0.24154033 -0.07031571 0.27134475 0.1700395 0.3315136
-0.04896843 0.19468518 -0.043550607 -0.041401222 0.12900981 0.07524416 0.21902187 0.08994077
0.21588545 -0.017302493 0.2511762 0.22479327 0.16310795 -0.049073927 0.13976549 -0.061949655
0.16332194 0.28455228 0.2428724 0.30210796 0.3185184 0.12233532 0.12998086 0.2626549
00000000: 0ae1 b63e 3745 253e 0ea9 853e 4e0b 4e3e
00000010: 0acb 91bd fd5e d73e ca36 163e 6084 bf3d
00000020: 9abd 2e3e 9937 cd3d 503e 193e ddf3 95bb
00000030: cd61 303e f70f e43d fb68 f33d e884 783e
00000040: 16de 923e 7bfb 883e e723 b83e b02b 3c3e
00000050: eb54 c1bc edaa 083e 9fb2 7f3d 5c32 a33d
00000060: e63e c33d cd8d 7f3e 6b0b 433d db17 f13d
00000070: 9279 3cbc 22e1 853e 4f82 4939 c892 6a3e
00000080: fe29 4cbe 401e 16bd 6670 ebbc 1823 813e
00000090: 990f eb3d 6496 01be 2ab8 083e 394a 90bd
000000a0: 4bf3 033d bfc8 76bd 0c72 c43d 8dab a3bd
000000b0: 6ea5 abbc 834c 823e 53d0 63be b955 3d3e
000000c0: e30c 563e 6ac4 ea3d 28d2 d2bc 8240 cbbb
000000d0: 20fe b33d 042d 67bd df25 453e c015 df3d
000000e0: 0b9f a2bd a681 c5bd 1913 d0bd d566 75bd
000000f0: fc57 b63c a35d 253e a0ad 0bbc 0199 353a
00000100: 1e9e 6c3d f6c1 ad3d cb66 a73d ea32 f43d
00000110: a86c b93d 6cc2 b73d ceee 563e 6649 debc
00000120: fabd 153c 923d aabd a823 adbd d950 553a
00000130: c703 0d3c 9e38 843d 853f 34bd 7c92 553c
00000140: ca3c 043e 441b 123e 0ef0 af3c 6d77 c8bb
00000150: 43be 2a3e 62cd 32be 34d8 1b3e eecb e4bd
00000160: c4bf 3dbe 7ae9 16be f5c6 babd 4a71 0d3e
00000170: 85ba 20be 6b20 35be e3f9 013e fbee 94bd
00000180: 2c07 fc3d 8264 dfbd 3bab 903e 5956 773e
00000190: af01 90bd b3ed 8a3e d61e 2e3e 27bc a93e
000001a0: 1f93 48bd 8d5b 473e 1f62 32bd 5494 29bd
000001b0: 261b 043e 9c19 9a3d 4547 603e de32 b83d
000001c0: 1311 5d3e f5bd 8dbc 2b9a 803e 3530 663e
000001d0: c505 273e be01 49bd af1e 0f3e ecbe 7dbd
000001e0: de3d 273e d6b0 913e 8bb3 783e e5ad 9a3e
000001f0: d814 a33e f18a fa3d b419 053e b47a 863e

fc.weight f4 [96, 32]
0.18964678 0.4284376 -0.26975235 -0.32918206 -0.42903364 -0.093575835 -0.2601848 -0.13908087
-0.3312371 0.11224317 -0.36003733 -0.27269393 0.25519133 -0.17493166 0.046287097 -0.2736621
-0.32830998 -0.41241267 -0.37436053 0.26880595 -0.32759088 0.1856511 -0.25703883 0.26932055
0.28759325 0.027352575 0.28803205 -0.29645061 0.47136977 0.36210978 0.5142238 -0.33301303
0.5945511 -0.22062725 -0.2746326 -0.033287108 0.47155 -0.8748077 -0.08403001 0.9355382
0.41031116 -0.46180385 0.4225825 -0.37628847 -0.4358184 0.14225323 -0.91931355 0.42765203
0.24626446 -1.179006 -0.24496956 -0.12370322 -0.016524477 -0.42275205 -0.4594669 -0.29672316
-0.19627343 0.4688843 -0.3232708 -0.31419256 -0.6989763 -0.49745315 1.0418557 0.91703975
0.38836738 0.5254071 -0.33104914 -0.09884474 -0.41646343 0.004959464 -0.23469393 -0.26167613
-0.1561786 0.18523885 -0.24726333 -0.2727975 0.38969287 -0.11557206 0.12525228 -0.33032426
-0.26780307 -0.32343137 -0.4113479 0.19536944 -0.3589761 0.07878807 -0.37918264 0.43300062
0.30429068 -0.05550725 0.25515693 -0.20667876 0.22493564 0.16580133 0.38864955 -0.1313009
0.348915 0.37717703 -0.41929856 -0.112409286 -0.39821815 -0.06192334 -0.17429344 -0.041200474
-0.26792747 0.10607557 -0.30135974 -0.37140235 0.15439537 -0.18001215 0.17020036 -0.3668791
-0.1792745 -0.42240334 -0.42177474 0.22909571 -0.45367134 0.16676061 -0.16118805 0.2666656
0.41335797 0.02814228 0.109779924 -0.23292466 0.25618985 0.36023864 0.34614548 -0.256298
0.21140368 0.5066967 -0.32721844 -0.3304752 -0.16128105 0.09405692 -0.3926019 -0.20028542
-0.3157304 0.14456855 -0.28639767 -0.13520992 0.19227952 -0.1860104 0.23921447 -0.32181394
-0.069122255 -0.26883247 -0.18931517 0.16755658 -0.3639103 0.17778978 -0.095881075 0.43674776
0.11954961 0.04389646 0.16810589 -0.23989746 0.32706082 0.32737443 0.35594562 -0.05749787
0.38732472 0.41688815 -0.34170204 -0.30760646 -0.43425786 0.0030142984 -0.33589593 -0.038907032
-0.41579 0.10425314 -0.14992867 -0.31492856 0.20428683 -0.26331678 0.20955157 -0.08888156
-0.35900488 -0.19654031 -0.41156447 0.35770455 -0.19715413 0.13491203 -0.3997837 0.35050505
0.2492599 0.021243026 0.29645517 -0.193764 0.41916376 0.31447738 0.5096032 -0.12204192
0.33386934 0.32057488 -0.19967788 -0.35194185 -0.16290681 0.009780049 -0.17138043 -0.18487747
-0.22045417 0.40833166 -0.35732922 -0.36870134 0.20267843 -0.16196163 0.15699531 -0.18945563
-0.29356694 -0.16819307 -0.263891 0.17753932 -0.3176651 0.24590914 -0.28180206 0.19965938
0.17481099 -0.0075679594 0.40176633 -0.1864109 0.47308078 0.25002003 0.36846724 -0.22080953
0.0020158621 0.0687347 -0.0852774 -0.43478158 -0.33767453 0.42921692 -0.010396549 -0.32704142
-0.17276864 0.11149794 -0.28130716 -0.25012136 -0.018876985 0.0054196455 0.55564004 -0.45460775
-0.3563478 -0.55879533 -0.020548292 0.030740613 -0.040414516 0.13999052 -0.41039738 0.09930144
0.55827034 0.36774534 0.0073708943 0.17354332 0.4073627 0.056676988 0.0012063474 -0.1394488
00000000: c432 423e 2c5c db3e fb1c 8abe 8d8a a8be
00000010: 4caa dbbe b0a4 bfbd f136 85be 376b 0ebe
00000020: e997 a9be bfdf e53d d056 b8be 8a9e 8bbe
00000030: 70a8 823e 4921 33be 8a97 3d3d 701d 8cbe
00000040: 3f18 a8be c127 d3be 2fac bfbe efa0 893e
00000050: feb9 a7be 521b 3e3e 989a 83be 62e4 893e
00000060: 6c3f 933e 8212 e03c f078 933e 60c8 97be
00000070: 6157 f13e 7466 b93e 2ca4 033f af80 aabe
00000080: 8034 183f 1cec 61be a59c 8cbe 1058 08bd
00000090: 006f f13e 66f3 5fbf ed17 acbd 6e7f 6f3f
000000a0: 4e14 d23e 8e71 ecbe bc5c d83e e2a8 c0be
000000b0: 9723 dfbe d5aa 113e 2258 6bbf 35f5 da3e
000000c0: c02c 7c3e abe9 96bf 4dd9 7abe 1d58 fdbd
000000d0: 575e 87bc f572 d8be 3f3f ebbe 19ec 97be
000000e0: e7fb 48be 9a11 f03e c083 a5be d9dd a0be
000000f0: 1cf0 32bf 2eb2 febe 875b 853f 1ec3 6a3f
00000100: 17d8 c63e 1481 063f 467f a9be 1c6f cabd
00000110: b23a d5be 0083 a23b 9b53 70be 6afa 85be
00000120: 48ed 1fbe 41af 3d3e 9932 7dbe 1dac 8bbe
00000130: d385 c73e 0bb1 ecbd 2242 003e 4320 a9be
00000140: 7c1d 89be cc98 a5be 319c d2be ed0e 483e
00000150: b7cb b7be a45b a13d 3a24 c2be 42b2 dd3e
00000160: fdcb 9b3e 925b 63bd eea3 823e 99a3 53be
00000170: 8755 663e d3c7 293e 13fd c63e be73 06be
00000180: fda4 b23e 591d c13e 4dae d6be d736 e6bd
00000190: 40e3 cbbe 54a3 7dbd fb79 32be d4c1 28bd
000001a0: ca2d 89be 263e d93d d34b 9abe 7328 bebe
000001b0: d219 1e3e 1b55 38be 0149 2e3e 94d7 bbbe
000001c0: bc93 37be 4045 d8be dcf2 d7be 1198 6a3e
000001d0: 9c47 e8be 4bc3 2a3e 7b0e 25be 6588 883e
000001e0: a8a3 d33e a48a e63c 4cd4 e03d cd83 6ebe
000001f0: 512b 833e 3371 b83e fb39 b13e 7e39 83be
00000200: 357a 583e e0b6 013f 2d89 a7be 0c34 a9be
00000210: dc26 25be eaa0 c03d 1e03 c9be 9f17 4dbe
00000220: 6aa7 a1be c709 143e b7a2 92be 7874 0abe
00000230: ece4 443e 8379 3ebe a3f4 743e ccc4 a4be
00000240: f88f 8dbd 69a4 89be d6db 41be f493 2b3e
00000250: 7352 babe 860e 363e 4c5d c4bd 679d df3e
00000260: 6dd6 f43d c6cc 333d f323 2c3e aea7 75be
00000270: 8474 a73e 9f9d a73e 813e b63e e382 6bbd
00000280: 6d4f c63e 5d72 d53e 92f3 aebe 987e 9dbe
00000290: 0c57 debe 898b 453b 8dfa abbe fb5c 1fbd
000002a0: 6de2 d4be ac82 d53d e786 19be 513e a1be
000002b0: 9130 513e 75d1 86be b094 563e 8907 b6bd
000002c0: 7dcf b7be dd41 49be 94b8 d2be 0d25 b73e
000002d0: c6e2 49be 6126 0a3e 73b0 ccbe 6675 b33e
000002e0: fd3d 7f3e db05 ae3c f9c8 973e 126a 46be
000002f0: a29c d63e 2e03 a13e 5b75 023f 1df1 f9bd
00000300: ecf0 aa3e 6422 a43e 5c78 4cbe b931 b4be
00000310: 0bd1 26be 803c 203c 5a7e 2fbe 8550 3dbe
00000320: bdbe 61be d910 d13e dbf3 b6be 6cc6 bcbe
00000330: ef8a 4f3e 45d9 25be 61c3 203e a800 42be
00000340: 684e 96be ce3a 2cbe b91c 87be decc 353e
00000350: 00a5 a2be 9bcf 7b3e 5c48 90be 8273 4c3e
00000360: a701 333e a5fc f7bb 51b4 cd3e 80e2 3ebe
00000370: a537 f23e a002 803e bda7 bc3e e51b 62be
00000380: 8e1c 043b c7c4 8c3d eba5 aebd b19b debe
00000390: ade3 acbe 52c2 db3e 4956 2abc f971 a7be
000003a0: 43ea 30be 0859 e43d 7e07 90be e80f 80be
000003b0: e8a3 9abc 4897 b13b 6d3e 0e3f 59c2 e8be
000003c0: 3873 b6be 360d 0fbf e454 a8bc bdd3 fb3c
000003d0: b189 25bd ad59 0f3e 9b1f d2be 8e5e cb3d
000003e0: ceea 0e3f 1e49 bc3e 8b87 f13b 57b5 313e
000003f0: d891 d03e 2126 683d 4d1e 9e3a abcb 0ebe

fc.bias f4 [96]
-0.2671159 0.24738173 -0.15021552 -0.31746036 -0.2377566 -0.36823338 -0.10593729 -0.10794176
-0.06601147 -0.042991843 -0.3483569 -0.39127383 -0.21939448 -0.015853476 -0.08467636 -0.45723543
-0.25151885 -0.26293787 -0.19741061 -0.27713174 -0.3230882 -0.15150994 -0.09788836 -0.24271165
-0.06841378 -0.35215914 -0.30174303 -0.36182112 -0.039760392 -0.35261258 -0.07881671 -0.26129067
-0.14941972 -0.052534293 -0.13657874 -0.35387328 -0.20121942 -0.026772752 -0.31944543 -0.11023357
-0.3466658 -0.08374023 0.009361042 -0.04898908 0.038332786 -0.12420709 0.09921923 -0.23728134
-0.101163805 -0.0841347 -0.029079886 -0.3113378 0.31546843 0.11193754 -0.34513545 -0.23175117
0.1904468 -0.36814094 -0.20324989 -0.33676082 -0.13391651 -0.29267174 -0.2691195 -0.21373263
-0.027461791 -0.3355518 0.12379398 0.12193828 0.07637846 0.04377185 0.27725986 0.28579754
0.008785935 0.2709766 0.19541639 0.18228029 0.031403948 0.04724137 0.11621024 -0.016741168
0.34547457 0.26755196 -0.14349227 0.008400673 0.16391964 0.078742914 -0.021870958 -0.12976138
0.30423918 -0.122785404 0.19478163 -0.01742103 -0.21306501 -0.054725904 -0.11980467 -0.34625176
00000000: 6ac3 88be a351 7d3e 19d2 19be 2a8a a2be
00000010: 7776 73be 1689 bcbe a6f5 d8bd 9210 ddbd
00000020: 0631 87bd 3718 30bd d65b b2be 0b55 c8be
00000030: f2a8 60be 26df 81bc cd6a adbd c31a eabe
00000040: 14c7 80be cb9f 86be 0226 4abe 36e4 8dbe
00000050: d16b a5be 6c25 1bbe b179 c8bd 6789 78be
00000060: 861c 8cbd 344e b4be 107e 9abe 9e40 b9be
00000070: cbdb 22bd a389 b4be a86a a1bd e4c7 85be
00000080: 7c01 19be 332e 57bd 4cdb 0bbe e12e b5be
00000090: 770c 4ebe 8852 dbbc 5a8e a3be 23c2 e1bd
000000a0: 2e7e b1be ff7f abbd 0e5f 193c c6a8 48bd
000000b0: d702 1d3d 4960 febd 7433 cb3d e1f9 72be
000000c0: f82e cfbd d04e acbd f138 eebc ab67 9fbe
000000d0: 1485 a13e 823f e53d 98b5 b0be 2e50 6dbe
000000e0: 7c04 433e f87c bcbe bd20 50be ea6b acbe
000000f0: 6921 09be 12d9 95be 08ca 89be badc 5abe
00000100: 8df7 e0bc 72cd abbe b387 fd3d c7ba f93d
00000110: 4f6c 9c3d 1d4a 333d 01f5 8d3e 0e54 923e
00000120: e2f2 0f3c 72bd 8a3e 3c1b 483e afa7 3a3e
00000130: 6da1 003d 2b80 413d a2ff ed3d c624 89bc
00000140: 0be2 b03e 92fc 883e a3ef 12be faa2 093c
00000150: 8dda 273e f743 a13d b92a b3bc 2be0 04be
00000160: 3dc5 9b3e ea76 fbbd d674 473e 8cb6 8ebc
00000170: b72d 5abe 4528 60bd 275c f5bd e947 b1be
