checkpoints_qa/sum_tok_ner_epoch_6.pt (torch, 262893 bytes, 7 tensors)

embedding.weight f4 [96, 256]
-0.29576677 -0.9710202 -1.1713182 -2.1382065 -0.14612949 0.5566985 -1.6301365 -1.5293181
-0.5214153 1.0122335 1.5225523 -0.73403716 0.24565692 0.17816314 0.9498885 -2.3336132
-1.1086284 -0.25325555 -0.27872616 0.8868426 0.4236165 -0.025016531 0.86599106 -0.7465606
-0.36809894 -0.79954356 0.29121125 -0.9798366 0.43132636 1.3320006 -0.7013379 0.34959793
0.66641146 1.6202972 -0.22382961 -1.4588143 1.0311869 -1.578991 0.49650398 0.9968475
-0.06517708 -0.27884522 0.78073233 0.8904401 -1.6458637 -0.40103728 -0.75328296 -2.0106952
0.77654374 0.026625857 0.34689987 0.65495974 1.9373468 1.4008639 -0.9413726 -0.68022305
-1.591454 0.22655314 -0.5471586 0.992041 -0.32336944 -2.297181 -1.1766815 0.8548644
0.41522923 1.5200491 -0.2428167 2.1476164 0.7195128 -1.3616604 0.7731754 -2.1162035
-1.5484194 -1.4242318 -1.2367496 1.9325987 0.26029536 -1.073918 -1.588108 -0.5347608
-0.29982883 1.0473856 -0.124772675 0.5231773 1.771394 -0.4494183 0.041742526 -1.882314
-0.62931246 1.3281134 -1.0096656 -0.056348626 -1.0662475 0.27457312 -0.945012 -1.0198697
-0.41416278 1.880894 -0.21613699 1.0105313 -0.50181466 0.3629356 -1.3863387 0.21704414
0.79010683 -2.155733 -0.32574221 0.41617772 -0.4937967 0.25913423 -1.2352937 -2.0537434
0.08507872 -0.5115465 1.3759658 -0.4193091 -1.649115 0.46687236 1.8076787 0.50468355
0.28230074 -0.9045077 0.11196303 0.9258761 0.25587177 -1.0841343 1.1487026 -0.48185542
0.31745234 -0.31461316 0.22428371 0.5719353 -0.57095367 0.13573657 -0.5891957 0.8929996
-0.7674001 -0.99736387 0.17238557 -0.497847 0.84116524 -0.61422014 1.2744251 -0.4858641
-0.5959256 1.1720861 -0.6727372 0.791146 -0.22036976 0.14676842 0.18889302 -0.86900467
1.4600147 0.045126613 1.4206582 -0.41125202 0.56580204 0.6916178 1.6242657 0.82576364
-1.4346179 -0.3474353 -0.17078051 -2.1586363 -0.07422553 -0.58122313 1.0306563 0.59237814
-0.5723765 -1.1756252 0.5594433 0.1937162 0.8137361 0.05820783 -1.1969858 -0.7028623
-2.1971862 0.22833519 -1.24869 1.2161021 0.7808307 -1.7182584 1.3216165 0.443355
0.9173403 0.046012554 -1.3164073 -0.53405446 2.4384434 0.10267768 0.2054832 1.4389098
-1.5402243 0.52628905 -0.06284126 1.1714448 0.47810385 -0.062016387 -1.5319343 -0.5766611
0.20385693 0.7611216 0.26981914 0.3047786 0.3069075 -0.16225933 0.68616575 1.1641088
0.1688999 -0.8984473 -0.4169354 0.2070982 0.560735 -0.47206423 0.7097679 1.487905
0.41654798 0.6220363 0.48786333 0.30148298 -2.0554338 -0.13987629 -1.1434623 -0.6924861
-1.7841355 0.354472 -0.96162045 -0.7029886 0.22350374 -0.9763751 0.250222 2.9067893
0.18282904 0.5106235 0.21723881 0.0067031905 1.657904 -0.11380309 1.65884 0.20956726
-2.207111 -0.72381186 0.3588425 0.55044365 0.15617652 -0.80883485 -0.36090773 -0.602282
0.25801012 0.76725316 0.31783628 -0.08925755 -0.3379228 -1.1078758 -0.37367904 0.9438838
00000000: be6e 97be c894 78bf c1ed 95bf 60d8 08c0
00000010: f8a2 15be cb83 0e3f 50a8 d0bf b2c0 c3bf
00000020: 797b 05bf de90 813f fee2 c23f dce9 3bbf
00000030: 7d8d 7b3e 6670 363e e52b 733f eb59 15c0
00000040: 89e7 8dbf b6aa 81be 32b5 8ebe 1e08 633f
00000050: 43e4 d83e 78ef ccbc 97b1 5d3f 981e 3fbf
00000060: 7777 bcbe e3ae 4cbf a419 953e 92d6 7abf
00000070: cfd6 dc3e ff7e aa3f e18a 33bf 80fe b23e
00000080: f199 2a3f e665 cf3f 9733 65be 6dba babf
00000090: effd 833f 611c cabf c535 fe3e 6631 7f3f
000000a0: 907b 85bd cdc4 8ebe 13de 473f e2f3 633f
000000b0: a9ab d2bf c254 cdbe 27d7 40bf 3baf 00c0
000000c0: 92cb 463f 781e da3c dc9c b13e 71ab 273f
000000d0: fbfa f73f 824f b33f cbfd 70bf 1923 2ebf
000000e0: c4b4 cbbf 8cfd 673e 9612 0cbf 66f6 7d3f
000000f0: ae90 a5be 0305 13c0 809d 96bf 65d8 5a3f
00000100: ed98 d43e f890 c23f f1a4 78be 8c72 0940
00000110: fe31 383f e34a aebf d3ee 453f e16f 07c0
00000120: 9b32 c6bf 3a4d b6bf d04d 9ebf 655f f73f
00000130: 6f45 853e 2576 89bf 1f47 cbbf 15e6 08bf
00000140: 2a83 99be bb10 863f d188 ffbd f3ee 053f
00000150: 0abd e23f 281a e6be 36fa 2a3d aaef f0bf
00000160: 9f1a 21bf 9fff a93f b93c 81bf d1cd 66bd
00000170: cc7a 88bf d994 8c3e 4eec 71bf 178b 82bf
00000180: 250d d4be 22c1 f03f 0453 5dbe 1759 813f
00000190: ed76 00bf b2d2 b93e 8c73 b1bf d240 5e3e
000001a0: 7144 4a3f 88f7 09c0 afc7 a6be 3f15 d53e
000001b0: ecd2 fcbe 3ead 843e 1b1e 9ebf 8870 03c0
000001c0: c03d ae3d b6f4 02bf a61f b03f afaf d6be
000001d0: 3316 d3bf e509 ef3e 0462 e73f f132 013f
000001e0: b989 903e d18d 67bf e04c e53d 3706 6d3f
000001f0: a001 833e eac4 8abf b008 933f c1b5 f6be
00000200: 1d89 a23e fa14 a1be a1aa 653e 5a6a 123f
00000210: 052a 12bf 87fe 0a3e 88d5 16bf 9f9b 643f
00000220: 5574 44bf 3d53 7fbf d885 303e cde5 febe
00000230: 9b56 573f 883d 1dbf 5d20 a33f 2ec3 f8be
00000240: 958e 18bf eb06 963f 8138 2cbf 8b88 4a3f
00000250: 9ca8 61be 764a 163e 2c6d 413e 1777 5ebf
00000260: c3e1 ba3f afd6 383d 21d8 b53f a08f d2be
00000270: 67d8 103f dd0d 313f f0e7 cf3f 3f65 533f
00000280: 8fa1 b7bf 0ae3 b1be 16e1 2ebe 1927 0ac0
00000290: 8e03 98bd 0acb 14bf 8cec 833f 18a6 173f
000002a0: 4487 12bf e37a 96bf ad37 0f3f 8a5d 463e
000002b0: 0251 503f 556b 6e3d d536 99bf c9ee 33bf
000002c0: b39e 0cc0 b3d0 693e 13d5 9fbf 3ca9 9b3f
000002d0: 85e4 473f e4ef dbbf bb2a a93f 6dff e23e
000002e0: d0d6 6a3f a977 3c3d 0980 a8bf cbb7 08bf
000002f0: 750f 1c40 ad48 d23d 306a 523e 322e b83f
00000300: 1226 c5bf e1ba 063f ebb2 80bd e7f1 953f
00000310: 07ca f43e e504 7ebd 6c16 c4bf 10a0 13bf
00000320: dfbf 503e ddd8 423f bc25 8a3e f10b 9c3e
00000330: fb22 9d3e 4f27 26be 8fa8 2f3f 8401 953f
00000340: 18f4 2c3e a400 66bf 8f78 d5be 8d11 543e
00000350: 548c 0f3f 67b2 f1be 59b3 353f ac73 be3f
00000360: c745 d53e c53d 1f3f 39c9 f93e fa5b 9a3e
00000370: 3a8c 03c0 bb3b 0fbe f95c 92bf c546 31bf
00000380: 8d5e e4bf 5b7d b53e c22c 76bf 10f7 33bf
00000390: 2ade 643e b8f3 79bf 191d 803e d608 3a40
000003a0: 8937 3b3e 39b8 023f da73 5e3e 70a6 db3b
000003b0: 3336 d43f 9811 e9bd de54 d43f cd98 563e
000003c0: 4e41 0dc0 bc4b 39bf 34ba b73e e0e9 0c3f
000003d0: bdec 1f3e cd0f 4fbf e6c8 b8be 272f 1abf
000003e0: e719 843e b46a 443f 70bb a23e aacc b6bd
000003f0: 3804 adbe e0ce 8dbf dc52 bfbe 5ea2 713f

lstm.weight_ih_l0 f4 [128, 256]
0.18743601 0.011583502 0.035040684 0.043684565 0.058064178 0.10021082 0.14433326 -0.009994964
0.12576601 0.12129684 0.04149554 -0.028446 0.06912582 0.10916742 0.07925855 0.013810217
0.047934193 0.09317945 -0.29185742 0.01376323 -0.015235377 0.059589274 0.22933815 -0.0012018677
0.29538077 0.0543497 0.09026249 -0.07828449 0.035685673 -0.12285462 0.15458415 -0.13904537
-0.14666641 0.001502982 0.12707904 0.15183966 0.12963483 0.16817614 -0.18409596 0.10817338
-0.042656817 0.08156316 0.16020557 0.037996747 0.0730489 0.11485935 0.1270225 0.15354578
-0.0050932756 -0.07175657 0.07338028 -0.09552129 0.17861003 -0.046482876 -0.2160575 -0.0004066486
-0.13029926 -0.13605122 -0.14319868 -0.060244307 -0.06983352 -0.028099852 -0.2615941 -0.24802482
-0.23537315 0.088621974 -0.12114051 0.07833355 -0.058111787 -0.1961446 0.023956774 -0.051872477
0.23886757 -0.0048737484 0.060980357 -0.109856926 0.05165339 0.16912039 -0.09967163 -0.10411534
0.124158755 -0.06542558 -0.0044428944 0.24815008 -0.1294374 -0.027591983 0.20911564 -0.14549585
-0.12268336 0.08373238 0.09607958 0.13010325 -0.03172381 0.1800208 0.07552822 -0.086905435
-0.038149852 0.020988723 -0.10339075 0.04742195 0.021342799 0.1340483 0.21322426 -0.19192383
-0.06974229 -0.045924786 0.2688381 0.020211011 0.11634887 -0.10961058 -0.043543674 -0.22157504
0.19545051 -0.08289649 -0.20540638 0.035942294 0.032246377 0.073219016 0.04124085 -0.01118175
0.2249046 0.16975872 0.028944409 0.027134253 -0.02488604 -0.13277465 -0.062006503 0.017402854
-0.12693126 -0.030556591 -0.08399104 0.11532301 -0.060275525 0.02580318 0.15061231 0.3495501
0.20965427 -0.05115272 0.07295616 -0.06480954 -0.0020700162 0.2633026 0.17919278 0.10345368
0.041149385 -0.28767702 -0.035937905 0.10174194 0.32456636 0.16401911 0.023322847 -0.03998685
-0.15318458 0.19571511 0.18527333 -0.08978915 -0.26028678 0.12144514 -0.17130682 0.21064249
-0.019767558 -0.049286596 0.07426312 0.22789927 -0.14093891 -0.22211455 -0.079142064 0.08706715
0.032905 0.17372926 -0.18295832 -0.0784552 0.048900437 -0.15413344 0.03455647 -0.12351784
-0.16161168 -0.26560685 0.19035108 -0.15623304 -0.20964603 -0.086832255 -0.049562026 0.20189026
0.004278761 0.054828204 -0.08908449 0.028091203 -0.037262097 -0.04696538 -0.080786355 0.09322273
0.040640548 0.14504923 0.048590824 0.25951523 0.1422965 -0.20539644 0.16056646 -0.09177108
0.045064755 0.031062648 -0.23897552 -0.14153442 -0.17615812 -0.024627311 -0.031769663 0.18259032
0.14294004 0.06214778 -0.22876458 0.024687843 0.17655249 -0.19640464 -0.16259147 0.1786746
0.04363076 0.19057357 0.06938352 0.017235309 -0.096149206 -0.25927177 -0.04961999 0.118443646
0.17028148 0.0067698862 -0.009582633 0.081676975 -0.18216835 0.17561224 0.112083405 -0.008785926
-0.033580087 -0.06674524 0.072301425 0.072759606 0.1274105 -0.19292866 0.17822647 -0.076709114
0.07426092 -0.101423755 0.033137783 -0.21954337 0.18108486 -0.06354972 0.032165695 0.10875984
-0.2323345 -0.027144233 0.070797935 0.03864428 0.09018072 -0.07725967 -0.06641399 -0.038029224
00000000: 3aef 3f3e bbc8 3d3c d286 0f3d 96ee 323d
00000010: b4d4 6d3d 553b cd3d 19cc 133e ebc1 23bc
00000020: cec8 003e 7a6a f83d 3af7 293d 9607 e9bc
00000030: d791 8d3d 2b93 df3d 4f52 a23d 4044 623c
00000040: a556 443d ded4 be3d 566e 95be 2c7f 613c
00000050: cd9d 79bc e213 743d 9fd7 6a3e fd87 9dba
00000060: 263c 973e cb9d 5e3d 8adb b83d 9e53 a0bd
00000070: 242b 123d 349b fbbd 4f4b 1e3e e961 0ebe
00000080: b82f 16be b5ff c43a 0221 023e db7b 1b3e
00000090: febe 043e 5e36 2c3e a783 3cbe 018a dd3d
000000a0: eab8 2ebd 960a a73d ee0c 243e 7aa2 1b3d
000000b0: a99a 953d 613b eb3d 3012 023e 1b3b 1d3e
000000c0: 7ee5 a6bb 1cf5 92bd 6648 963d aba0 c3bd
000000d0: 8ce5 363e d464 3ebd 2d3e 5dbe 7433 d5b9
000000e0: 2b6d 05be 0351 0bbe ada2 12be bcc2 76bd
000000f0: e004 8fbd a931 e6bc a9ef 85be 38fa 7dbe
00000100: a905 71be 707f b53d 8418 f8bd 576d a03d
00000110: a006 6ebd 21da 48be ff40 c43c 3c78 54bd
00000120: b399 743e f7b3 9fbb 8ac6 793d abfc e0bd
00000130: 8192 533d e52d 2d3e a420 ccbd 6c3a d5bd
00000140: f246 fe3d d9fd 85bd b395 91bb 0e1b 7e3e
00000150: 3d8b 04be 9508 e2bc 6922 563e ddfc 14be
00000160: 6a41 fbbd e27b ab3d 5fc5 c43d c939 053e
00000170: d3f0 01bd 5f57 383e 8aae 9a3d 7afb b1bd
00000180: 0543 1cbd 8bf0 ab3c 88be d3bd 853d 423d
00000190: 18d7 ae3c f543 093e 7657 5a3e ae87 44be
000001a0: 0cd5 8ebd a11b 3cbd 26a5 893e 9091 a53c
000001b0: 5148 ee3d 837b e0bd da5a 32bd 91e4 62be
000001c0: 2e24 483e a3c5 a9bd 0d56 52be 3a38 133d
000001d0: c714 043d daf3 953d 2aec 283d a933 37bc
000001e0: 644d 663e 3bd5 2d3e d31c ed3c a748 de3c
000001f0: cfdd cbbc 14f6 07be 88fa 7dbd 6e90 8e3c
00000200: 45fa 01be d151 fabc 7f03 acbd 782e ec3d
00000210: 78e3 76bd 3161 d33c 1d3a 1a3e 3bf8 b23e
00000220: 9caf 563e 8485 51bd 0a6a 953d ddba 84bd
00000230: 1ca9 07bb 99cf 863e 507e 373e 86df d33d
00000240: 428c 283d 674a 93be a033 13bd 145e d03d
00000250: 902d a63e a0f4 273e 8e0f bf3c 40c9 23bd
00000260: 6bdc 1cbe 8b69 483e 4bb8 3d3e 60e3 b7bd
00000270: 4f44 85be 3bb8 f83d 0e6b 2fbe aab2 573e
00000280: 93ef a1bc bee0 49bd 4317 983d 6d5e 693e
00000290: 4a52 10be ff71 63be 3c15 a2bd 4350 b23d
000002a0: 65c7 063d 15e6 313e 6d59 3bbe 1fad a0bd
000002b0: d34b 483d 28d5 1dbe 168b 0d3d ecf6 fcbd
000002c0: 887d 25be 9ffd 87be 65eb 423e 8efb 1fbe
000002d0: 73ad 56be 1cd5 b1bd 8d01 4bbd 52bc 4e3e
000002e0: d934 8c3b 8a93 603d ee71 b6bd 861f e63c
000002f0: 24a0 18bd c55e 40bd 5173 a5bd 8feb be3d
00000300: b476 263d c987 143e 2c07 473d 2edf 843e
00000310: 2cb6 113e 7253 52be 896b 243e 7af2 bbbd
00000320: d295 383d 1877 fe3c 00b6 74be 66ee 10be
00000330: cb62 34be 37bf c9bc e820 02bd f5f8 3a3e
00000340: e05e 123e ac8e 7e3d 4341 6abe 293e ca3c
00000350: 2dca 343e 4c1e 49be 617e 26be 79f6 363e
00000360: 2bb6 323d b825 433e f218 8e3d 1031 8d3c
00000370: e0e9 c4bd 45bf 84be 553e 4bbd 9592 f23d
00000380: 455e 2e3e ecd5 dd3b 7a00 1dbc 4246 a73d
00000390: 578a 3abe b2d3 333e fc8b e53d d8f2 0fbc
000003a0: 468b 09bd bab1 88bd c512 943d fd02 953d
000003b0: e677 023e 178f 45be 0081 363e ab19 9dbd
000003c0: 1c16 983d 42b7 cfbd 7cbb 073d facf 60be
000003d0: 4f6e 393e 5b26 82bd 2dc0 033d 7bbd de3d
000003e0: 18e9 6dbe 955d debc 82fe 903d 7749 1e3d
000003f0: abb0 b83d 513a 9ebd 0f04 88bd 88c4 1bbd

lstm.weight_hh_l0 f4 [128, 32]
0.3989377 -0.23402987 -0.06969019 -0.020270364 0.52889574 0.74191374 0.3012107 0.3643143
0.25959116 -0.80154514 -0.1418814 0.07071506 -0.024073688 0.09059715 0.002913224 0.25252914
-0.25594726 0.09153539 0.4783862 -0.44165954 0.47771436 -0.45872614 -0.10143152 -0.04298393
0.021817977 0.36022604 0.08356342 -0.24128993 -0.05886775 -0.7331791 -0.12275385 -0.6286656
0.15556993 -0.23951934 0.1291243 0.2151743 -0.04828781 0.2486039 0.32567385 0.029942112
0.22430284 -0.029614465 0.13929118 -0.20154153 -0.16474158 0.42374974 -0.4759636 0.14173359
0.03620265 0.06628017 0.69825387 -0.20904353 0.3465016 -0.040873855 0.043963466 -0.3771223
0.27425426 -0.5289438 0.06394005 0.2819051 -0.107885316 -0.007826741 0.21031004 -0.12953646
-0.26347965 -0.4452985 -0.42159596 0.08906187 0.15540434 1.0613106 0.2637365 -0.12734988
-0.030980226 -0.44504786 -0.008795271 0.34739372 -0.53977996 -0.13943782 -0.036001228 -0.24855113
0.14637348 0.13046071 0.17527038 -0.52431667 0.5342906 -0.22211294 0.12385059 -0.3899576
-0.10739628 0.46987477 -0.2868298 -0.07591676 -0.30694434 -0.1555517 -0.38102567 -0.36885434
0.06919316 -0.06518654 0.6393206 -0.06734928 -0.004148253 0.54239076 0.2668305 -0.25172508
-0.069831535 -0.14131948 -0.19842766 0.090569235 -0.06528347 0.08032743 -0.2220765 -0.25223818
0.13317256 0.2463784 -0.23811936 0.37525728 0.16587615 0.26114902 -0.18083388 -0.0056680753
0.056002192 0.25637734 -0.4884678 0.33384743 -0.13882406 -0.06044619 -0.27089012 0.43097377
0.081824556 0.012467835 0.14947312 0.17499627 -0.013920815 -0.10925055 -0.107260264 -0.0062341113
-0.098627396 -0.2119204 0.13918802 0.07136535 -0.19555253 -0.0132328095 -0.06343399 0.16166656
0.11047714 0.09854881 -0.052584346 -0.17926739 0.23477189 0.040895205 -0.007390986 -0.024392689
-0.0763884 0.01312463 -0.07169937 0.1214153 0.05044534 -0.037177302 0.024815926 0.020212786
-0.47086683 -0.30589655 0.2998637 0.21687682 0.3202276 -0.102821566 0.10002732 0.20378526
0.4274869 -0.16394627 0.3074691 0.3063717 -0.38071612 0.39505032 -0.13808683 -0.024811085
0.48115122 0.21159367 0.32384816 -0.36947995 0.26237646 -0.4001179 0.18418162 -0.18259834
-0.06311178 0.24733119 -0.27826932 0.12981446 -0.34218985 -0.1465573 -0.037384488 0.3681634
-0.09000231 -0.1138784 0.0791762 0.28374168 0.38118333 -0.29939038 0.056311354 0.2057359
0.11144276 0.02428534 0.13031882 -0.10019102 -0.01237552 0.1010961 -0.3160391 -0.17126356
0.46040022 0.3500282 0.26164076 0.14827307 0.30263242 -0.06490116 0.0017172127 -0.1318215
-0.004928269 -0.31824434 0.07773689 -0.15870373 0.09876206 -0.15573676 -0.14616454 -0.30935773
-0.116691336 -0.085667506 -0.07730143 0.5572612 0.15654728 -0.65901023 0.53026867 0.70967644
0.31201246 -0.07135646 0.1610954 0.099831745 0.1713039 0.61168844 -0.2622155 0.91049224
0.34857932 0.4993229 0.113686666 -0.067698896 -0.01368427 -0.01899614 0.12677091 -0.17236394
-0.23727156 -0.7009165 -0.054837678 0.17999521 -1.0331836 0.17911915 0.21801311 0.7849304
00000000: 9041 cc3e 87a5 6fbe bbb9 8ebd 090e a6bc
00000010: b665 073f 0fee 3d3f 4a38 9a3e 6787 ba3e
00000020: 22e9 843e 1032 4dbf 5c49 11be 0fd3 903d
00000030: 2f36 c5bc 008b b93d caeb 3e3b 804b 813e
00000040: 850b 83be e876 bb3d 09ef f43e 3321 e2be
00000050: fa96 f43e 27de eabe 54bb cfbd eb0f 30bd
00000060: 9dbb b23c 8c6f b83e 4c23 ab3d b514 77be
00000070: 4f1f 71bd a0b1 3bbf 5f66 fbbd 3bf0 20bf
00000080: b94d 1f3e 8f44 75be 2939 043e a756 5c3e
00000090: 70c9 45bd 0592 7e3e b9be a63e 2949 f53c
000000a0: a5af 653e 099a f2bc 59a2 0e3e e760 4ebe
000000b0: 04b2 28be baf5 d83e 80b1 f3be 9c22 113e
000000c0: 3b49 143d e6bd 873d c4c0 323f 820f 56be
000000d0: a868 b13e 586b 27bd 0913 343d 2d16 c1be
000000e0: 0e6b 8c3e dc68 07bf 00f3 823d de55 903e
000000f0: faf2 dcbd bb3b 00bc 845b 573e 35a5 04be
00000100: cee6 86be 2afe e3be 6ddb d7be 1266 b63d
00000110: 5122 1f3e 07d9 873f 7808 873e 0268 02be
00000120: 3eca fdbc 50dd e3be 0a1a 10bc 97dd b13e
00000130: 052f 0abf cac8 0ebe 0676 13bd 3084 7ebe
00000140: eee2 153e 7e97 053e 147a 333e 9e39 06bf
00000150: 45c7 083f 9371 63be 61a5 fd3d 86a8 c7be
00000160: 95f2 dbbd 6d93 f03e 5bdb 92be 3f7a 9bbd
00000170: cf27 9dbe f248 1fbe cc15 c3be 7ada bcbe
00000180: 25b5 8d3d 8580 85bd 84aa 233f 6bee 89bd
00000190: 11ee 87bb 1fda 0a3f 029e 883e 1ce2 80be
000001a0: d603 8fbd 0eb6 10be 9f30 4bbe 5d7c b93d
000001b0: 57b3 85bd b582 a43d 0668 63be 5d25 81be
000001c0: 635e 083e 9f4a 7c3e 90d5 73be b921 c03e
000001d0: 70db 293e 53b5 853e 842c 39be 43bb b9bb
000001e0: 8e62 653d e443 833e 7418 fabe 0dee aa3e
000001f0: e527 0ebe 6d96 77bd 1cb2 8abe 98a8 dc3e
00000200: a293 a73d e445 4c3c 7b0f 193e 3932 333e
00000210: 2114 64bc c1be dfbd 45ab dbbd 8447 ccbb
00000220: 29fd c9bd a901 59be 4e87 0e3e ff27 923d
00000230: ec3e 48be 6dce 58bc aee9 81bd eb8b 253e
00000240: d741 e23d f5d3 c93d af62 57bd df91 37be
00000250: 0b68 703e bb81 273d 1630 f2bb 2dd3 c7bc
00000260: 8571 9cbd b008 573c 1fd7 92bd 96a8 f83d
00000270: c69f 4e3d 3a47 18bd c54a cb3c 4995 a53c
00000280: 7515 f1be 799e 9cbe bc87 993e f514 5e3e
00000290: dff4 a33e 1d94 d2bd 20db cc3d 15ad 503e
000002a0: 90df da3e 88e1 27be 976c 9d3e c0dc 9c3e
000002b0: 39ed c2be 0944 ca3e a266 0dbe 9e40 cbbc
000002c0: 7459 f63e 03ac 583e 6dcf a53e 7a2c bdbe
000002d0: 3556 863e 41dc ccbe 1b9a 3c3e 0ffb 3abe
000002e0: c040 81bd 6344 7d3e 5179 8ebe 15ee 043e
000002f0: 8233 afbe 1e13 16be 7a20 19bd ea7f bc3e
00000300: 2253 b8bd 1439 e9bd 2227 a23d 9746 913e
00000310: 762a c33e b249 99be bca6 663d 6fac 523e
00000320: 1a3c e43d 0df2 c63c 4c72 053e f330 cdbd
00000330: b1c2 4abc 790b cf3d e0cf a1be b75f 2fbe
00000340: 94b9 eb3e e536 b33e c7f5 853e e5d4 173e
00000350: a3f2 9a3e e6ea 84bd 1914 e13a 37fc 06be
00000360: 517d a1bb ecf0 a2be 8534 9f3d 3b83 22be
00000370: c343 ca3d 7579 1fbe 28ac 15be 2364 9ebe
00000380: defb eebd 7272 afbd 3650 9ebd aca8 0e3f
00000390: ee4d 203e e5b4 28bf b0bf 073f 5bad 353f
000003a0: 19c0 9f3e 5623 92bd 31f6 243e 9674 cc3d
000003b0: 4a6a 2f3e 9d97 1c3f 1c41 86be 0516 693f
000003c0: fd78 b23e 40a7 ff3e 8ed4 e83d b8a5 8abd
000003d0: fd33 60bc cb9d 9bbc 3cd0 013e 2c80 30be
000003e0: 51f7 72be 446f 33bf 799d 60bd aa50 383e
000003f0: 5c3f 84bf 036b 373e d43e 5f3e 33f1 483f

lstm.bias_ih_l0 f4 [128]
0.15690659 0.1933036 0.045778498 0.06808505 0.032225467 0.31776905 0.12882446 0.37732467
0.21264148 0.15456177 0.008941815 0.142688 -0.0706995 0.21344085 0.23411436 0.18169841
0.12892312 0.11136503 0.07802116 -0.0060577905 0.09194439 -0.09408509 0.02777881 0.104204915
0.25953504 0.11105389 0.01850004 0.32545978 0.08090789 0.29954362 0.3007576 0.1681416
-0.21204276 -0.009686124 0.19766454 0.24989222 -0.0054266118 0.13322015 0.11418499 -0.15277724
-0.023259398 0.0070575634 0.05721777 0.0852665 0.20296104 0.027076215 0.09951335 -0.09151617
0.038227223 0.0056843134 0.08600532 0.15003002 0.025137728 0.13985668 -0.007431966 -0.030077357
0.14233625 -0.0572452 -0.11638947 -0.08597697 0.22330815 0.059211522 0.057195526 -0.043941982
0.11932065 -0.15481527 0.06579922 0.088368535 0.13553937 -0.14803581 0.007755617 -0.051927257
-0.1184919 -0.08692158 -0.04667191 -0.026551759 0.108172774 0.1279846 0.04658036 0.041022267
-0.077905744 0.17528117 0.086257085 0.13193536 0.12886313 0.0802255 0.16085644 0.115947925
-0.0021464783 -0.14998183 0.04428272 0.15587233 -0.09949806 0.07300573 -0.19565476 -0.03176864
0.2344771 0.13245873 0.2471639 0.045347206 0.016331082 0.3103158 0.24322331 0.071682915
-0.07776206 0.2528376 -0.050161187 -0.08342204 0.054730676 0.10101539 0.22914198 0.24164738
-0.064312 0.14805944 0.10371981 0.013478067 0.25355095 0.07130573 0.07434495 0.08553454
0.108078785 0.12959555 0.14270797 0.0698434 0.091706485 -0.078021795 0.16090521 0.24525754
00000000: 1fac 203e 61f1 453e 3c82 3b3d 2d70 8b3d
00000010: dafe 033d a0b2 a23e 8fea 033e b330 c13e
00000020: b0be 593e 7145 1e3e b180 123c ce1c 123e
00000030: e6ca 90bd 3d90 5a3e adbb 6f3e 260f 3a3e
00000040: 6c04 043e 5913 e43d 8fc9 9f3d 6e80 c6bb
00000050: 574d bc3d afaf c0bd 6390 e33c 6369 d53d
00000060: c7e1 843e 3970 e33d 658d 973c aaa2 a63e
00000070: 09b3 a53d c85d 993e e6fc 993e 502d 2c3e
00000080: bd21 59be 8cb2 1ebc 9368 4a3e bfe3 7f3e
00000090: b8d1 b1bb dd6a 083e d2d9 e93d a371 1cbe
000000a0: 7e8a bebc 2243 e73b 2e5d 6a3d 34a0 ae3d
000000b0: 05d5 4f3e f0ce dd3c a8cd cb3d d46c bbbd
000000c0: 2694 1c3d 7a43 ba3b 8f23 b03d 78a1 193e
000000d0: a3ed cd3c 9736 0f3e d987 f3bb ca64 f6bc
000000e0: 98c0 113e f179 6abd 9a5d eebd b214 b0bd
000000f0: e4aa 643e c887 723d db45 6a3d 82fc 33bd
00000100: 635e f43d e587 1ebe bec1 863d 90fa b43d
00000110: d5ca 0a3e b396 17be d522 fe3b adb1 54bd
00000120: e2ab f2bd f103 b2bd 0b2b 3fbd 1383 d9bc
00000130: b089 dd3d 650e 033e 0ccb 3e3d f706 283d
00000140: 0c8d 9fbd e87c 333e 8ea7 b03d 101a 073e
00000150: b2f4 033e 444d a43d 8db7 243e 1b76 ed3d
00000160: eeab 0cbb d694 19be cc61 353d ff9c 1f3e
00000170: a4c5 cbbd 0784 953d b959 48be d51f 02bd
00000180: c41a 703e 43a3 073e 8918 7d3e febd 393d
00000190: c3c8 853c b6e1 9e3e 880f 793e 7ece 923d
000001a0: b741 9fbd ee73 813e d175 4dbd 2dd9 aabd
000001b0: 462d 603d 28e1 ce3d 32a4 6a3e 6972 773e
000001c0: 03b6 83bd e59c 173e 0d6b d43d 1cd3 5c3c
000001d0: 6ed1 813e bd08 923d 2a42 983d bc2c af3d
000001e0: 6958 dd3d b2b4 043e 0a22 123e 0e0a 8f3d
000001f0: 9cd0 bb3d e4c9 9fbd 56c4 243e cb24 7b3e

lstm.bias_hh_l0 f4 [128]
0.33666325 0.12558123 0.2520284 0.17999579 -0.09238119 0.39171895 0.1517547 0.08302783
0.14644188 0.08900258 0.1471477 -0.02460023 0.16424155 0.13531297 0.12177921 0.23287249
0.24704356 0.24286182 0.31833896 0.13735965 -0.016712215 0.13006379 0.07398893 0.052112844
0.09524194 0.2300737 0.02034558 0.08264454 -0.0226262 0.24973245 0.009608674 0.21858214
-0.19436388 -0.042001974 -0.009240292 0.23807198 0.10373717 -0.1186395 0.13220252 -0.053523783
0.029044453 -0.07701011 0.1029909 -0.0882328 -0.028336484 0.22932662 -0.21003684 0.18515155
0.20926191 0.1134891 -0.025013644 -0.0027400134 0.09323326 -0.055448104 0.18782318 0.108115755
-0.08027637 -0.10894854 -0.09814381 -0.0552574 0.016060608 0.14761128 -0.024167126 0.007739492
0.05325649 0.09594659 0.07465491 0.11606998 0.09941397 0.09574079 0.20904662 -0.031653322
0.009626533 -0.07970619 -0.08878327 -0.006984305 0.008317402 0.073585875 -0.040018436 0.017191177
0.12970221 0.13856313 0.020631736 -0.00048195472 0.16673611 -0.17444988 0.15247339 -0.117532484
-0.18666035 -0.13510805 -0.08015101 0.14059666 -0.1635105 -0.16829285 0.13264246 -0.072743386
0.121734865 -0.11506999 0.26083955 0.25197884 -0.08229577 0.26316294 0.1759068 0.2949489
-0.055606492 0.17521302 -0.053689767 -0.012091448 0.1448626 0.0774463 0.20482115 0.090177625
0.22838512 -0.019456169 0.23373057 0.16554897 0.11947756 -0.05611258 0.12227498 -0.06070621
0.14627627 0.28273427 0.20780809 0.29825282 0.31674007 0.12633151 0.13603859 0.28187957
00000000: 205f ac3e 5e98 003e de09 813e d150 383e
00000010: 5932 bdbd 638f c83e 9665 1b3e 7f0a aa3d
00000020: dcf4 153e fc46 b63d e3ad 163e 6c86 c9bc
00000030: f02e 283e 7c8f 0a3e 6167 f93d 2076 6e3e
00000040: fdf8 7c3e c5b0 783e 53fd a23e 02a8 0c3e
00000050: 0ee8 88bc 712f 053e 8287 973d 4774 553d
00000060: 350e c33d 7198 6b3e c6ab a63c 8a41 a93d
00000070: 955a b9bc ddb9 7f3e b36d 1d3c ffd3 5f3e
00000080: 5307 47be 430a 2cbd 9864 17bc 24c9 733e
00000090: 2774 d43d 44f9 f2bd 1960 073e c13b 5bbd
000000a0: a2ee ed3c 7ab7 9dbd e5ec d23d 66b3 b4bd
000000b0: ea21 e8bc 99d4 6a3e e613 57be 5e98 3d3e
000000c0: c148 563e f96c e83d 6ae9 ccbc cc91 33bb
000000d0: 14f1 be3d 8d1d 63bd b854 403e cb6b dd3d
000000e0: f067 a4bd 6a20 dfbd 9fff c8bd 9555 62bd
000000f0: 8991 833c 6927 173e 23fa c5bc 919b fd3b
00000100: 7a23 5a3d a57f c43d ace4 983d 19b6 ed3d
00000110: 8d99 cb3d bf13 c43d 5110 563e eaa6 01bd
00000120: 9bb8 1d3c 003d a3bd 01d4 b5bd 99dc e4bb
00000130: b645 083c 31b4 963d 5fea 23bd 83d4 8c3c
00000140: a8d0 043e 7ee3 0d3e e303 a93c deae fcb9
00000150: dfbc 2a3e fda2 32be fc21 1c3e dfb4 f0bd
00000160: e423 3fbe c459 0abe 3626 a4bd 92f8 0f3e
00000170: 4c6f 27be f654 2cbe 6dd3 073e 7cfa 94bd
00000180: 2150 f93d d1a9 ebbd c38c 853e 5f03 813e
00000190: af8a a8bd 4bbd 863e ea20 343e 8b03 973e
000001a0: a2c3 63bd 0b6b 333e cde9 5bbd 351b 46bc
000001b0: dd56 143e 2a9c 9e3d a3bc 513e 0caf b83d
000001c0: cadd 693e 8b62 9fbc 1157 6f3e ab85 293e
000001d0: a7b0 f43d 4ed6 65bd 4e6b fa3d 13a7 78bd
000001e0: 72c9 153e 8cc2 903e a5cb 543e 98b4 983e
000001f0: c12b a23e 0c5d 013e b34d 0b3e 8552 903e

fc.weight f4 [96, 32]
0.15116014 0.37564003 -0.23723127 -0.30258188 -0.3883658 -0.058211055 -0.21749568 -0.15254219
-0.2970127 0.08340226 -0.32707468 -0.25164735 0.21169247 -0.13759266 0.04199952 -0.25145712
-0.30143276 -0.38126382 -0.3345216 0.23497021 -0.2858276 0.15437521 -0.21875793 0.22320844
0.26171538 0.056839954 0.25788856 -0.25972652 0.43620327 0.32926816 0.45216686 -0.3311741
0.4638031 -0.19827794 -0.14107376 0.04252758 0.42391586 -0.66261905 -0.025660306 0.7084002
0.33396012 -0.3316838 0.32318094 -0.2753825 -0.32983294 0.17045541 -0.7771561 0.3864269
0.20681898 -0.93087214 -0.13800672 -0.12444545 0.070896804 -0.35097817 -0.25980064 -0.23736157
-0.18393217 0.3444345 -0.24339199 -0.15205659 -0.56518793 -0.36320162 0.7998072 0.7528649
0.35182026 0.4770884 -0.30450204 -0.06945918 -0.37935698 0.05613826 -0.19175872 -0.27653673
-0.11945616 0.1571333 -0.21684518 -0.25284168 0.35294417 -0.08006919 0.13822678 -0.314458
-0.2444547 -0.2916921 -0.37659833 0.16281545 -0.3245263 0.045980882 -0.34294695 0.3954429
0.2821608 -0.037108175 0.22438419 -0.1701736 0.18448879 0.13186127 0.32846594 -0.12664115
0.31110764 0.32675943 -0.39484948 -0.08344137 -0.36056858 -0.030401925 -0.13205521 -0.0445893
-0.23196189 0.076623835 -0.26952064 -0.35442743 0.11322935 -0.14374919 0.17225736 -0.34954825
-0.15456179 -0.3927382 -0.38490656 0.19582526 -0.42138952 0.13451923 -0.122643255 0.22707984
0.39393586 0.066382855 0.07846084 -0.19940756 0.21839914 0.3272799 0.27861392 -0.2534687
0.17553118 0.46213073 -0.30200204 -0.3075524 -0.12814586 0.13307542 -0.35519662 -0.21127817
-0.28302616 0.11702549 -0.25901607 -0.11313731 0.15478998 -0.1534336 0.25650555 -0.3032451
-0.044739995 -0.24120215 -0.15325654 0.13683341 -0.330125 0.14757161 -0.061716184 0.39932564
0.09379144 0.07226937 0.13938183 -0.2042737 0.29589072 0.29559925 0.30264246 -0.054163236
0.3475059 0.36518005 -0.31241772 -0.28066126 -0.39444113 0.021459127 -0.29470617 -0.03833042
-0.38290754 0.07688251 -0.11743165 -0.29414955 0.16043445 -0.22640559 0.2000465 -0.06255386
-0.33342096 -0.16083024 -0.3709214 0.32540396 -0.1566051 0.102737255 -0.36450595 0.30665085
0.2246899 0.046484195 0.2679542 -0.16163583 0.38327786 0.28191736 0.44748497 -0.10987055
0.3001399 0.27341062 -0.17207167 -0.32817808 -0.12297899 0.022985399 -0.13231355 -0.19273233
-0.18751337 0.38485983 -0.32839122 -0.35321903 0.16123098 -0.12552671 0.15166612 -0.16263852
-0.26800317 -0.13656047 -0.22533575 0.1441237 -0.27971524 0.21499202 -0.24537025 0.15760231
0.14830121 0.004321645 0.37609932 -0.15378113 0.44464594 0.21533051 0.30953422 -0.21907638
0.060478035 0.032123182 -0.14764379 -0.2609079 -0.23619452 0.3702844 -0.03582347 -0.3838539
-0.19771206 0.15945716 -0.2019849 -0.29705375 0.031436723 -0.04414681 0.4709155 -0.39984083
-0.27462694 -0.36952332 -0.10504802 0.07350147 -0.11947001 0.16908607 -0.36839646 0.08859832
0.38444665 0.27407268 0.0919788 0.068082295 0.31349468 0.07445392 0.09012634 -0.16265358
00000000: b9c9 1a3e e453 c03e c1ec 72be 03ec 9abe
00000010: e2d7 c6be b76e 6ebd 30b7 5ebe 0534 1cbe
00000020: 0c12 98be cece aa3d 5576 a7be ecd7 80be
00000030: e9c5 583e 17e5 0cbe b007 2c3d fdbe 80be
00000040: 6555 9abe 0335 c3be 6a46 abbe 089c 703e
00000050: ff57 92be 8914 1e3e 1402 60be c190 643e
00000060: 8fff 853e 03d1 683d f809 843e e0fa 84be
00000070: 0956 df3e d695 a83e 6a82 e73e a78f a9be
00000080: 9a77 ed3e 5f09 4bbe a475 10be 6631 2e3d
00000090: 800b d93e 67a1 29bf 9035 d2bc b759 353f
000000a0: d2fc aa3e 76d2 a9be f977 a53e effe 8cbe
000000b0: dddf a8be dd8b 2e3e b4f3 46bf bfd9 c53e
000000c0: 5bc8 533e a34d 6ebf a251 0dbe 42dd febd
000000d0: 5832 913d 69b3 b3be 9704 85be e90e 73be
000000e0: b758 3cbe b859 b03e c03b 79be b9b4 1bbe
000000f0: 28b0 10bf 90f5 b9be 2ac0 4c3f c1bb 403f
00000100: c921 b43e ee44 f43e b1e7 9bbe 9d40 8ebd
00000110: 143b c2be 3bf1 653d 665c 44be 3996 8dbe
00000120: 6ea5 f4bd 8de7 203e aa0c 5ebe 7774 81be
00000130: 19b5 b43e 51fb a3bd 528b 0d3e a400 a1be
00000140: 5552 7abe ab58 95be 7fd1 c0be 18b9 263e
00000150: 5028 a6be 7356 3c3d be96 afbe 7e77 ca3e
00000160: 6177 903e befe 17bd f8c4 653e fd41 2ebe
00000170: a1ea 3c3e a406 073e b02c a83e 38ae 01be
00000180: 8049 9f3e 034d a73e b629 cabe 4fe3 aabd
00000190: 729c b8be 750d f9bc 7b39 07be 45a3 36bd
000001a0: 6b87 6dbe f5ec 9c3d 9cfe 89be 8377 b5be
000001b0: cae4 e73d fd32 13be 3c64 303e fdf7 b2be
000001c0: 7245 1ebe fb14 c9be 7912 c5be 6b86 483e
000001d0: 5ec0 d7be 69bf 093e 632c fbbd 9e87 683e
000001e0: f6b1 c93e bcf3 873d 14b0 a03d 7f31 4cbe
000001f0: 06a4 5f3e 3b91 a73e 7ca6 8e3e a6c6 81be
00000200: 72be 333e 669c ec3e 03a0 9abe 8277 9dbe
00000210: ab38 03be ec44 083e 55dc b5be 4e59 58be
00000220: cee8 90be 0fab ef3d c19d 84be 89b4 e7bd
00000230: 4481 1e3e b31d 1dbe b254 833e f142 9bbe
00000240: 4941 37bd b2fd 76be 48ef 1cbe 0f1e 0c3e
00000250: 2506 a9be 031d 173e 1cca 7cbd 6974 cc3e
00000260: ba15 c03d f701 943d 1cba 0e3e 202d 51be
00000270: fd7e 973e c958 973e f4f3 9a3e 45da 5dbd
00000280: 4bec b13e e1f8 ba3e 37f5 9fbe d5b2 8fbe
00000290: 30f4 c9be 0dcb af3c bae3 96be 5c00 1dbd
000002a0: 750c c4be 9474 9d3d 0180 f0bd c59a 96be
000002b0: ee48 243e ded6 67be fdd8 4c3e 3d1c 80bd
000002c0: 27b6 aabe afb0 24be 69e9 bdbe 599b a63e
000002d0: 165d 20be e967 d23d 86a0 babe 5701 9d3e
000002e0: 1c15 663e 3666 3e3d 4b31 893e dd83 25be
000002f0: ff3c c43e 7957 903e c01c e53e d003 e1bd
00000300: f0ab 993e 7afc 8b3e 8e33 30be f506 a8be
00000310: 69dc fbbd e04b bc3c 347d 07be a05b 45be
00000320: 8103 40be 590c c53e e522 a8be 20d9 b4be
00000330: bc19 253e 138a 00be 5d4e 1b3e b68a 26be
00000340: b637 89be 82d6 0bbe 6abe 66be 2a95 133e
00000350: d636 8fbe de26 5c3e 5742 7bbe 8062 213e
00000360: 46dc 173e 969c 8d3b 1790 c03e cd78 1dbe
00000370: a2a8 e33e 9a7f 5c3e 457b 9e3e 8f55 60be
00000380: d1b7 773d 9993 033d ef2f 17be b895 85be
00000390: fadc 71be eb95 bd3e a2bb 12bd 8088 c4be
000003a0: 0875 4abe bd48 233e 21d5 4ebe 6e17 98be
000003b0: cbc3 003d 49d3 34bd d61b f13e f0b7 ccbe
000003c0: e79b 8cbe 2932 bdbe 6b23 d7bd f087 963d
000003d0: b1ac f4bd e624 2d3e 769e bcbe 0973 b53d
000003e0: 31d6 c43e 4153 8c3e 625f bc3d bb6e 8b3d
000003f0: 6082 a03e 4c7b 983d 2994 b83d a98e 26be

fc.bias f4 [96]
-0.23554611 0.23489301 -0.11751358 -0.28300697 -0.20423044 -0.33713764 -0.070183516 -0.10275143
-0.033073355 -0.009798632 -0.31546953 -0.3549207 -0.18598038 -0.030211048 -0.050604284 -0.41941166
-0.21698673 -0.2319734 -0.16489713 -0.24332735 -0.29100505 -0.11564122 -0.065722056 -0.20939918
-0.033471856 -0.3177911 -0.26906028 -0.32802165 -0.008460346 -0.32039142 -0.044438772 -0.23020667
-0.11520419 -0.01827753 -0.1346072 -0.32318938 -0.20402469 -0.018645832 -0.28498295 -0.14305066
-0.3115689 -0.049390834 -0.099790595 -0.0161088 0.02127028 -0.10725617 0.08080216 -0.23183763
-0.06728005 -0.13493763 -0.05522747 -0.28033912 0.2344963 0.110780194 -0.3118399 -0.1975865
0.12606913 -0.33335972 -0.17045727 -0.30528152 -0.100411855 -0.2623054 -0.23492192 -0.18081485
0.003960661 -0.3025605 0.13586901 0.1103752 0.10556596 0.026431318 0.2540297 0.25518265
0.0014555625 0.21163899 0.2222786 0.1375468 0.026906118 0.033839058 0.116027795 -0.008997925
0.3021566 0.22182056 -0.113915876 0.05693229 0.16431108 0.09931008 0.0034078816 -0.15380904
0.25029215 -0.1716433 0.19961393 0.026451465 -0.17957541 -0.021630086 -0.08700061 -0.31466457
00000000: 0033 71be cb87 703e f6aa f0bd 4ae6 90be
00000010: c921 51be 4e9d acbe 60bc 8fbd 576f d2bd
00000020: ed77 07bd 718a 20bc 3985 a1be 2ab8 b5be
00000030: a471 3ebe 297d f7bc 7046 4fbd 20bd d6be
00000040: c531 5ebe 6f8a 6dbe cbda 28be ce2a 79be
00000050: 9dfe 94be 4ed5 ecbd 4999 86bd bd6c 56be
00000060: c919 09bd 84b5 a2be 45c2 89be 74f2 a7be
00000070: 439d 0abc 580a a4be 6e05 36bd 4cbb 6bbe
00000080: 2df0 ebbd c2ba 95bc 78d6 09be 1479 a5be
00000090: d9eb 50be 25bf 98bc 49e9 91be df7b 12be
000000a0: f585 9fbe 0b4e 4abd 035f ccbd 9af6 83bc
000000b0: 033f ae3c 1fa9 dbbd 9a7b a53d d866 6dbe
000000c0: 1fca 89bd 172d 0abe 3336 62bd 9c88 8fbe
000000d0: cc1f 703e bae0 e23d 7ba9 9fbe 1e54 4abe
000000e0: 4418 013e 20ae aabe 5a8c 2ebe dc4d 9cbe
000000f0: bba4 cdbd e54c 86be 5f8f 70be 8727 39be
00000100: 6fc8 813b 36e9 9abe 3f21 0b3e 650c e23d
00000110: f732 d83d 7e86 d83c 2e10 823e 4da7 823e
00000120: 93c8 be3a e4b7 583e 009d 633e 11d9 0c3e
00000130: 386a dc3c d39a 0a3d fb9f ed3d 086c 13bc
00000140: 45b4 9a3e ee24 633e ba4c e9bd d531 693d
00000150: 2a41 283e 1563 cb3d c456 5f3b 1e80 1dbe
00000160: 4b26 803e 43c3 2fbe 9867 4c3e beb0 d83c
00000170: 9ee2 37be 9431 b1bc 602d b2bd b71b a1be
