checkpoints_qa/sum_tok_ner_epoch_5.pt (torch, 262893 bytes, 7 tensors)

embedding.weight f4 [96, 256]
00000000: be6e 97be c894 78bf c1ed 95bf 60d8 08c0
00000010: f8a2 15be cb83 0e3f 50a8 d0bf b2c0 c3bf
00000020: 797b 05bf de90 813f fee2 c23f dce9 3bbf
00000030: 7d8d 7b3e 6670 363e e52b 733f eb59 15c0
00000040: 89e7 8dbf b6aa 81be 32b5 8ebe 1e08 633f
00000050: 43e4 d83e 78ef ccbc 97b1 5d3f 981e 3fbf
00000060: 7777 bcbe e3ae 4cbf a419 953e 92d6 7abf
00000070: cfd6 dc3e ff7e aa3f e18a 33bf 80fe b23e
00000080: f199 2a3f e665 cf3f 9733 65be 6dba babf
00000090: effd 833f 611c cabf c535 fe3e 6631 7f3f
000000a0: 907b 85bd cdc4 8ebe 13de 473f e2f3 633f
000000b0: a9ab d2bf c254 cdbe 27d7 40bf 3baf 00c0
000000c0: 92cb 463f 781e da3c dc9c b13e 71ab 273f
000000d0: fbfa f73f 824f b33f cbfd 70bf 1923 2ebf
000000e0: c4b4 cbbf 8cfd 673e 9612 0cbf 66f6 7d3f
000000f0: ae90 a5be 0305 13c0 809d 96bf 65d8 5a3f
00000100: ed98 d43e f890 c23f f1a4 78be 8c72 0940
00000110: fe31 383f e34a aebf d3ee 453f e16f 07c0
00000120: 9b32 c6bf 3a4d b6bf d04d 9ebf 655f f73f
00000130: 6f45 853e 2576 89bf 1f47 cbbf 15e6 08bf
00000140: 2a83 99be bb10 863f d188 ffbd f3ee 053f
00000150: 0abd e23f 281a e6be 36fa 2a3d aaef f0bf
00000160: 9f1a 21bf 9fff a93f b93c 81bf d1cd 66bd
00000170: cc7a 88bf d994 8c3e 4eec 71bf 178b 82bf
00000180: 250d d4be 22c1 f03f 0453 5dbe 1759 813f
00000190: ed76 00bf b2d2 b93e 8c73 b1bf d240 5e3e
000001a0: 7144 4a3f 88f7 09c0 afc7 a6be 3f15 d53e
000001b0: ecd2 fcbe 3ead 843e 1b1e 9ebf 8870 03c0
000001c0: c03d ae3d b6f4 02bf a61f b03f afaf d6be
000001d0: 3316 d3bf e509 ef3e 0462 e73f f132 013f
000001e0: b989 903e d18d 67bf e04c e53d 3706 6d3f
000001f0: a001 833e eac4 8abf b008 933f c1b5 f6be
00000200: 1d89 a23e fa14 a1be a1aa 653e 5a6a 123f
00000210: 052a 12bf 87fe 0a3e 88d5 16bf 9f9b 643f
00000220: 5574 44bf 3d53 7fbf d885 303e cde5 febe
00000230: 9b56 573f 883d 1dbf 5d20 a33f 2ec3 f8be
00000240: 958e 18bf eb06 963f 8138 2cbf 8b88 4a3f
00000250: 9ca8 61be 764a 163e 2c6d 413e 1777 5ebf
00000260: c3e1 ba3f afd6 383d 21d8 b53f a08f d2be
00000270: 67d8 103f dd0d 313f f0e7 cf3f 3f65 533f
00000280: 8fa1 b7bf 0ae3 b1be 16e1 2ebe 1927 0ac0
00000290: 8e03 98bd 0acb 14bf 8cec 833f 18a6 173f
000002a0: 4487 12bf e37a 96bf ad37 0f3f 8a5d 463e
000002b0: 0251 503f 556b 6e3d d536 99bf c9ee 33bf
000002c0: b39e 0cc0 b3d0 693e 13d5 9fbf 3ca9 9b3f
000002d0: 85e4 473f e4ef dbbf bb2a a93f 6dff e23e
000002e0: d0d6 6a3f a977 3c3d 0980 a8bf cbb7 08bf
000002f0: 750f 1c40 ad48 d23d 306a 523e 322e b83f
00000300: 1226 c5bf e1ba 063f ebb2 80bd e7f1 953f
00000310: 07ca f43e e504 7ebd 6c16 c4bf 10a0 13bf
00000320: dfbf 503e ddd8 423f bc25 8a3e f10b 9c3e
00000330: fb22 9d3e 4f27 26be 8fa8 2f3f 8401 953f
00000340: 18f4 2c3e a400 66bf 8f78 d5be 8d11 543e
00000350: 548c 0f3f 67b2 f1be 59b3 353f ac73 be3f
00000360: c745 d53e c53d 1f3f 39c9 f93e fa5b 9a3e
00000370: 3a8c 03c0 bb3b 0fbe f95c 92bf c546 31bf
00000380: 8d5e e4bf 5b7d b53e c22c 76bf 10f7 33bf
00000390: 2ade 643e b8f3 79bf 191d 803e d608 3a40
000003a0: 8937 3b3e 39b8 023f da73 5e3e 70a6 db3b
000003b0: 3336 d43f 9811 e9bd de54 d43f cd98 563e
000003c0: 4e41 0dc0 bc4b 39bf 34ba b73e e0e9 0c3f
000003d0: bdec 1f3e cd0f 4fbf e6c8 b8be 272f 1abf
000003e0: e719 843e b46a 443f 70bb a23e aacc b6bd
000003f0: 3804 adbe e0ce 8dbf dc52 bfbe 5ea2 713f
-0.29576677 -0.9710202 -1.1713182 -2.1382065 -0.14612949 0.5566985 -1.6301365 -1.5293181
-0.5214153 1.0122335 1.5225523 -0.73403716 0.24565692 0.17816314 0.9498885 -2.3336132
-1.1086284 -0.25325555 -0.27872616 0.8868426 0.4236165 -0.025016531 0.86599106 -0.7465606
-0.36809894 -0.79954356 0.29121125 -0.9798366 0.43132636 1.3320006 -0.7013379 0.34959793
0.66641146 1.6202972 -0.22382961 -1.4588143 1.0311869 -1.578991 0.49650398 0.9968475
-0.06517708 -0.27884522 0.78073233 0.8904401 -1.6458637 -0.40103728 -0.75328296 -2.0106952
0.77654374 0.026625857 0.34689987 0.65495974 1.9373468 1.4008639 -0.9413726 -0.68022305
-1.591454 0.22655314 -0.5471586 0.992041 -0.32336944 -2.297181 -1.1766815 0.8548644
0.41522923 1.5200491 -0.2428167 2.1476164 0.7195128 -1.3616604 0.7731754 -2.1162035
-1.5484194 -1.4242318 -1.2367496 1.9325987 0.26029536 -1.073918 -1.588108 -0.5347608
-0.29982883 1.0473856 -0.124772675 0.5231773 1.771394 -0.4494183 0.041742526 -1.882314
-0.62931246 1.3281134 -1.0096656 -0.056348626 -1.0662475 0.27457312 -0.945012 -1.0198697
-0.41416278 1.880894 -0.21613699 1.0105313 -0.50181466 0.3629356 -1.3863387 0.21704414
0.79010683 -2.155733 -0.32574221 0.41617772 -0.4937967 0.25913423 -1.2352937 -2.0537434
0.08507872 -0.5115465 1.3759658 -0.4193091 -1.649115 0.46687236 1.8076787 0.50468355
0.28230074 -0.9045077 0.11196303 0.9258761 0.25587177 -1.0841343 1.1487026 -0.48185542
0.31745234 -0.31461316 0.22428371 0.5719353 -0.57095367 0.13573657 -0.5891957 0.8929996
-0.7674001 -0.99736387 0.17238557 -0.497847 0.84116524 -0.61422014 1.2744251 -0.4858641
-0.5959256 1.1720861 -0.6727372 0.791146 -0.22036976 0.14676842 0.18889302 -0.86900467
1.4600147 0.045126613 1.4206582 -0.41125202 0.56580204 0.6916178 1.6242657 0.82576364
-1.4346179 -0.3474353 -0.17078051 -2.1586363 -0.07422553 -0.58122313 1.0306563 0.59237814
-0.5723765 -1.1756252 0.5594433 0.1937162 0.8137361 0.05820783 -1.1969858 -0.7028623
-2.1971862 0.22833519 -1.24869 1.2161021 0.7808307 -1.7182584 1.3216165 0.443355
0.9173403 0.046012554 -1.3164073 -0.53405446 2.4384434 0.10267768 0.2054832 1.4389098
-1.5402243 0.52628905 -0.06284126 1.1714448 0.47810385 -0.062016387 -1.5319343 -0.5766611
0.20385693 0.7611216 0.26981914 0.3047786 0.3069075 -0.16225933 0.68616575 1.1641088
0.1688999 -0.8984473 -0.4169354 0.2070982 0.560735 -0.47206423 0.7097679 1.487905
0.41654798 0.6220363 0.48786333 0.30148298 -2.0554338 -0.13987629 -1.1434623 -0.6924861
-1.7841355 0.354472 -0.96162045 -0.7029886 0.22350374 -0.9763751 0.250222 2.9067893
0.18282904 0.5106235 0.21723881 0.0067031905 1.657904 -0.11380309 1.65884 0.20956726
-2.207111 -0.72381186 0.3588425 0.55044365 0.15617652 -0.80883485 -0.36090773 -0.602282
0.25801012 0.76725316 0.31783628 -0.08925755 -0.3379228 -1.1078758 -0.37367904 0.9438838

lstm.weight_ih_l0 f4 [128, 256]
00000000: 2f35 423e 3f52 58bb e643 113d a752 193d
00000010: a049 453d a07e c43d f83d 0a3e b7cd 223b
00000020: 63b7 143e 5b1c eb3d 8340 323d 3f1b c8bc
00000030: b3c1 913d def5 e83d 3469 953d 9b44 453c
00000040: 22b3 5d3d 2d21 ab3d 657f 98be 880a c43c
00000050: 559e b7bc 48d9 883d 368c 683e d200 9eba
00000060: dcde 9e3e 807a 883d 9034 a83d 159e 88bd
00000070: 88f0 c73c 5976 ffbd fb60 193e 688d 10be
00000080: d7bb 1abe cb8e 873b 985d 073e 1343 203e
00000090: d344 003e 3d20 1c3e 9e4b 42be c05b f23d
000000a0: 7a9a 49bd 73aa 923d 355b 163e dc56 123d
000000b0: c810 773d 7155 0b3e df3a fd3d 222d 1f3e
000000c0: 53a5 8b39 8e05 a9bd 99a2 af3d f2de aabd
000000d0: e006 323e fcd3 75bd 871d 52be 6da2 95bb
000000e0: 078e 13be b5f7 13be c617 30be 330f 56bd
000000f0: 29ce 9bbd dc1c 6ebc fad0 8abe c633 80be
00000100: bb67 72be 709d a83d 28ff e6bd 6c5b 973d
00000110: a619 50bd 7c54 36be 534a aa3c a9ce 5bbd
00000120: 84f5 773e 8cbe 3c3b c2d7 963d 8e4a cdbd
00000130: a71d 6f3d 6a9a 273e 05de bcbd d1e9 cabd
00000140: db79 e93d ce0d a6bd 1c9f a0ba 5179 683e
00000150: ba02 06be e5ab c2bc 7a68 583e 59e4 12be
00000160: 423e edbd 809a 993d cb33 bd3d 2ad2 f23d
00000170: d82c 1cbd ddc1 373e 2451 ac3d 69f2 9bbd
00000180: dcde 4bbd 4a1c a63c 74f1 d0bd 6fe1 303d
00000190: fdf5 d23c 0227 0b3e ba58 543e ebfb 42be
000001a0: 839b 8dbd 0b54 55bd 089d 873e 97da bb3b
000001b0: 575e 023e 77fa d3bd dd92 44bd 6aab 55be
000001c0: e134 443e 34ea a5bd b7f6 53be 4526 373d
000001d0: 78d6 fa3c 068d ad3d 6406 483d 6f95 bfba
000001e0: 494d 5c3e 4876 203e 1136 b93c 6fb0 883c
000001f0: 7617 1ebd 3cc1 fcbd 4028 4dbd 4fad 803c
00000200: 7515 dfbd b490 1bbd 1bbd a6bd a21c ea3d
00000210: cabf 79bd 964c 0a3d a57e 0d3e d92c 9d3e
00000220: f3d4 593e 4580 4ebd 9aed 913d 8fa6 8fbd
00000230: f65d 6abc c0bc 823e ae69 4a3e a021 c43d
00000240: 10b3 793d e2cc 89be d030 f0bc 72dd d63d
00000250: 7334 9e3e 7bec 313e 4a96 083b 9b5f bcbc
00000260: 5d6a 2dbe 1182 4c3e 1514 373e 1c11 babd
00000270: ca5a 80be 635b f43d bc54 2cbe 6fce 5e3e
00000280: 3c4a 10bd 79d6 1fbd 9d03 a53d 3813 733e
00000290: 5f0e 1abe b71a 6ebe 8859 9abd 2bb6 a13d
000002a0: 0954 073d c366 2d3e 8540 30be a219 a8bd
000002b0: 0fd5 643d 90a7 1dbe aa94 903c 93bd 00be
000002c0: f417 20be fde8 83be f3d3 513e 624b 20be
000002d0: 8df6 49be 50c1 9ebd 0b73 08bd d08a 473e
000002e0: 031d 553c cbeb 523d 971e b0bd 0dd8 bd3c
000002f0: 354c 28bd 2f35 4ebd 37d8 babd 2acf d33d
00000300: 8cc9 063d 0934 133e 6652 5f3d 34b3 7c3e
00000310: 9ddc 083e 93b2 4fbe 911b 293e 00c7 abbd
00000320: fb7a 1e3d 559f 063d e380 6fbe b72f 1ebe
00000330: ccf0 2cbe bf3f babc 9661 10bd 34d9 2c3e
00000340: 776d 123e 073d 643d 9eac 71be 7688 663c
00000350: cb3e 363e c817 4dbe 442f 2abe ed0d 3d3e
00000360: 2391 1c3d 3446 483e 785d 9e3d 7196 f13c
00000370: 1595 afbd e561 87be af4a 1abd 0654 043e
00000380: ed1d 2f3e d52d 983c 0855 d0bb 4c47 a73d
00000390: 47b8 3bbe b51f 3e3e 3149 ec3d 0179 b7bc
000003a0: 22da d6bc a9e2 99bd 3497 9e3d e733 a53d
000003b0: 594d f03d 0782 4abe b371 353e d30c 90bd
000003c0: 1ce1 843d a97e d7bd 6701 a53c cc61 5bbe
000003d0: 4fc8 263e 8416 69bd d200 c53c b2a7 d23d
000003e0: 64a3 5cbe e31c bfbc 93d0 763d 6a3e 0b3d
000003f0: 85d9 ab3d c8e0 a9bd 5c95 8bbd a846 edbc
0.189656 -0.0033008007 0.035465144 0.03743234 0.048165917 0.09594464 0.13500202 0.0024841854
0.14523081 0.11480018 0.043518554 -0.024427054 0.07117023 0.113750204 0.072954565 0.012040283
0.054125912 0.08355937 -0.29784694 0.023930803 -0.022414366 0.06682068 0.22709736 -0.0012054688
0.31029403 0.0666399 0.082131505 -0.06670777 0.024406686 -0.12473745 0.14978401 -0.14116442
-0.15110718 0.0041368953 0.13219297 0.15650587 0.12526254 0.15246673 -0.18974158 0.11833906
-0.049219586 0.07161417 0.1468323 0.035727367 0.06031874 0.13606812 0.123647444 0.1554456
0.00026635322 -0.082530126 0.08575935 -0.08343305 0.17385435 -0.060016617 -0.20519076 -0.004566482
-0.14409648 -0.14449961 -0.17196569 -0.05226059 -0.07607681 -0.014533248 -0.2711256 -0.250395
-0.23672383 0.08233154 -0.11279136 0.07390484 -0.05080571 -0.17805666 0.020787394 -0.053663883
0.2421475 0.0028800098 0.07365371 -0.10023986 0.058377888 0.16367498 -0.09222034 -0.09907878
0.11400195 -0.08108102 -0.001225445 0.22702529 -0.13086978 -0.023763606 0.21133605 -0.1434492
-0.1158414 0.07500172 0.09238394 0.11856492 -0.038128704 0.17945047 0.08413914 -0.076145954
-0.049773082 0.020277161 -0.102023035 0.04318374 0.025752062 0.13589099 0.20736971 -0.19041412
-0.06914427 -0.052082103 0.26486993 0.005732845 0.127313 -0.10350507 -0.047991622 -0.2086617
0.19160797 -0.08101311 -0.20699583 0.04471423 0.030619845 0.08474164 0.04883422 -0.0014616678
0.21513857 0.1567012 0.022608789 0.016685693 -0.038596593 -0.12341544 -0.050087214 0.01570764
-0.108927645 -0.037979797 -0.08141538 0.114312425 -0.06097392 0.033764444 0.13817842 0.3069828
0.2127264 -0.050415296 0.07125397 -0.070141904 -0.014304629 0.2553463 0.19766876 0.09576726
0.060961783 -0.26914126 -0.02932015 0.10491456 0.3089939 0.17375366 0.0020841532 -0.022994807
-0.16935106 0.19971491 0.17878754 -0.090852946 -0.25069267 0.11931493 -0.16829199 0.21758436
-0.035227045 -0.039022896 0.0805733 0.237378 -0.15044545 -0.23252378 -0.07536608 0.07896074
0.033039127 0.16933732 -0.17212112 -0.08208014 0.05586725 -0.15395951 0.017649014 -0.12572317
-0.15634137 -0.25763693 0.20491008 -0.15653756 -0.19722958 -0.07751715 -0.03331284 0.19486547
0.013007405 0.0514944 -0.085995845 0.02317431 -0.0410883 -0.05034369 -0.09123271 0.10342248
0.032907054 0.14375319 0.05452194 0.24677736 0.13365407 -0.20282964 0.16514422 -0.083875656
0.038691502 0.032866795 -0.2338901 -0.1544789 -0.16888732 -0.022735475 -0.035249315 0.16879731
0.1429957 0.055722263 -0.23601004 0.014070621 0.17797391 -0.20028603 -0.16619593 0.18462344
0.03822435 0.1955803 0.077326715 0.029490681 -0.08573357 -0.26441875 -0.03766888 0.12922677
0.1710126 0.018576542 -0.0063577928 0.08167896 -0.18332015 0.18566783 0.11537398 -0.022396566
-0.02622706 -0.07513935 0.077436835 0.0806654 0.11733503 -0.19776164 0.17719154 -0.07033696
0.06488249 -0.105222054 0.02014227 -0.21424025 0.16287349 -0.05690624 0.024048243 0.102858916
-0.21546704 -0.023329204 0.060257506 0.03399507 0.08391098 -0.08294827 -0.068155974 -0.028964356

lstm.weight_hh_l0 f4 [128, 32]
00000000: 06a2 a23e ee10 9cbe 9e3e 85bc 4a40 b4bb
00000010: 6402 043f 280e 293f f4b5 8a3e 436a 763e
00000020: f2d0 2d3e b111 3abf 6b8f d1bd 4ed2 1a3d
00000030: cfb9 54bb d693 6b3d ee29 c9bd 0035 943e
00000040: 06b4 41be 2b30 2f3e c6fa e23e 7f5e ebbe
00000050: f6c4 f03e 0b89 c6be 0a2d f1bd 3cf0 7dbd
00000060: 887f b4bd 60d4 643e 86d3 033e 15b4 41be
00000070: e9d6 17be 693a 1fbf 53d6 e9bd 832c 16bf
00000080: deb4 303e 991e 8ebe dd18 e73d cdaf 1c3e
00000090: 7ccd 21bc 06cb 2a3e 8c0f 773e 5491 583d
000000a0: 9b51 5c3e 671e 853c df71 ba3d ec84 29be
000000b0: 3f99 25be 2d42 c03e a633 e6be bd3d bd3d
000000c0: 482b 1f3d 1577 e23d e9f9 153f dc28 e9bd
000000d0: 12e9 9e3e f00d 07bd 2673 8c3c 9279 a0be
000000e0: c1d8 4a3e 3064 f3be 208d 1cbc 37c2 7d3e
000000f0: 1e62 2abb 2e1b 14bd bf74 273e a5b9 7bbd
00000100: fd99 77be da3f c0be c04d 9ebe f8f6 f23d
00000110: 8f2b 003e 2f89 5f3f cd59 8f3e 8423 fbbb
00000120: d76b 173d acfd a9be 3d82 7f3d eed3 633e
00000130: b3b7 01bf 6930 c8bd f950 46bd 244f 60be
00000140: cfdc 0b3e 191d 0b3e 3d5b d53d 7d29 f3be
00000150: 4d3d f93e 7087 68be fe2f 043e c976 d1be
00000160: 0de5 17be c1c3 c43e a61e 9ebe eada 95bd
00000170: c095 70be d756 44be 152d 91be fa1b 8cbe
00000180: c10f 013e 6458 be3b e5b2 003f de59 0fbe
00000190: a762 8f3b 8fe1 f03e 1166 a33e fe0e 95be
000001a0: daba 4dbc 8e6b bdbd 9abc 27be 5b69 9f3d
000001b0: 76fd 6fbd 1ae1 893d cf49 dabd b146 51be
000001c0: 3c12 853d ad2c 413e 83a9 90be 51d9 a83e
000001d0: f1e5 293e 7f73 2b3e 7bef 0abe 3752 803d
000001e0: ec78 4d3c 9a08 253e 4362 e2be 3075 bd3e
000001f0: 566e e1bd 46b2 37be fca8 9cbe cbdc 8e3e
00000200: 59ee a43d a368 83bb dfca 2d3e 5566 2a3e
00000210: fd85 94bc cc04 05be 045b c7bd e950 12bd
00000220: edc2 bfbd 2db0 5ebe d0c6 1c3e 35a5 b13d
00000230: 9bf6 5bbe d6af 98bb 1015 b5bd bbd5 343e
00000240: 3b64 f03d 7232 143e d0eb 10bd a02d 4abe
00000250: ecce 5d3e e18f 253d 98a9 ab3b 4697 0cbd
00000260: 4983 c3bd 9525 82bc f7b7 b1bd fb70 f43d
00000270: 5035 223d 8c69 b9bc b7b3 113d def5 993d
00000280: 7623 dabe 6830 90be 2b9c 843e 90fb 6b3e
00000290: 0a26 903e af58 c8bd 7586 c13d 480e 293e
000002a0: dea3 c13e 1d84 13be b9bf 843e 41da 853e
000002b0: 5d21 b9be 97b3 c73e 6398 f9bd 6259 12bd
000002c0: b730 d93e bb70 4d3e 6f5f 9c3e bcb8 adbe
000002d0: ba1f 6b3e a75f bfbe a2be 4d3e 9b16 40be
000002e0: 5ef8 83bd d90d 3e3e 5a45 64be 9988 ef3d
000002f0: abca 8ebe 7c8b 08be 8078 68bd cfc9 a53e
00000300: 24e6 d2bd dd4d 55be 6e9f 0d3e d1dd e43d
00000310: a718 9d3e a129 82be 5db5 883d cdca e43d
00000320: 41ec 023e ef80 943d 5339 7e3d bd2d 53bd
00000330: 1a8e 94bd e4bd be3c 32ab 4fbe 8bae 08be
00000340: cea3 8e3e 8773 9a3e 1fea 893e 39fd bd3c
00000350: 9a79 a63d c4ff 2fbe 5ef7 ae3c 83eb 81bd
00000360: 557b 683d 23b2 82be 30d3 d1bc 6fb9 07bc
00000370: 2133 0bbe e4cf 45be 0f36 babd 5f9d f4bc
00000380: e39c 4fbd a6cf a1bd 8fd9 acbd eb51 f03e
00000390: 1d86 143e 713d 09bf d9ae 013f 8b82 143f
000003a0: e5e2 8c3e b76d cbbd 3bed 213e 7acc 023e
000003b0: 6661 213e 8d83 153f 28d8 a0be 9ed1 4d3f
000003c0: b250 b63e 051e d53e 5643 373e 1405 1bbd
000003d0: f141 253b 777a ffbc 0bd6 e03d 3e75 2abe
000003e0: 7dcb 5bbe 1d42 2bbf 06e8 57bd b289 5b3e
000003f0: 2e59 64bf 6a69 223e d819 3c3e c453 313f
0.3176424 -0.30481666 -0.01626521 -0.005500828 0.5156615 0.66037226 0.27091944 0.24063973
0.16974238 -0.72683245 -0.10232433 0.03779822 -0.0032459383 0.057514034 -0.098224506 0.28946686
-0.1891633 0.17108218 0.4433195 -0.45970532 0.4702527 -0.3877643 -0.11776169 -0.061996683
-0.08813387 0.2234664 0.12873659 -0.18916352 -0.14828075 -0.621985 -0.11417832 -0.5866167
0.17256495 -0.2775772 0.11284039 0.15301438 -0.009875651 0.1667901 0.24127024 0.05287297
0.21515505 0.016249849 0.091037504 -0.16554612 -0.1617174 0.37550488 -0.4496128 0.09240291
0.038859636 0.11057869 0.5858446 -0.113847464 0.31037194 -0.032972276 0.01714475 -0.3134275
0.19809248 -0.47537374 -0.009555131 0.24781118 -0.0025998424 -0.036158733 0.16353129 -0.06145634
-0.24179836 -0.37548715 -0.30918694 0.11863512 0.12516616 0.873187 0.279982 -0.007664146
0.03696808 -0.3320135 0.062380064 0.22248814 -0.5067093 -0.097748585 -0.048417065 -0.2190519
0.1365845 0.13585319 0.10417793 -0.4749259 0.4867958 -0.22707915 0.12908933 -0.40910938
-0.1483347 0.38430598 -0.30882758 -0.07317145 -0.23494625 -0.19173752 -0.28354707 -0.27365094
0.12603666 0.005808877 0.5027297 -0.13999125 0.004375774 0.47047088 0.31913808 -0.29113
-0.012556756 -0.0924903 -0.1638054 0.07783767 -0.05859133 0.06732388 -0.10658609 -0.20437123
0.064976186 0.18864699 -0.28254327 0.329783 0.16591622 0.16743277 -0.13567917 0.06265681
0.012541037 0.16116562 -0.44215593 0.3700347 -0.11007373 -0.179391 -0.30597675 0.27902827
0.08053274 -0.0040102764 0.1697192 0.16640599 -0.018130297 -0.12990111 -0.09734157 -0.035721693
-0.09363351 -0.21746893 0.15310216 0.08674089 -0.21480791 -0.004659633 -0.08841908 0.17659657
0.117378674 0.14472368 -0.03538114 -0.19743967 0.21660966 0.040420417 0.005238723 -0.034323953
-0.09546525 -0.015887061 -0.08677667 0.11935612 0.039601624 -0.022633336 0.03557178 0.075175986
-0.4260518 -0.2816193 0.25900397 0.23045182 0.28154022 -0.0978254 0.09449474 0.16509354
0.37820333 -0.14405866 0.25927523 0.26143077 -0.36158267 0.39004204 -0.121872686 -0.035729773
0.4241998 0.20062535 0.3054156 -0.33930004 0.22961321 -0.37377664 0.20092252 -0.18758623
-0.06443857 0.1855997 -0.2229208 0.11695976 -0.27888998 -0.13334459 -0.056755543 0.3238053
-0.10297802 -0.20830484 0.13830349 0.111751206 0.3068287 -0.25422385 0.06675217 0.11171494
0.12785436 0.07251155 0.062066387 -0.05155729 -0.07253666 0.023283906 -0.2028015 -0.13347833
0.27859348 0.30166265 0.26936433 0.023192035 0.081286624 -0.1718741 0.021358188 -0.063437484
0.056758244 -0.25526533 -0.025613397 -0.008283957 -0.13593723 -0.19317585 -0.09092342 -0.029860197
-0.05068673 -0.07900934 -0.084399335 0.46937498 0.14504285 -0.5360938 0.5065742 0.5801169
0.27516857 -0.09933036 0.15813152 0.12773314 0.15759811 0.58403856 -0.31414914 0.80397975
0.3560844 0.41624466 0.1789678 -0.03784664 0.0025216306 -0.031186325 0.109783255 -0.16646287
-0.21464343 -0.66897756 -0.05271151 0.21439245 -0.8919858 0.15860525 0.18369234 0.6926844

lstm.bias_ih_l0 f4 [128]
00000000: f19e 143e db90 373e bad9 323d 7bda 763d
00000010: d727 0f3d 9c45 9c3e d86d 003e 8135 bc3e
00000020: f7ae 4e3e 5c03 0c3e f154 be3b 3bf4 0c3e
00000030: bd70 91bd 0de9 583e e45d 733e 198f 3b3e
00000040: a6a1 f03d 1b5a d13d 5a83 783d 755e 92bc
00000050: aa91 b03d f724 c9bd 59c7 e23c 952e cc3d
00000060: e7f0 8b3e 0aaf cc3d f2f3 643b a5bc a13e
00000070: 6b84 9f3d b063 9d3e be65 9b3e 8591 2c3e
00000080: 69b5 57be 7389 4dbc c5b1 4b3e 9e4c 763e
00000090: 95de 8fbc 19c6 093e 14b7 ed3d c9d4 23be
000000a0: 9748 ffbc 98c5 1f3b d45f 503d 52a4 aa3d
000000b0: 6a73 4b3e bfc4 b23c 7e31 cf3d 825e b4bd
000000c0: 3f7a 1e3d c1e7 b63a 289e b33d 9ba3 1a3e
000000d0: 7264 b33c 30d5 0e3e 6e52 55bb ddb5 08bd
000000e0: d539 113e 8c91 83bd 59a0 eabd 159d a9bd
000000f0: db76 5b3e 38a1 7f3d aefd 433d 46c8 2abd
00000100: 8824 f53d 588e 21be dbdd 8c3d e2a5 b03d
00000110: f50f 0b3e 88c0 15be 9c9d d63b 90c3 5dbd
00000120: 35cd efbd 14ee b0bd 36c6 4cbd 722c f4bc
00000130: 1930 ea3d 6e3a 003e 1e8b 423d 91bb 303d
00000140: 4b99 a1bd 6524 343e 3bd4 b73d e2fa 073e
00000150: 5e03 003e 03f1 a53d 3c50 263e cb33 f43d
00000160: c1ad cbba 2095 1dbe 8470 313d 33d5 1f3e
00000170: 9443 d5bd 14ec a13d 151b 47be a81a eebc
00000180: f797 6c3e 7ebd 0d3e 1090 733e d20e 2c3d
00000190: ca70 683c 0908 973e 6b94 763e 46cd 6e3d
000001a0: 5fc4 b0bd b586 743e 44bc 6ebd 75c1 95bd
000001b0: 143b 793d 098b e73d b1bb 653e 93c0 713e
000001c0: 7875 83bd 52f0 113e ef43 d83d c80f adba
000001d0: d252 773e e7d3 833d 154a 9a3d 7a10 b03d
000001e0: ad5d be3d 05e3 093e 98ad fc3d 0ed5 5e3d
000001f0: cf5a c63d 49b8 a7bd 0df1 253e 8fac 783e
0.14513756 0.17926352 0.04366467 0.060266953 0.034950104 0.30521858 0.12541902 0.3675957
0.20183931 0.13673156 0.0058084656 0.13765042 -0.07101581 0.21182652 0.23766285 0.18316306
0.11749582 0.102222644 0.06067214 -0.017867306 0.08621533 -0.098215036 0.027682947 0.09969822
0.2733223 0.099943236 0.0034935442 0.31589237 0.077889286 0.30740118 0.3035106 0.16852386
-0.21065296 -0.0125449775 0.19892032 0.24052665 -0.01756219 0.13454475 0.11607185 -0.1599914
-0.031162543 0.002437925 0.05087264 0.08332123 0.19868246 0.021822331 0.10116862 -0.088070884
0.0386908 0.0013954566 0.087704 0.15101473 0.021898482 0.13948512 -0.0032550353 -0.033376563
0.14182217 -0.06424245 -0.11456365 -0.08281914 0.21432059 0.06240961 0.04784935 -0.041694902
0.119698584 -0.15776956 0.06878253 0.0862539 0.13580306 -0.14624226 0.00654955 -0.05414158
-0.11709062 -0.0863916 -0.049993716 -0.02980635 0.11434955 0.12522289 0.047495954 0.043147627
-0.078905664 0.17592008 0.089760266 0.13279298 0.12501284 0.0810261 0.16241544 0.11923941
-0.0015539454 -0.15388918 0.043320194 0.15608673 -0.1041328 0.079063565 -0.19443925 -0.029065445
0.23104845 0.13841817 0.23785424 0.04200632 0.014187047 0.29498318 0.24080054 0.058301233
-0.08631205 0.23879512 -0.058285013 -0.073122896 0.060847357 0.11305816 0.2243488 0.23608617
-0.0641889 0.14251831 0.10559832 -0.0013203556 0.24152687 0.064369015 0.07533661 0.08596893
0.09295211 0.13465507 0.12337798 0.054402404 0.09685289 -0.081894465 0.16205235 0.24284576

lstm.bias_hh_l0 f4 [128]
00000000: 9158 a63e 9b6f e43d 98e9 7f3e 524f 303e
00000010: d59d b7bd 5f22 c23e e0e8 173e bc1d 963d
00000020: 23e5 0a3e d7c2 913d 8078 133e 05cb f2bc
00000030: 03dc 273e 4ce8 083e ef55 003e 12f6 6f3e
00000040: 5d45 713e 2154 6f3e 5e1b 9a3e 3690 003e
00000050: b1d6 b7bc d0f4 003e 4455 973d a7fe 423d
00000060: a74a df3d d337 603e 6cf3 ae3b 55a9 953d
00000070: 0115 d2bc d6e2 833e 5088 4a3c 3438 603e
00000080: fe9a 45be 00c0 37bd 85d1 02bc fe31 6a3e
00000090: 9f99 bb3d c042 f0bd c14e 093e 5bc8 78bd
000000a0: 8430 ad3c 7c2d a7bd 35ee c53d 49af b8bd
000000b0: 6797 05bd 5373 653e fc61 55be 871f 413e
000000c0: 47c2 563e 5fa4 df3d 1fff bebc e415 e6ba
000000d0: c34e b83d 23a3 64bd b19b 443e 12aa d63d
000000e0: 7675 a5bd 0675 edbd 5942 c5bd 6d66 55bd
000000f0: 7cc4 e73b cb6d 1a3e 3f45 09bd 999e 233c
00000100: c6af 5b3d b972 be3d ca00 9f3d 6961 e93d
00000110: d123 cc3d 10c0 c73d 28d4 543e ceb8 0abd
00000120: 34ae 343c 2427 a2bd 9ea1 bcbd 10c1 27bc
00000130: f678 6d3c 4a0c 913d 482a 20bd c83d 9e3c
00000140: 8cca 033e fb8a 0e3e 9cb6 c53c 5ffe c439
00000150: 87cb 263e 1ad1 31be abba 1d3e 2ff7 e9bd
00000160: 8c88 3ebe 0e5a 0ebe dd1e a6bd c530 103e
00000170: 412e 2cbe fa20 26be 1112 093e 3b71 8fbd
00000180: 864a f23d 4b75 dfbd 83c8 803e ec9a 7e3e
00000190: c4ee acbd 39c7 7d3e cea5 313e 9129 903e
000001a0: 7764 83bd e809 253e 4130 7dbd 9eeb eaba
000001b0: 549a 1a3e 0a46 b73d 22d4 4c3e 6d4b ad3d
000001c0: 11fe 693e 4ac7 ccbc 7643 713e 5a5e 1a3e
000001d0: 8b10 dc3d 0520 81bd 2d73 fc3d 88df 76bd
000001e0: 0f4c 063e ba59 933e 6200 413e aecc 903e
000001f0: 47ce a43e b2cb fa3d 6b7a 0c3e 6316 8f3e
0.32489446 0.111540996 0.24991453 0.17217758 -0.08965651 0.37916848 0.14834929 0.0732989
0.13563971 0.07117241 0.14401436 -0.029637823 0.16392522 0.13369864 0.12532781 0.23433712
0.23561616 0.23371936 0.30099005 0.12555012 -0.02244124 0.12593389 0.0738931 0.047606137
0.10902911 0.21896295 0.0053390767 0.07307688 -0.025644781 0.25759 0.012361601 0.2189644
-0.19297406 -0.04486084 -0.007984524 0.22870633 0.0916016 -0.117314816 0.13408948 -0.06073795
0.021141298 -0.08162972 0.09664575 -0.09017808 -0.03261509 0.22407274 -0.2083816 0.18859683
0.20972548 0.10920023 -0.02331501 -0.0017554131 0.089993976 -0.05581964 0.19200017 0.10481657
-0.080790445 -0.11594586 -0.096317954 -0.052099634 0.0070729833 0.15080945 -0.033513304 0.009986543
0.053634427 0.09299225 0.077638224 0.11395533 0.09967769 0.0975343 0.20784056 -0.03386765
0.011027861 -0.07917622 -0.092105135 -0.010238901 0.014494171 0.07082422 -0.039102823 0.019316569
0.12870234 0.13920204 0.024134926 0.00037573554 0.16288577 -0.17364922 0.1540324 -0.114241
-0.18606776 -0.1390154 -0.081113555 0.14081104 -0.1681452 -0.16223517 0.13385798 -0.07004019
0.118306205 -0.10911044 0.25152978 0.24863786 -0.084439784 0.24783029 0.17348406 0.28156713
-0.064156465 0.1611706 -0.061813597 -0.0017923003 0.15097934 0.08948906 0.20002797 0.08461652
0.22850825 -0.024997372 0.2356089 0.15075055 0.10745343 -0.06304935 0.123266555 -0.06027177
0.13114952 0.28779393 0.18847802 0.28281158 0.32188627 0.12245883 0.13718574 0.27946767

fc.weight f4 [96, 32]
00000000: 1633 0b3e 80b5 b33e 8bc0 63be fd7c 95be
00000010: 153e bebe 27dd 4abd 311e 4dbe 95a9 21be
00000020: 6b0b 90be 985c 923d 643c 9fbe b9de 76be
00000030: 0cc5 443e 8346 f9bd 5b96 233d ad67 76be
00000040: d028 94be 1ed9 bbbe ab8f a1be cc1d 603e
00000050: ada2 89be 08a0 113e fccc 4ebe bf56 503e
00000060: 4214 803e f594 903d d584 7a3e 4db7 78be
00000070: 31b2 d63e 6297 a13e 71bf da3e 8ea0 a8be
00000080: c954 de3e 7912 48be 0582 c6bd 1f28 743d
00000090: c27b d13e 3567 19bf 41da 5a3c 0ab2 223f
000000a0: dacd 9a3e 3017 9abe 49fc 973e c301 6fbe
000000b0: d563 96be f3d1 3c3e 6391 39bf 449e bc3e
000000c0: f672 513e bce6 56bf a4c8 ccbd 1085 08be
000000d0: 7d6b d63d ad31 a8be 4e60 51be acb4 63be
000000e0: c283 2fbe cd1e 9a3e eb42 5ebe 0b66 b1bd
000000f0: 8986 03bf d4a1 a4be 22ef 343f d0b2 303f
00000100: b212 ad3e 1bcf e83e e3b2 95be 482c 6dbd
00000110: cb2d babe 6f80 913d e884 32be 4d44 90be
00000120: 52bb d2bd ef4e 153e 2a67 4fbe 64e1 78be
00000130: ee46 ac3e ac6e 85bd 132b 133e 3e45 9dbe
00000140: cfb3 6fbe cce5 8dbe b407 b8be 834e 173e
00000150: 801d 9fbe 60a8 073d aea3 a7be 051a c23e
00000160: 4037 8b3e 60de fabc 2186 583e 1398 1cbe
00000170: 3fb7 2a3e 9b10 f13d 0065 9c3e 92ef fdbd
00000180: 46dc 973e d54b 9b3e 8639 c4be 2271 92bd
00000190: 2f4d b0be 222f b9bc ed4f ebbd 745b 38bd
000001a0: cfc3 5cbe 3819 843d 6923 82be 7f15 b1be
000001b0: d8f4 c13d de1a 03be 9747 2f3e 1675 aebe
000001c0: e26a 12be 7027 c2be b28d bbbe a398 383e
000001d0: 94cd d0be 43a9 f93d f29c d8bd d594 563e
000001e0: 99c9 c43e 6e6e a93d c21a 853d 9dcb 3cbe
000001f0: 1228 4e3e bc50 a03e 0215 813e eed3 80be
00000200: 6915 253e 52e9 e13e 704e 94be d4be 98be
00000210: a893 e9bd 4265 133e a503 aebe 6a51 5cbe
00000220: 1e42 89be f90b d83d eeb8 7bbe 9157 d2bd
00000230: 98a9 0d3e 82ae 0ebe d08d 853e f5c9 96be
00000240: 8c11 09bd 6709 6abe 2f03 0cbe 70f7 fa3d
00000250: 7aef a1be 74fa 0a3e 8493 3ebd c506 c43e
00000260: fc14 a93d d3a9 a63d b40c 023e c6e6 3fbe
00000270: 50cc 8f3e 1fcd 903e 1603 903e e05d 53bd
00000280: 203e aa3e 65db ae3e a7dd 98be 9b45 8abe
00000290: e673 c1be 2150 c03c ce76 8ebe 2b15 19bd
000002a0: 5161 bcbe 72cf 863d 705a d1bd ed64 91be
000002b0: 0b81 103e e6af 57be f922 473e f79d 4ebd
000002c0: bcb1 a4be 5fc5 14be 2a47 b4be e2c7 9e3e
000002d0: dca1 0fbe eb28 b93d b3c6 b2be f154 933e
000002e0: 37ca 5a3e 8e45 663d 5dcc 823e e702 17be
000002f0: 097a bb3e a794 893e 37b2 d83e 234f d5bd
00000300: b414 933e 508c 803e ac98 22be 5fe6 a2be
00000310: 185f d9bd 54e9 ca3c 635b edbd ee4d 48be
00000320: 2622 30be 2abd bf3e f3d2 a0be 7f9c b0be
00000330: 1f0f 123e ee6e e0bd c2c6 183e 23ac 19be
00000340: 162b 83be 4f5f f9bd 084e 54be fafe 023e
00000350: 5835 87be 6358 4f3e 31db 6abe 3ca8 0e3e
00000360: 48c7 0b3e 9e8c 163c 2e89 ba3e e6a2 0dbe
00000370: b137 dc3e 6699 4d3e 840a 923e fef0 5ebe
00000380: 2496 ae3d b473 f13c aceb 39be 71e2 4bbe
00000390: 8cd1 4dbe 1a11 b03e 6201 36bd 1b9e c6be
000003a0: 9d5f 54be 89fd 313e 5cfa 2fbe f421 85be
000003b0: 6afd 383d fa5c 60bd 258a df3e 5855 c1be
000003c0: f29f 7bbe ea58 9bbe baef 07be 1f4a b63d
000003d0: 06a5 15be 36ba 393e 4ca9 b9be c71e a03d
000003e0: d74b a73e 95c1 6f3e e490 e33d 8750 173d
000003f0: 0325 903e 13ee b53d 9325 f63d 0a58 2ebe
0.13593706 0.3509941 -0.22241418 -0.2919692 -0.3715674 -0.049527314 -0.20031048 -0.15787347
-0.2813371 0.07146567 -0.31100762 -0.241084 0.19215792 -0.12171652 0.039938312 -0.24062987
-0.28937387 -0.36689085 -0.31554922 0.21886367 -0.26881924 0.14221203 -0.20195383 0.20345591
0.25015455 0.07059661 0.24464734 -0.24288674 0.41932824 0.31560808 0.42724183 -0.32934994
0.4342406 -0.19538297 -0.09692768 0.059608575 0.40914732 -0.59923106 0.0133577 0.63552916
0.30235177 -0.30095816 0.29684666 -0.23340516 -0.2937304 0.18439464 -0.7248747 0.36839497
0.2045401 -0.8394582 -0.09999207 -0.1333201 0.104697205 -0.328504 -0.20446894 -0.2223689
-0.17140105 0.30101624 -0.21705215 -0.08662041 -0.5137716 -0.32154715 0.7067739 0.69022846
0.33803326 0.4547051 -0.29238042 -0.057903558 -0.36363062 0.07104575 -0.17433512 -0.2817711
-0.10289635 0.14580892 -0.20254198 -0.2430473 0.33647865 -0.065152496 0.143719 -0.3071689
-0.23408435 -0.27714384 -0.35943377 0.14776044 -0.31077194 0.03311956 -0.32742065 0.37910476
0.2719059 -0.030623615 0.21144916 -0.15292387 0.16671465 0.11770745 0.30545807 -0.1239921
0.29660243 0.30331293 -0.38325137 -0.071504846 -0.34433886 -0.022605482 -0.11489854 -0.04500909
-0.2155907 0.064501226 -0.2541764 -0.34586713 0.09470528 -0.12803218 0.17117153 -0.34073704
-0.14298585 -0.37920713 -0.36631542 0.18026976 -0.40781844 0.12190487 -0.1057681 0.20955212
0.38435057 0.08273016 0.06499244 -0.18437047 0.20132473 0.31311595 0.2521134 -0.2516169
0.16121449 0.44123322 -0.28966093 -0.2983309 -0.11405116 0.14394096 -0.33987156 -0.21515432
-0.26808256 0.105491586 -0.24582264 -0.10270608 0.13834226 -0.13933757 0.26084757 -0.29450956
-0.033464 -0.22855149 -0.1367309 0.12254226 -0.3162802 0.13572103 -0.0465274 0.38286415
0.082559556 0.0813786 0.12700158 -0.18740377 0.28085566 0.28281495 0.28127354 -0.051603198
0.33250523 0.3415176 -0.29856607 -0.2700623 -0.37783736 0.023475708 -0.27825016 -0.037373703
-0.36792997 0.06582536 -0.10222328 -0.28397313 0.14111726 -0.21063194 0.19446935 -0.050443616
-0.3216685 -0.14528416 -0.35210544 0.31011873 -0.14026588 0.090410076 -0.3491722 0.28775743
0.21366201 0.056218676 0.25546542 -0.14747201 0.36616543 0.26871225 0.42323467 -0.10415485
0.28726733 0.2510705 -0.15878552 -0.31816384 -0.10613841 0.024769463 -0.11589696 -0.19560978
-0.17200527 0.37449008 -0.3141094 -0.34494397 0.1426358 -0.10958658 0.1491957 -0.15007071
-0.2561881 -0.12176382 -0.20732892 0.12792578 -0.26407886 0.2024856 -0.22935177 0.13931364
0.13650239 0.009188799 0.36432785 -0.13831672 0.4301124 0.20078048 0.28523648 -0.21771619
0.08524731 0.029474117 -0.18156308 -0.199106 -0.20099467 0.34388047 -0.044434913 -0.387925
-0.20739599 0.17381872 -0.17185348 -0.26002467 0.04516355 -0.05477617 0.43660083 -0.37760425
-0.24572733 -0.30341274 -0.13275042 0.08900856 -0.14613733 0.1813744 -0.36261976 0.0781837
0.3267505 0.2341369 0.1111162 0.03694203 0.28153238 0.088833 0.120188855 -0.17025772

fc.bias f4 [96]
00000000: a328 64be 2f7f 6c3e c9d1 d5bd 8caf 89be
00000010: 5f0e 43be a13e a6be 83d2 62bd 3c68 cdbd
00000020: d365 9ebc b791 773b 46b5 9abe 19f1 adbe
00000030: 0d85 30be ac62 03bd 69c4 14bd 834a c6be
00000040: 16b7 4fbe aa8d 60be c87b 1bbe 19c5 6abe
00000050: d163 8ebe cb86 cebd 8edb 56bd b56c 48be
00000060: 2028 9cbc c165 9bbe 6a19 83be 5fcb a0be
00000070: 6003 8c3b f64f 9dbe 1a52 f9bc d9d7 5ebe
00000080: a096 cfbd a669 8abb d635 08be 1329 9fbe
00000090: 1dcb 4ebe f746 77bc 5fbe 8abe a347 1abe
000000a0: 0b2b 98be 2d21 11bd d0af fcbd 2123 37bb
000000b0: a770 af3c 0bff d5bd 6069 903d ba5f 6abe
000000c0: 3536 5bbd c554 1dbe a463 82bd 6215 89be
000000d0: e890 513e d8e1 d83d 93a0 98be 5ff9 3bbe
000000e0: a87e db3d 0363 a3be 0db1 20be 04a6 95be
000000f0: 5ca3 b1bd 8ace 7fbe 1f28 62be a945 2bbe
00000100: cf13 893c 74d4 93be d4c3 0a3e 0027 d23d
00000110: ae12 e83d d389 a03c 2092 783e 8b94 793e
00000120: 9dc8 41bb b599 3e3e 9c11 733e c2ac f23d
00000130: 3ef0 bd3c 7840 ef3c eead e13d c4ef 303b
00000140: 615e 933e 4cf7 4b3e 8fe5 d0bd 295b 803d
00000150: 5ce5 283e 50b0 d43d 6709 523c 8da0 2bbe
00000160: 0b96 633e ff16 40be a4b0 4e3e 29a0 343d
00000170: 58ca 29be 3b69 08bc 7ac7 97bd e17d 9abe
-0.22281127 0.23095392 -0.10440404 -0.26891744 -0.19048451 -0.32469657 -0.05537654 -0.10029647
-0.019335663 0.0037776062 -0.30216426 -0.33973005 -0.17238255 -0.032076523 -0.036320124 -0.38728723
-0.20284685 -0.2192904 -0.15183938 -0.2292675 -0.2781053 -0.100843035 -0.052455477 -0.19572718
-0.019062102 -0.3035107 -0.25605327 -0.3140516 0.0042728633 -0.30725068 -0.030434657 -0.21762027
-0.10136151 -0.00422402 -0.13301787 -0.31086025 -0.20194669 -0.015092603 -0.27098367 -0.1506639
-0.2972034 -0.03543203 -0.12338221 -0.0027944522 0.021416022 -0.10449036 0.07051349 -0.2288808
-0.053518493 -0.15364368 -0.06366661 -0.26774126 0.20465434 0.10589951 -0.29810008 -0.18356846
0.10717517 -0.31911477 -0.1569254 -0.29228222 -0.086737365 -0.24981132 -0.22085617 -0.16725792
0.016733078 -0.28873026 0.13551265 0.10261345 0.11331688 0.01959697 0.24274492 0.24373071
-0.0029569038 0.18613322 0.23737186 0.11849357 0.023185845 0.029205546 0.110195026 0.002699838
0.28782943 0.19918555 -0.10200035 0.062673874 0.16493744 0.103851914 0.0128196245 -0.16760464
0.22225206 -0.18758772 0.2018457 0.044098053 -0.16581094 -0.00832587 -0.07411094 -0.30174163
