checkpoints_qa/sum_tok_ner_epoch_7.pt (torch, 262893 bytes, 7 tensors)

embedding.weight f4 [96, 256]
0	0xbe976ebe	-0.29576677
1	0xbf7894c8	-0.9710202
2	0xbf95edc1	-1.1713182
3	0xc008d860	-2.1382065
4	0xbe15a2f8	-0.14612949
5	0x3f0e83cb	0.5566985
6	0xbfd0a850	-1.6301365
7	0xbfc3c0b2	-1.5293181
8	0xbf057b79	-0.5214153
9	0x3f8190de	1.0122335
10	0x3fc2e2fe	1.5225523
11	0xbf3be9dc	-0.73403716
12	0x3e7b8d7d	0.24565692
13	0x3e367066	0.17816314
14	0x3f732be5	0.9498885
15	0xc01559eb	-2.3336132
16	0xbf8de789	-1.1086284
17	0xbe81aab6	-0.25325555
18	0xbe8eb532	-0.27872616
19	0x3f63081e	0.8868426
20	0x3ed8e443	0.4236165
21	0xbcccef78	-0.025016531
22	0x3f5db197	0.86599106
23	0xbf3f1e98	-0.7465606
24	0xbebc7777	-0.36809894
25	0xbf4caee3	-0.79954356
26	0x3e9519a4	0.29121125
27	0xbf7ad692	-0.9798366
28	0x3edcd6cf	0.43132636
29	0x3faa7eff	1.3320006
30	0xbf338ae1	-0.7013379
31	0x3eb2fe80	0.34959793
32	0x3f2a99f1	0.66641146
33	0x3fcf65e6	1.6202972
34	0xbe653397	-0.22382961
35	0xbfbaba6d	-1.4588143
36	0x3f83fdef	1.0311869
37	0xbfca1c61	-1.578991
38	0x3efe35c5	0.49650398
39	0x3f7f3166	0.9968475
40	0xbd857b90	-0.06517708
41	0xbe8ec4cd	-0.27884522
42	0x3f47de13	0.78073233
43	0x3f63f3e2	0.8904401
44	0xbfd2aba9	-1.6458637
45	0xbecd54c2	-0.40103728
46	0xbf40d727	-0.75328296
47	0xc000af3b	-2.0106952
48	0x3f46cb92	0.77654374
49	0x3cda1e78	0.026625857
50	0x3eb19cdc	0.34689987
51	0x3f27ab71	0.65495974
52	0x3ff7fafb	1.9373468
53	0x3fb34f82	1.4008639
54	0xbf70fdcb	-0.9413726
55	0xbf2e2319	-0.68022305
56	0xbfcbb4c4	-1.591454
57	0x3e67fd8c	0.22655314
58	0xbf0c1296	-0.5471586
59	0x3f7df666	0.992041
60	0xbea590ae	-0.32336944
61	0xc0130503	-2.297181
62	0xbf969d80	-1.1766815
63	0x3f5ad865	0.8548644
64	0x3ed498ed	0.41522923
65	0x3fc290f8	1.5200491
66	0xbe78a4f1	-0.2428167
67	0x4009728c	2.1476164
68	0x3f3831fe	0.7195128
69	0xbfae4ae3	-1.3616604
70	0x3f45eed3	0.7731754
71	0xc0076fe1	-2.1162035
72	0xbfc6329b	-1.5484194
73	0xbfb64d3a	-1.4242318
74	0xbf9e4dd0	-1.2367496
75	0x3ff75f65	1.9325987
76	0x3e85456f	0.26029536
77	0xbf897625	-1.073918
78	0xbfcb471f	-1.588108
79	0xbf08e615	-0.5347608
80	0xbe99832a	-0.29982883
81	0x3f8610bb	1.0473856
82	0xbdff88d1	-0.124772675
83	0x3f05eef3	0.5231773
84	0x3fe2bd0a	1.771394
85	0xbee61a28	-0.4494183
86	0x3d2afa36	0.041742526
87	0xbff0efaa	-1.882314
88	0xbf211a9f	-0.62931246
89	0x3fa9ff9f	1.3281134
90	0xbf813cb9	-1.0096656
91	0xbd66cdd1	-0.056348626
92	0xbf887acc	-1.0662475
93	0x3e8c94d9	0.27457312
94	0xbf71ec4e	-0.945012
95	0xbf828b17	-1.0198697
96	0xbed40d25	-0.41416278
97	0x3ff0c122	1.880894
98	0xbe5d5304	-0.21613699
99	0x3f815917	1.0105313
100	0xbf0076ed	-0.50181466
101	0x3eb9d2b2	0.3629356
102	0xbfb1738c	-1.3863387
103	0x3e5e40d2	0.21704414
104	0x3f4a4471	0.79010683
105	0xc009f788	-2.155733
106	0xbea6c7af	-0.32574221
107	0x3ed5153f	0.41617772
108	0xbefcd2ec	-0.4937967
109	0x3e84ad3e	0.25913423
110	0xbf9e1e1b	-1.2352937
111	0xc0037088	-2.0537434
112	0x3dae3dc0	0.08507872
113	0xbf02f4b6	-0.5115465
114	0x3fb01fa6	1.3759658
115	0xbed6afaf	-0.4193091
116	0xbfd31633	-1.649115
117	0x3eef09e5	0.46687236
118	0x3fe76204	1.8076787
119	0x3f0132f1	0.50468355
120	0x3e9089b9	0.28230074
121	0xbf678dd1	-0.9045077
122	0x3de54ce0	0.11196303
123	0x3f6d0637	0.9258761
124	0x3e8301a0	0.25587177
125	0xbf8ac4ea	-1.0841343
126	0x3f9308b0	1.1487026
127	0xbef6b5c1	-0.48185542
128	0x3ea2891d	0.31745234
129	0xbea114fa	-0.31461316
130	0x3e65aaa1	0.22428371
131	0x3f126a5a	0.5719353
132	0xbf122a05	-0.57095367
133	0x3e0afe87	0.13573657
134	0xbf16d588	-0.5891957
135	0x3f649b9f	0.8929996
136	0xbf447455	-0.7674001
137	0xbf7f533d	-0.99736387
138	0x3e3085d8	0.17238557
139	0xbefee5cd	-0.497847
140	0x3f57569b	0.84116524
141	0xbf1d3d88	-0.61422014
142	0x3fa3205d	1.2744251
143	0xbef8c32e	-0.4858641
144	0xbf188e95	-0.5959256
145	0x3f9606eb	1.1720861
146	0xbf2c3881	-0.6727372
147	0x3f4a888b	0.791146
148	0xbe61a89c	-0.22036976
149	0x3e164a76	0.14676842
150	0x3e416d2c	0.18889302
151	0xbf5e7717	-0.86900467
152	0x3fbae1c3	1.4600147
153	0x3d38d6af	0.045126613
154	0x3fb5d821	1.4206582
155	0xbed28fa0	-0.41125202
156	0x3f10d867	0.56580204
157	0x3f310ddd	0.6916178
158	0x3fcfe7f0	1.6242657
159	0x3f53653f	0.82576364
160	0xbfb7a18f	-1.4346179
161	0xbeb1e30a	-0.3474353
162	0xbe2ee116	-0.17078051
163	0xc00a2719	-2.1586363
164	0xbd98038e	-0.07422553
165	0xbf14cb0a	-0.58122313
166	0x3f83ec8c	1.0306563
167	0x3f17a618	0.59237814
168	0xbf128744	-0.5723765
169	0xbf967ae3	-1.1756252
170	0x3f0f37ad	0.5594433
171	0x3e465d8a	0.1937162
172	0x3f505102	0.8137361
173	0x3d6e6b55	0.05820783
174	0xbf9936d5	-1.1969858
175	0xbf33eec9	-0.7028623
176	0xc00c9eb3	-2.1971862
177	0x3e69d0b3	0.22833519
178	0xbf9fd513	-1.24869
179	0x3f9ba93c	1.2161021
180	0x3f47e485	0.7808307
181	0xbfdbefe4	-1.7182584
182	0x3fa92abb	1.3216165
183	0x3ee2ff6d	0.443355
184	0x3f6ad6d0	0.9173403
185	0x3d3c77a9	0.046012554
186	0xbfa88009	-1.3164073
187	0xbf08b7cb	-0.53405446
188	0x401c0f75	2.4384434
189	0x3dd248ad	0.10267768
190	0x3e526a30	0.2054832
191	0x3fb82e32	1.4389098
192	0xbfc52612	-1.5402243
193	0x3f06bae1	0.52628905
194	0xbd80b2eb	-0.06284126
195	0x3f95f1e7	1.1714448
196	0x3ef4ca07	0.47810385
197	0xbd7e04e5	-0.062016387
198	0xbfc4166c	-1.5319343
199	0xbf13a010	-0.5766611
200	0x3e50bfdf	0.20385693
201	0x3f42d8dd	0.7611216
202	0x3e8a25bc	0.26981914
203	0x3e9c0bf1	0.3047786
204	0x3e9d22fb	0.3069075
205	0xbe26274f	-0.16225933
206	0x3f2fa88f	0.68616575
207	0x3f950184	1.1641088
208	0x3e2cf418	0.1688999
209	0xbf6600a4	-0.8984473
210	0xbed5788f	-0.4169354
211	0x3e54118d	0.2070982
212	0x3f0f8c54	0.560735
213	0xbef1b267	-0.47206423
214	0x3f35b359	0.7097679
215	0x3fbe73ac	1.487905
216	0x3ed545c7	0.41654798
217	0x3f1f3dc5	0.6220363
218	0x3ef9c939	0.48786333
219	0x3e9a5bfa	0.30148298
220	0xc0038c3a	-2.0554338
221	0xbe0f3bbb	-0.13987629
222	0xbf925cf9	-1.1434623
223	0xbf3146c5	-0.6924861
224	0xbfe45e8d	-1.7841355
225	0x3eb57d5b	0.354472
226	0xbf762cc2	-0.96162045
227	0xbf33f710	-0.7029886
228	0x3e64de2a	0.22350374
229	0xbf79f3b8	-0.9763751
230	0x3e801d19	0.250222
231	0x403a08d6	2.9067893
232	0x3e3b3789	0.18282904
233	0x3f02b839	0.5106235
234	0x3e5e73da	0.21723881
235	0x3bdba670	0.0067031905
236	0x3fd43633	1.657904
237	0xbde91198	-0.11380309
238	0x3fd454de	1.65884
239	0x3e5698cd	0.20956726
240	0xc00d414e	-2.207111
241	0xbf394bbc	-0.72381186
242	0x3eb7ba34	0.3588425
243	0x3f0ce9e0	0.55044365
244	0x3e1fecbd	0.15617652
245	0xbf4f0fcd	-0.80883485
246	0xbeb8c8e6	-0.36090773
247	0xbf1a2f27	-0.602282
248	0x3e8419e7	0.25801012
249	0x3f446ab4	0.76725316
250	0x3ea2bb70	0.31783628
251	0xbdb6ccaa	-0.08925755
252	0xbead0438	-0.3379228
253	0xbf8dcee0	-1.1078758
254	0xbebf52dc	-0.37367904
255	0x3f71a25e	0.9438838

lstm.weight_ih_l0 f4 [128, 256]
0	0x3e42a39e	0.19007728
1	0x3c9314a7	0.017954184
2	0x3d2e176d	0.04250281
3	0x3d285029	0.04109207
4	0x3d748259	0.05969462
5	0x3dc19f69	0.09454233
6	0x3e144fb5	0.14483531
7	0xbc9bde42	-0.01902688
8	0x3df2f804	0.118637115
9	0x3df8cd93	0.12148585
10	0x3d30df4d	0.043181706
11	0xbccf81b3	-0.0253304
12	0x3d94caa9	0.07265217
13	0x3dda8e4e	0.10671674
14	0x3d9c4d1e	0.076318964
15	0x3c24aaf6	0.010050526
16	0x3d37ee6a	0.044905104
17	0x3dcf2dbc	0.10116145
18	0xbe949121	-0.29016975
19	0x3c4067d4	0.011743505
20	0xbba8776e	-0.0051411903
21	0x3d65c021	0.05609143
22	0x3e6b63c7	0.22987281
23	0x3c30be72	0.010787593
24	0x3e8a35f8	0.269943
25	0x3d80876c	0.0627583
26	0x3db8c4b1	0.09021891
27	0xbda61d2f	-0.08111035
28	0x3d251217	0.040300455
29	0xbdf2b159	-0.11850233
30	0x3e2180a3	0.15771727
31	0xbe0a8f67	-0.13531266
32	0xbe118577	-0.14211069
33	0x3a7e18cc	0.0009693026
34	0x3e02a2e3	0.12757449
35	0x3e1dc770	0.1540811
36	0x3e0a4573	0.13503055
37	0x3e307915	0.17233689
38	0xbe33df0c	-0.17565554
39	0x3dd4bc84	0.10387519
40	0xbd1a6397	-0.037692633
41	0x3daf8b8f	0.085715406
42	0x3e2e11e6	0.16999015
43	0x3cc27842	0.023738984
44	0x3dade0e7	0.08490162
45	0x3dc9219c	0.098208636
46	0x3e00990f	0.12558387
47	0x3e129e05	0.14318092
48	0xbc68244b	-0.014168809
49	0xbd773e3b	-0.060362082
50	0x3d8e72cd	0.0695549
51	0xbdcd8b87	-0.10036378
52	0x3e386397	0.1800674
53	0xbd2e8f91	-0.042617384
54	0xbe60aea2	-0.21941617
55	0xb91fcd4b	-0.00015239899
56	0xbe01bac9	-0.12668909
57	0xbe041a0c	-0.12900561
58	0xbe0149bd	-0.12625785
59	0xbd875d3c	-0.0660958
60	0xbd8d901b	-0.069122516
61	0xbcf9425b	-0.030427149
62	0xbe84ff94	-0.2597624
63	0xbe80368d	-0.2504162
64	0xbe6f86fc	-0.23391336
65	0x3db148a4	0.08656433
66	0xbe05db7a	-0.13072005
67	0x3d938f1b	0.072050296
68	0xbd4fdeb3	-0.050749492
69	0xbe4d7a01	-0.20066072
70	0x3c8942c5	0.016755471
71	0xbd376716	-0.044776045
72	0x3e68f5e1	0.22750045
73	0xbc1b2552	-0.009469347
74	0x3d76e387	0.06027558
75	0xbdf4911b	-0.11941739
76	0x3d5c2371	0.053744737
77	0x3e32aafb	0.17448036
78	0xbdd08cf6	-0.10183136
79	0xbdd4825d	-0.10376427
80	0x3dfb031e	0.12256454
81	0xbd5f0717	-0.05445012
82	0xbb586214	-0.0033017443
83	0x3e86569c	0.26237953
84	0xbe08ed39	-0.13371743
85	0xbcfdd670	-0.03098604
86	0x3e4cb019	0.19989051
87	0xbe164b7b	-0.14677231
88	0xbe09d68b	-0.13460748
89	0x3db54f43	0.088530086
90	0x3dbf18ab	0.09330877
91	0x3e0f4d55	0.13994344
92	0xbcce8be5	-0.025213191
93	0x3e3e0e92	0.18560246
94	0x3d9fd418	0.078041255
95	0xbdb5edb1	-0.08883227
96	0xbcf9bdde	-0.030486044
97	0x3c8739ff	0.016507147
98	0xbdcb0eb3	-0.09914913
99	0x3d693e7a	0.056944348
100	0x3cf2dfbf	0.029647706
101	0x3e10c83c	0.14138883
102	0x3e53e679	0.20693387
103	0xbe469cd9	-0.1939577
104	0xbd902eb8	-0.07040161
105	0xbd2bbe8d	-0.04192977
106	0x3e80f392	0.2518583
107	0x3ca2495f	0.019810377
108	0x3dd9481b	0.10609456
109	0xbdec883c	-0.11549422
110	0xbd34a8ea	-0.0441064
111	0xbe686048	-0.22692978
112	0x3e44ef4d	0.19231911
113	0xbd956c1f	-0.07296013
114	0xbe5f983e	-0.2183542
115	0x3d03f8d5	0.032219727
116	0x3d1b074e	0.037848763
117	0x3d8e3191	0.06943048
118	0x3d233635	0.039846618
119	0xbc507b68	-0.012724735
120	0x3e62480d	0.22097798
121	0x3e329638	0.17440116
122	0x3cf686d9	0.030093597
123	0x3cd1f88d	0.025631214
124	0xbc0709e6	-0.008242106
125	0xbe0483ff	-0.12940978
126	0xbd7377fb	-0.059440594
127	0x3ccb877e	0.024844881
128	0xbe0f767f	-0.14010046
129	0xbd017d0e	-0.031613402
130	0xbda25737	-0.07926791
131	0x3df11524	0.117716104
132	0xbd77e5e1	-0.060521964
133	0x3cc37242	0.023858193
134	0x3e26fc77	0.16307245
135	0x3ec4e58b	0.38456377
136	0x3e59c160	0.21265173
137	0xbd46fca2	-0.048580773
138	0x3d91e559	0.07123823
139	0xbd92f158	-0.07174939
140	0x3c584238	0.0131993815
141	0x3e8738f1	0.2641063
142	0x3e1532ae	0.14570114
143	0x3dc8c063	0.0980232
144	0x3cf62de2	0.030051176
145	0xbe97a8f9	-0.29621103
146	0xbd2971d4	-0.04136832
147	0x3dd5db8a	0.104422644
148	0x3ea846a9	0.3286641
149	0x3e2702c3	0.16309647
150	0x3cb33535	0.021875957
151	0xbd496bcc	-0.04917507
152	0xbe1cc7a4	-0.15310532
153	0x3e4676c9	0.1938125
154	0x3e3c1031	0.18365552
155	0xbdb350be	-0.08755635
156	0xbe88d896	-0.26727742
157	0x3e03ef9b	0.12884371
158	0xbe30a428	-0.1725012
159	0x3e5356df	0.20638607
160	0xbc2ebb4e	-0.010664774
161	0xbd59e274	-0.05319448
162	0x3d96d8ba	0.07365556
163	0x3e5a79ad	0.21335478
164	0xbe11c0cf	-0.14233707
165	0xbe5a3559	-0.21309413
166	0xbda20590	-0.07911217
167	0x3dc8e794	0.09809795
168	0x3d0c597f	0.034265038
169	0x3e2face8	0.17155802
170	0xbe4f4720	-0.20241976
171	0xbda791fc	-0.08182141
172	0x3d4076cd	0.046988297
173	0xbe180595	-0.1484588
174	0x3d2c09f7	0.04200169
175	0xbe0469b7	-0.12930952
176	0xbe260735	-0.16213687
177	0xbe89f7b5	-0.26946798
178	0x3e4174ff	0.18892287
179	0xbe23a2c9	-0.15980066
180	0xbe50ded4	-0.20397502
181	0xbdbf01fe	-0.09326552
182	0xbd631fc2	-0.05545021
183	0x3e4c005c	0.19922012
184	0x3bcabe24	0.0061872173
185	0x3d5a69f2	0.053323694
186	0xbdb71f86	-0.089415595
187	0x3ce56146	0.028000485
188	0xbd194fc8	-0.0374296
189	0xbd2fa4ca	-0.042881764
190	0xbd9f166c	-0.077679485
191	0x3db12714	0.08650032
192	0x3d3aee33	0.04563732
193	0x3e0feaa1	0.14054348
194	0x3d3bf522	0.045888074
195	0x3e868154	0.26270545
196	0x3e17148b	0.1475393
197	0xbe574deb	-0.21025817
198	0x3e27c8c3	0.16385178
199	0xbdc8e92f	-0.09810101
200	0x3d4caeb1	0.049971286
201	0x3d0e7256	0.034777008
202	0xbe76ed62	-0.24113992
203	0xbe0e67a7	-0.13906728
204	0xbe2951c1	-0.16535093
205	0xbd07a639	-0.033117507
206	0xbd12a73c	-0.03580402
207	0x3e3e339c	0.18574375
208	0x3e16bdd1	0.14720847
209	0x3d8e0926	0.06935339
210	0xbe5db3c3	-0.21650605
211	0x3d291f73	0.041289758
212	0x3e39dd0e	0.18150732
213	0xbe4155aa	-0.18880334
214	0xbe1fa46f	-0.1559007
215	0x3e2e8f90	0.17046952
216	0x3d5c690f	0.05381113
217	0x3e41c5e3	0.18923144
218	0x3d9d875c	0.076918334
219	0x3c856206	0.016282093
220	0xbdcc9478	-0.09989256
221	0xbe82cd43	-0.25547227
222	0xbd691f43	-0.05691458
223	0x3dca023b	0.09863707
224	0x3e33847e	0.1753101
225	0x3bc11a38	0.005893018
226	0xbc332be6	-0.010935759
227	0x3da1a31e	0.0789244
228	0xbe379257	-0.17926918
229	0x3e247a9a	0.16062394
230	0x3de96ae7	0.11397343
231	0x3c949194	0.018135823
232	0xbd226546	-0.039647363
233	0xbd864872	-0.065567866
234	0x3d8b537b	0.06803032
235	0x3da002ba	0.0781302
236	0x3e05128c	0.12995356
237	0xbe42a4b8	-0.19008148
238	0x3e2941ca	0.16529003
239	0xbd97e403	-0.07416537
240	0x3da5a797	0.08088606
241	0xbdc1187b	-0.094284974
242	0x3d3195ff	0.043355938
243	0xbe609201	-0.21930696
244	0x3e3f33dd	0.18672128
245	0xbd7f2dfa	-0.062299706
246	0x3d02f834	0.031974986
247	0x3ddb7d04	0.10717204
248	0xbe7be1cd	-0.24597855
249	0xbd17b1be	-0.037034743
250	0x3d95677b	0.07295128
251	0x3d09710f	0.033555087
252	0x3dc33800	0.095321655
253	0xbd89b023	-0.067230485
254	0xbd99336d	-0.07480512
255	0xbd11b670	-0.035574377

lstm.weight_hh_l0 f4 [128, 32]
0	0x3eea0c6e	0.45712608
1	0xbe356e70	-0.1771791
2	0xbde39f95	-0.11114422
3	0xbce395e7	-0.02778144
4	0x3f1296bd	0.5726126
5	0x3f4465ef	0.7671804
6	0x3e951bae	0.2912268
7	0x3efc7963	0.4931136
8	0x3ead17d8	0.33807254
9	0xbf506561	-0.8140469
10	0xbe3f034e	-0.18653604
11	0x3d828666	0.06373291
12	0xbd8bb93b	-0.06822439
13	0x3dff5179	0.124667116
14	0x3c79e4c0	0.015252292
15	0x3e62c4d8	0.22145402
16	0xbeac9be2	-0.3371268
17	0x3c83b297	0.01607637
18	0x3f04716d	0.51735574
19	0xbee01645	-0.4376699
20	0x3eef8495	0.4678084
21	0xbf01639d	-0.5054262
22	0xbd8a9495	-0.06766621
23	0xbd0ae9a8	-0.03391424
24	0x3dfe34bd	0.12412403
25	0x3eec7f03	0.46190652
26	0x3d46e4fa	0.048558213
27	0xbe9e8589	-0.30961254
28	0x3d4d9940	0.05019498
29	0xbf5e9d96	-0.8695921
30	0xbe23e6a4	-0.16005951
31	0xbf1fe407	-0.6245732
32	0x3e3a21b3	0.18176918
33	0xbe4cc84a	-0.19998279
34	0x3dfa0486	0.12207894
35	0x3e79bc3f	0.24388216
36	0xbd51dde1	-0.05123699
37	0x3e922c9b	0.28549656
38	0x3ed2e94f	0.41193625
39	0x3ca49144	0.0200888
40	0x3e66766e	0.22506115
41	0xbd99e60b	-0.0751458
42	0x3e3a3bc0	0.18186855
43	0xbe2aa58a	-0.1666471
44	0xbe35755c	-0.1772055
45	0x3ef33ee1	0.4750891
46	0xbefe7f5c	-0.49706542
47	0x3e1aa8b4	0.15103418
48	0x3d82c83e	0.063858494
49	0x3d8b6b55	0.06807581
50	0x3f4c0129	0.7968927
51	0xbe9de880	-0.30841446
52	0x3eded1b5	0.4351937
53	0xbd1b28e5	-0.037880797
54	0x3dee7641	0.11643649
55	0xbedb0315	-0.4277579
56	0x3ea4614e	0.32105488
57	0xbf150cd0	-0.58222675
58	0x3e20b56b	0.15694205
59	0x3e887979	0.26655176
60	0xbdf7d941	-0.12101985
61	0x3d2fb2f9	0.04289529
62	0x3e6d08fa	0.23147956
63	0xbe623636	-0.22090992
64	0xbea15428	-0.3150952
65	0xbf005b51	-0.5013934
66	0xbf059fa2	-0.52196705
67	0x3db94322	0.09046008
68	0x3e28ce42	0.16484931
69	0x3f981e3b	1.1884226
70	0x3e8169d1	0.25276044
71	0xbe1758e9	-0.1478001
72	0xbda2c717	-0.079481296
73	0xbf0b3f45	-0.54393417
74	0xbd653451	-0.055958096
75	0x3ef1d3ea	0.4723199
76	0xbf176ddd	-0.59152013
77	0xbe31fa66	-0.17380676
78	0xbd2052a6	-0.03914132
79	0xbe839edc	-0.25707138
80	0x3e094a81	0.13407327
81	0x3e083d58	0.13304651
82	0x3e475376	0.19465432
83	0xbf10f59f	-0.5662479
84	0x3f10e9de	0.56606853
85	0xbe8798c9	-0.26483753
86	0x3de48026	0.11157255
87	0xbec061c0	-0.37574577
88	0xbda3bde6	-0.07995205
89	0x3f0a98d8	0.5413947
90	0xbe81ff08	-0.25389886
91	0xbd33af5c	-0.043868408
92	0xbeb594f1	-0.35465196
93	0xbe0362f6	-0.1283072
94	0xbef9e6f6	-0.48809022
95	0xbec6cdbf	-0.38828847
96	0xbc957ffa	-0.0182495
97	0xbe0a25cc	-0.13490981
98	0x3f3bf14c	0.73415065
99	0x3cbb81bb	0.022889009
100	0x3c77a259	0.01511439
101	0x3f1586b2	0.58408654
102	0x3e50fbef	0.20408605
103	0xbe570bdc	-0.21000618
104	0xbe00c043	-0.12573342
105	0xbe6cc895	-0.23123391
106	0xbe4aaece	-0.19793245
107	0x3dc5f702	0.096662536
108	0xbda9f881	-0.082993515
109	0x3d48104d	0.04884367
110	0xbea98de6	-0.33116072
111	0xbe7f511b	-0.24933283
112	0x3e3092fa	0.17243567
113	0x3e9a1ce1	0.30100158
114	0xbe0fe671	-0.1405275
115	0x3ed0019a	0.40626222
116	0x3e0bdfaf	0.13659547
117	0x3ea44386	0.32082766
118	0xbe5d56cd	-0.21615143
119	0xbd918860	-0.071060896
120	0x3dfd22a6	0.12360124
121	0x3eb36f2a	0.3504575
122	0xbefafd88	-0.49021554
123	0x3eaae16c	0.33375108
124	0xbe5dc366	-0.2165657
125	0x3d646446	0.05575969
126	0xbe582fcf	-0.21111988
127	0x3f039f13	0.51414603
128	0x3de70a72	0.11281289
129	0x3d2fe23a	0.042940356
130	0x3ddf47be	0.109023556
131	0x3e3b2f72	0.18279818
132	0xbb847313	-0.004042038
133	0xbdeb4f59	-0.11489744
134	0xbdeca1ba	-0.115542844
135	0xbcbbc3a8	-0.022920445
136	0xbddfe316	-0.10931985
137	0xbe4c5281	-0.19953348
138	0x3deec020	0.11657739
139	0x3d9dd2b2	0.077062026
140	0xbe238c3c	-0.15971464
141	0xbcb7214c	-0.022354744
142	0x3bc094fa	0.0058771344
143	0x3e1f8531	0.15578152
144	0x3dd33ec5	0.10314707
145	0x3d6dce85	0.05805828
146	0xbd656086	-0.056000255
147	0xbe20cd4c	-0.15703315
148	0x3e78c055	0.24292119
149	0x3d3c010d	0.04589944
150	0xbcfb028a	-0.03064086
151	0xbc1ba001	-0.009498597
152	0xbddd6dca	-0.10811956
153	0x3d3fb093	0.046799254
154	0xbd7ea993	-0.062173437
155	0x3e20098e	0.15628645
156	0x3d7b08d2	0.06128771
157	0xbd848d08	-0.06472212
158	0x3cd8bacb	0.026456257
159	0xbcdc60b0	-0.026901573
160	0xbf02fd7f	-0.51168054
161	0xbea6102e	-0.3243422
162	0x3ead7c92	0.33884102
163	0x3e4aa3cb	0.19789045
164	0x3eb7ed6f	0.35923335
165	0xbde25d32	-0.11052932
166	0x3dd1db70	0.102469325
167	0x3e71e77f	0.23623465
168	0x3ef19605	0.47184768
169	0xbe3a3bc4	-0.18186861
170	0x3eb1eae2	0.34749514
171	0x3eadf5bd	0.33976546
172	0xbeca6769	-0.3953202
173	0x3ecaf5c2	0.39640623
174	0xbe24a9a6	-0.1608034
175	0xbc7af3fa	-0.015316958
176	0x3f096479	0.53668934
177	0x3e5d54aa	0.21614328
178	0x3ead319d	0.33826914
179	0xbec8f694	-0.39250624
180	0x3e94acb8	0.29038024
181	0xbeda7c6a	-0.42673045
182	0x3e28e6d0	0.16494298
183	0xbe380dba	-0.17973986
184	0xbd8192fd	-0.06326864
185	0x3e996f79	0.2996786
186	0xbea6b11d	-0.32557002
187	0x3e0d6a8a	0.13810173
188	0xbec9a4aa	-0.3938344
189	0xbe24eaf0	-0.16105247
190	0xbc98f409	-0.018671053
191	0x3ecf92f6	0.4054181
192	0xbda7b883	-0.0818949
193	0xbcb621b4	-0.022232868
194	0x3de2b4b5	0.110696234
195	0x3ec49ca9	0.38400772
196	0x3ec3b55b	0.382243
197	0xbe9ab3a1	-0.3021517
198	0x3c9a5443	0.018839007
199	0x3e732221	0.23743488
200	0x3db7f262	0.08981778
201	0xbdc7824f	-0.09741651
202	0x3e1402c5	0.14454181
203	0xbdc913ed	-0.09818254
204	0x3ce2aaa9	0.027669268
205	0x3deaeb3b	0.11470648
206	0xbe9f41d6	-0.31104916
207	0xbe3787f8	-0.17922962
208	0x3f093240	0.535923
209	0x3eacce48	0.3375113
210	0x3e55c5bf	0.20876215
211	0x3e654348	0.22388947
212	0x3ecf9d3a	0.40549642
213	0xbc82af14	-0.015952624
214	0xbd080d0e	-0.033215575
215	0xbe50c845	-0.20388897
216	0xbdf9078b	-0.12159642
217	0xbec873df	-0.39150903
218	0x3e2e6f5a	0.17034665
219	0xbe7d34b4	-0.24727136
220	0x3e858e60	0.26085186
221	0xbde425d2	-0.11140026
222	0xbe52bfcf	-0.20580982
223	0xbeda7f3d	-0.426752
224	0xbe4ffea7	-0.20311986
225	0xbdbdc16a	-0.092654064
226	0xbd58723e	-0.052843325
227	0x3f29d180	0.66335297
228	0x3e142dbd	0.14470573
229	0xbf489cd1	-0.7836428
230	0x3f0da39f	0.5532779
231	0x3f505c4b	0.8139083
232	0x3eb2f9d2	0.34956223
233	0xbcfc119c	-0.030770116
234	0x3e1aecb6	0.1512936
235	0x3d77a71a	0.060462095
236	0x3e2ee52c	0.1707961
237	0x3f2077da	0.6268288
238	0xbe50798d	-0.20358868
239	0x3f846a1d	1.0344883
240	0x3ea668de	0.32501882
241	0x3f0f1b10	0.5590067
242	0x3d82f789	0.0639487
243	0xbddfa8a6	-0.10920839
244	0xbcd62286	-0.026139509
245	0xbb553576	-0.0032533086
246	0x3e2c8ec7	0.1685134
247	0xbe3da0e6	-0.18518409
248	0xbe84a028	-0.2590344
249	0xbf3c1b2a	-0.7347895
250	0xbd37b748	-0.044852525
251	0x3e0c2a16	0.1368793
252	0xbf8a6441	-1.0811845
253	0x3e4aad77	0.19792734
254	0x3e73d340	0.23811054
255	0x3f5d19bf	0.8636741

lstm.bias_ih_l0 f4 [128]
0	0x3e2bb0c1	0.16766645
1	0x3e54f65b	0.20797102
2	0x3d4ddd2d	0.050259758
3	0x3da20168	0.079104245
4	0x3ce4d273	0.027932381
5	0x3ea87c9e	0.32907575
6	0x3dfc20d6	0.123109505
7	0x3ec36d0b	0.3816913
8	0x3e648902	0.2231789
9	0x3e24d87a	0.16098204
10	0x3c23da59	0.010000789
11	0x3e180346	0.14844999
12	0xbd8b6746	-0.06806807
13	0x3e548a71	0.20755936
14	0x3e6d118f	0.2315123
15	0x3e3c8ab5	0.18412288
16	0x3e136eea	0.14397779
17	0x3df9d8b4	0.12199536
18	0x3dcf7e64	0.10131529
19	0x3c076b79	0.00826537
20	0x3db6a844	0.08918813
21	0xbdbe3b26	-0.092886254
22	0x3cc2f68f	0.023799209
23	0x3dd5ec52	0.10445465
24	0x3e863391	0.26211217
25	0x3df9c776	0.12196247
26	0x3cd207aa	0.02563842
27	0x3eaceb1c	0.33773124
28	0x3db2476c	0.08705029
29	0x3e9b99d4	0.303908
30	0x3e988197	0.2978637
31	0x3e2fc358	0.17164361
32	0xbe57d0a4	-0.21075684
33	0xbbd0c837	-0.0063715237
34	0x3e460ebf	0.19341563
35	0x3e832664	0.25615227
36	0xbad6543e	-0.001635201
37	0x3e029ffc	0.12756342
38	0x3de9ac0b	0.11409768
39	0xbe22a65c	-0.15883774
40	0xbcad3ddb	-0.021147659
41	0x3c35c511	0.011094348
42	0x3d535a56	0.051599823
43	0x3db23522	0.087015405
44	0x3e58e92e	0.21182701
45	0x3d0c0aa9	0.034189854
46	0x3dbe337c	0.092871636
47	0xbdc11a07	-0.094287924
48	0x3d18d237	0.03730985
49	0x3c04cb37	0.008105091
50	0x3db13bc5	0.08653978
51	0x3e1ba8ae	0.15201065
52	0x3ccb1174	0.024788596
53	0x3e0f7c25	0.14012201
54	0xbc147a53	-0.0090623675
55	0xbd0561a9	-0.03256384
56	0x3e127eef	0.14306234
57	0xbd501d22	-0.050809033
58	0xbdf1228e	-0.11774169
59	0xbdb03fe3	-0.086059354
60	0x3e6849f9	0.22684468
61	0x3d7de9b5	0.06199046
62	0x3d82241a	0.06354542
63	0xbd3efaad	-0.04662578
64	0x3df3a48e	0.11896621
65	0xbe25e3b6	-0.16200146
66	0x3d817713	0.0632154
67	0x3db5badc	0.08873531
68	0x3e062df3	0.13103466
69	0xbe1ab975	-0.15109809
70	0x3b8ce7b6	0.004300083
71	0xbd4bcc09	-0.04975513
72	0xbdf1413f	-0.11780023
73	0xbdb55e3a	-0.08855863
74	0xbd2b4dd6	-0.041822277
75	0xbcbf0d52	-0.023321781
76	0x3dd3b1bb	0.10336634
77	0x3e04bc14	0.12962371
78	0x3d3ca78c	0.046058223
79	0x3d1e8006	0.03869631
80	0xbd9c2b97	-0.076255016
81	0x3e338a79	0.17533292
82	0x3db219d0	0.086963296
83	0x3e05aaec	0.13053483
84	0x3e0603b6	0.13087353
85	0x3da335f0	0.07969272
86	0x3e247576	0.16060433
87	0x3deaee97	0.11471289
88	0xbabbd418	-0.0014330177
89	0xbe1d6528	-0.1537062
90	0x3d1411ce	0.036149792
91	0x3e1e7843	0.15475564
92	0xbdc4ec16	-0.09615342
93	0x3d917cc6	0.07103877
94	0xbe4a4b61	-0.19755317
95	0xbd0917da	-0.033470012
96	0x3e72e29f	0.23719262
97	0x3e0bea4d	0.13663597
98	0x3e838958	0.25690722
99	0x3d288520	0.041142583
100	0x3c9f62b6	0.019456249
101	0x3ea24264	0.31691277
102	0x3e6f0bf4	0.23344404
103	0x3da86e0e	0.08224116
104	0xbd9a66ec	-0.07539162
105	0x3e866848	0.26251435
106	0xbd478684	-0.04871227
107	0xbdc15dc8	-0.094417155
108	0x3d485e20	0.04891789
109	0x3dc64d60	0.09682727
110	0x3e6f8a41	0.23392583
111	0x3e75c04c	0.23999137
112	0xbd8b5c81	-0.06804753
113	0x3e1b23f3	0.15150432
114	0x3dd61f13	0.10455146
115	0x3d108cd9	0.035290573
116	0x3e8893e2	0.26675326
117	0x3da1bcfd	0.07897375
118	0x3da4cf8f	0.08047401
119	0x3da9bdd6	0.082881615
120	0x3de294ad	0.11063514
121	0x3e073dc3	0.13207154
122	0x3e22a218	0.15882146
123	0x3da41c26	0.080131814
124	0x3db09c1c	0.086235255
125	0xbda1eb01	-0.079061516
126	0x3e20e4fb	0.15712349
127	0x3e724c35	0.23661883

lstm.bias_hh_l0 f4 [128]
0	0x3eb1e16d	0.347423
1	0x3e0f9d57	0.14024864
2	0x3e835537	0.2565095
3	0x3e43996f	0.19101499
4	0xbdc5fd2f	-0.096674316
5	0x3ece5961	0.40302566
6	0x3e158b76	0.14603981
7	0x3db2fbe4	0.087394506
8	0x3e20bf2f	0.15697931
9	0x3dc36d0d	0.09542284
10	0x3e17c381	0.14820673
11	0xbc9a52cd	-0.01883831
12	0x3e2ae0c5	0.16687305
13	0x3e0489b0	0.12943149
14	0x3df4131c	0.11917707
15	0x3e70f1ae	0.23529693
16	0x3e8631c0	0.2620983
17	0x3e81c9b7	0.2534921
18	0x3eaeea85	0.341633
19	0x3e1b52c1	0.15168287
20	0xbc9f7c55	-0.019468466
21	0x3e0669b7	0.13126265
22	0x3d8f610c	0.07000932
23	0x3d567a30	0.05236262
24	0x3dc85555	0.09781901
25	0x3e76c412	0.24098232
26	0x3ce12608	0.027483955
27	0x3dc26352	0.094916
28	0xbc87090c	-0.016483806
29	0x3e8218fb	0.25409684
30	0x3bdc0845	0.006714853
31	0x3e636a08	0.22208416
32	0xbe45b63b	-0.19307797
33	0xbd1e76ac	-0.038687393
34	0xbc5d0186	-0.013489133
35	0x3e7a323f	0.2443323
36	0x3ddc37f5	0.107528605
37	0xbdfe8f03	-0.12429621
38	0x3e074932	0.13211516
39	0xbd740e88	-0.05958417
40	0x3cff3b39	0.03115617
41	0xbd957305	-0.07297329
42	0x3dc76b84	0.09737304
43	0xbdb11e78	-0.086483896
44	0xbc9f8090	-0.019470483
45	0x3e721d68	0.2364403
46	0xbe5de0fb	-0.21667854
47	0x3e3ac1c2	0.18237975
48	0x3e55584a	0.20834461
49	0x3ded622b	0.1159099
50	0xbcc8887e	-0.024479147
51	0xba471354	-0.00075941277
52	0x3dbe3a08	0.09288412
53	0xbd620765	-0.055182833
54	0x3e3ea959	0.18619289
55	0x3dd8542c	0.105629295
56	0xbda2eb3d	-0.079550244
57	0xbdd1f206	-0.102512404
58	0xbdcbc493	-0.09949603
59	0xbd62abf0	-0.055339754
60	0x3ca08a18	0.019597098
61	0x3e19ffe5	0.15039022
62	0xbc91f571	-0.01781723
63	0x3ba5aa0d	0.005055672
64	0x3d58afd8	0.052902073
65	0x3db5c80a	0.08876045
66	0x3d939a01	0.07207108
67	0x3dee7662	0.116436735
68	0x3dc25fb7	0.094909124
69	0x3dbdce34	0.09267846
70	0x3e528678	0.20559108
71	0xbcf1828f	-0.0294812
72	0x3c290da4	0.010318194
73	0xbda69747	-0.081343226
74	0xbdabe56b	-0.083933674
75	0xbb760b65	-0.0037543413
76	0x3b66193a	0.003511025
77	0x3d9a0f91	0.075225
78	0xbd260de2	-0.040540583
79	0x3c738d4d	0.014865232
80	0x3e068161	0.13135292
81	0x3e0df110	0.1386149
82	0x3caecccd	0.021337891
83	0xbaf6be64	-0.0018825051
84	0x3e2ccbe5	0.16874655
85	0xbe332ea5	-0.17498262
86	0x3e1bdfe6	0.15222129
87	0xbdf33c62	-0.118767515
88	0xbe3e68dd	-0.1859469
89	0xbe0e2a16	-0.13883242
90	0xbdb4ce3d	-0.08828399
91	0x3e0ed3d6	0.13947996
92	0xbe240286	-0.16016588
93	0xbe2e5894	-0.17025977
94	0x3e05e1c4	0.13074404
95	0xbd98767a	-0.074444726
96	0x3dfedfd2	0.12445034
97	0xbde31bc0	-0.11089277
98	0x3e8a89d8	0.2705829
99	0x3e7db88b	0.24777429
100	0xbda2242f	-0.07917058
101	0x3e8a1df9	0.26975992
102	0x3e2a1d57	0.16612755
103	0x3e9c6b69	0.30550697
104	0xbd5a0e27	-0.053236153
105	0x3e3d53c0	0.1848898
106	0xbd55fa7f	-0.052240845
107	0xbcbd1fd7	-0.023086471
108	0x3e0e631a	0.13904992
109	0x3d960862	0.07325818
110	0x3e56a2b2	0.20960501
111	0x3db54ac2	0.088521495
112	0x3e660a8b	0.2246496
113	0xbc832a53	-0.016011393
114	0x3e70310c	0.2345621
115	0x3e3fdbae	0.18736145
116	0x3e07dd32	0.13267973
117	0xbd466de2	-0.048444636
118	0x3e037c58	0.12840402
119	0xbd81c275	-0.06335918
120	0x3e186793	0.1488326
121	0x3e92071b	0.28521046
122	0x3e654bb2	0.22392157
123	0x3e9df91f	0.30854127
124	0x3e9f5e9f	0.31126878
125	0x3e004c7b	0.12529175
126	0x3e076e59	0.13225688
127	0x3e8be639	0.27324083

fc.weight f4 [96, 32]
0	0x3e296ebc	0.16546148
1	0x3eca9a3a	0.3957079
2	0xbe7f8cd5	-0.24956067
3	0xbe9ff4ca	-0.31241447
4	0xbece7d69	-0.40330055
5	0xbd8b2c2a	-0.06795533
6	0xbe6e5356	-0.23273978
7	0xbe16c079	-0.1472186
8	0xbe9efb3a	-0.31051046
9	0x3dc07bef	0.093986385
10	0xbeae6781	-0.34063342
11	0xbe8514df	-0.25992486
12	0x3e6987d6	0.22805724
13	0xbe1b4000	-0.15161133
14	0x3d334673	0.043768357
15	0xbe8565ab	-0.2605413
16	0xbe9fae97	-0.3118789
17	0xbec95dcb	-0.3932937
18	0xbeb314a8	-0.34976697
19	0x3e7da85b	0.24771254
20	0xbe9a16ab	-0.3009542
21	0x3e299fd5	0.16564877
22	0xbe6e2b78	-0.2325877
23	0x3e7621e7	0.2403637
24	0x3e8b0687	0.27153417
25	0x3d4004c7	0.046879556
26	0x3e89da81	0.26924518
27	0xbe8c4afb	-0.27400956
28	0x3ee6b318	0.45058513
29	0x3eaeb78a	0.34124404
30	0x3ef32a58	0.47493243
31	0xbeaa2627	-0.33232233
32	0x3f00ebaa	0.50359595
33	0xbe4d4e7e	-0.20049474
34	0xbe3a548b	-0.18196313
35	0x3c84c047	0.016204966
36	0x3ee17143	0.44031724
37	0xbf3b650e	-0.7320107
38	0xbd53334b	-0.05156259
39	0x3f49e257	0.7886099
40	0x3ebbeca6	0.36703986
41	0xbebd3c41	-0.36960033
42	0x3eb4f8eb	0.3534616
43	0xbe9e8020	-0.30957127
44	0xbebc61d6	-0.36793393
45	0x3e26ae78	0.16277492
46	0xbf534f46	-0.82542837
47	0x3ece80a3	0.40332517
48	0x3e59c7ae	0.21267578
49	0xbf8222cd	-1.016687
50	0xbe394fba	-0.1809682
51	0xbdf6ceca	-0.12051161
52	0x3d1f8084	0.03894092
53	0xbec008c7	-0.37506697
54	0xbea56326	-0.32302207
55	0xbe82fc14	-0.25582945
56	0xbe4603ee	-0.19337437
57	0x3ec6051b	0.3867577
58	0xbe8d0203	-0.27540597
59	0xbe57eb69	-0.21085896
60	0xbf1c91f8	-0.6116023
61	0xbed4c321	-0.41555122
62	0x3f61831e	0.88090694
63	0x3f500b43	0.81267184
64	0x3ebb185e	0.36542028
65	0x3efdc4bb	0.49564156
66	0xbea12c48	-0.31479096
67	0xbda4a91b	-0.08040067
68	0xbec95e1a	-0.39329606
69	0x3d24e4f2	0.0402574
70	0xbe54613b	-0.20740215
71	0xbe8a9413	-0.27066097
72	0xbe09383c	-0.13400358
73	0x3e2b7075	0.16742118
74	0xbe6a928e	-0.22907469
75	0xbe857dce	-0.26072544
76	0x3ebbe14e	0.3669533
77	0xbdbf67f3	-0.093459986
78	0x3e0888e7	0.13333474
79	0xbea436ec	-0.32073152
80	0xbe81d7fd	-0.25360098
81	0xbe9baa17	-0.30403206
82	0xbec7be89	-0.39012554
83	0x3e33588e	0.1751425
84	0xbeac92a6	-0.33705634
85	0x3d6d77c4	0.057975546
86	0xbeb663ea	-0.35623103
87	0x3ed1c591	0.40971044
88	0x3e94e8d8	0.29083896
89	0xbd2f07cd	-0.04273205
90	0x3e7181e7	0.2358471
91	0xbe3d134b	-0.18464391
92	0x3e4d3e33	0.20043258
93	0x3e13e6ca	0.14443508
94	0x3eb36d7a	0.3504446
95	0xbe03a87e	-0.12857243
96	0x3ea67331	0.3250976
97	0x3eb129fd	0.34602347
98	0xbecf05c1	-0.40434077
99	0xbdc12807	-0.09431463
100	0xbebfd7c4	-0.37469304
101	0xbd2113ec	-0.03932564
102	0xbe16dc38	-0.14732444
103	0xbd312983	-0.04325248
104	0xbe7bff56	-0.24609122
105	0x3db304b5	0.08741132
106	0xbe9099e5	-0.28242412
107	0xbeb8f6ab	-0.36125693
108	0x3e03e8db	0.12881796
109	0xbe214f2e	-0.15752861
110	0x3e3082e8	0.17237437
111	0xbeb6a268	-0.3567078
112	0xbe285acb	-0.16440885
113	0xbecef345	-0.40419975
114	0xbecc7b28	-0.3993771
115	0x3e555e6a	0.20836797
116	0xbeddd71f	-0.43328187
117	0x3e15b258	0.14618814
118	0xbe0c0602	-0.13674167
119	0x3e77e5a9	0.24208702
120	0x3ecdad14	0.4017111
121	0x3d598555	0.05310567
122	0x3db897b2	0.090133086
123	0xbe598b6b	-0.2124459
124	0x3e6ef54f	0.23335765
125	0x3eadd7c0	0.33953667
126	0x3e9b42a9	0.30324295
127	0xbe82736f	-0.25478694
128	0x3e413879	0.18869199
129	0x3ef55896	0.47919148
130	0xbe9fb057	-0.31189224
131	0xbea1ce13	-0.31602535
132	0xbe0fd5bd	-0.14046378
133	0x3df892d6	0.12137382
134	0xbebcc837	-0.36871502
135	0xbe5429fd	-0.20719142
136	0xbe977efc	-0.2958907
137	0x3e0239e1	0.12717392
138	0xbe8a5c81	-0.270237
139	0xbdf9248d	-0.12165175
140	0x3e2cd80b	0.16879289
141	0xbe29c20f	-0.16577934
142	0x3e80c9fe	0.25154108
143	0xbe9f01c4	-0.31056035
144	0xbd5ea40d	-0.05435567
145	0xbe80f016	-0.2518317
146	0xbe2aee1b	-0.16692393
147	0x3e17eec0	0.1483717
148	0xbeaf5119	-0.3424156
149	0x3e224be9	0.1584927
150	0xbd9826da	-0.07429285
151	0x3ed3af53	0.413447
152	0x3dd3e338	0.10346073
153	0x3d81e342	0.06342174
154	0x3e19bf64	0.15014416
155	0xbe5fa097	-0.21838604
156	0x3e9df53b	0.30851158
157	0x3e9d3242	0.30702406
158	0x3ea4ed89	0.32212475
159	0xbd64ffcf	-0.05590802
160	0x3eb97e70	0.36229277
161	0x3ec4f2c0	0.38466454
162	0xbea5d992	-0.32392555
163	0xbe94ca22	-0.29060465
164	0xbed187f1	-0.40924028
165	0x3c90634d	0.017625475
166	0xbe9e671d	-0.30938044
167	0xbd1de5de	-0.038549297
168	0xbecab4dc	-0.3959111
169	0x3db1ceb1	0.086820014
170	0xbe059180	-0.13043785
171	0xbe9ac679	-0.30229548
172	0x3e35441e	0.17701766
173	0xbe762e81	-0.24041177
174	0x3e51203a	0.2042245
175	0xbd9596da	-0.07304163
176	0xbeafe9b0	-0.34357977
177	0xbe325f2a	-0.17419115
178	0xbec5d41e	-0.38638395
179	0x3eacd256	0.33754224
180	0xbe2f6860	-0.1712966
181	0x3de9ff8e	0.11425696
182	0xbec12c49	-0.377291
183	0x3ea579c0	0.3231945
184	0x3e6fd872	0.23422411
185	0x3d1df80b	0.03856663
186	0x3e8eb586	0.27872866
187	0xbe31f374	-0.17378026
188	0x3ecba87e	0.39776987
189	0x3e9661a8	0.2937138
190	0x3ef0aadb	0.47005352
191	0xbdea8d04	-0.11452678
192	0x3e9ffb52	0.3124643
193	0x3e953a8f	0.2914624
194	0xbe3b1491	-0.18269564
195	0xbeaca44e	-0.33719105
196	0xbe0d0f4a	-0.13775364
197	0x3ca7e174	0.020493247
198	0xbe15ff06	-0.14648065
199	0xbe42309e	-0.18963858
200	0xbe4d7036	-0.20062336
201	0x3ec992f3	0.39369926
202	0xbeae4328	-0.3403561
203	0xbeb80a50	-0.35945368
204	0x3e35198c	0.17685527
205	0xbe0ebfb9	-0.13940324
206	0x3e1d8f76	0.15386757
207	0xbe317b1b	-0.17332117
208	0xbe8e53da	-0.2779835
209	0xbe187277	-0.14887415
210	0xbe75bf5c	-0.23998779
211	0x3e20a0a9	0.15686287
212	0xbe96402d	-0.29345837
213	0x3e67b37b	0.2262706
214	0xbe845df3	-0.25852928
215	0x3e317e2d	0.17333288
216	0x3e2227be	0.15835473
217	0x3a403df7	0.0007333452
218	0x3ec59798	0.3859222
219	0xbe2a73b9	-0.16645707
220	0x3ee9c150	0.45655298
221	0x3e6985c7	0.22804938
222	0x3ea9a80b	0.3313602
223	0xbe615932	-0.22006682
224	0x3d1e3d9f	0.038632985
225	0x3d2ba462	0.041904815
226	0xbdf961d3	-0.121768616
227	0xbea71157	-0.32630417
228	0xbe8a77d5	-0.2704455
229	0x3ec95e5e	0.3932981
230	0xbcd9a808	-0.026569381
231	0xbebe33c7	-0.37148878
232	0xbe3fbbd8	-0.18724
233	0x3e13a4c2	0.14418319
234	0xbe6ca0a2	-0.23108152
235	0xbe94cada	-0.29061013
236	0x3c7dfd1a	0.015502239
237	0xbce99e25	-0.028517792
238	0x3f009490	0.5022669
239	0xbed72727	-0.42022058
240	0xbe9b3a18	-0.3031776
241	0xbedea951	-0.43488553
242	0xbd9c4a8c	-0.07631406
243	0x3d68ad82	0.056806095
244	0xbdbdbcd7	-0.09264534
245	0x3e213d29	0.15745987
246	0xbec08288	-0.37599587
247	0x3dc2e938	0.09517139
248	0x3ee89bbc	0.45431316
249	0x3ea2875d	0.317439
250	0x3d8745e7	0.0660513
251	0x3dcd06a7	0.100110345
252	0x3eb16f5c	0.34655273
253	0x3d84f01b	0.06491109
254	0x3d767d25	0.06017794
255	0xbe1e19f3	-0.15439586

fc.bias f4 [96]
0	0xbe7cdf2b	-0.24694507
1	0x3e75e2a7	0.24012242
2	0xbe0491ba	-0.12946215
3	0xbe975620	-0.29557896
4	0xbe5da6fd	-0.21645732
5	0xbeb25e89	-0.3483775
6	0xbdaa7564	-0.08323172
7	0xbdd5c870	-0.10438621
8	0xbd38e739	-0.045142386
9	0xbcb3c260	-0.021943271
10	0xbea7a1de	-0.32740682
11	0xbebc9917	-0.36835548
12	0xbe4adb7c	-0.19810289
13	0xbcdcdfbc	-0.026962154
14	0xbd815632	-0.063152686
15	0xbede1998	-0.433789
16	0xbe6b0a7e	-0.22953221
17	0xbe7909f1	-0.24320199
18	0xbe34e928	-0.17667067
19	0xbe82f5cd	-0.25578156
20	0xbe9afe4a	-0.30272132
21	0xbe03d4ad	-0.12874098
22	0xbd9ecdef	-0.077541225
23	0xbe62eb4d	-0.22160073
24	0xbd3d9670	-0.046286047
25	0xbea9315e	-0.33045477
26	0xbe8fc25c	-0.28077972
27	0xbeae5077	-0.34045765
28	0xbca228e0	-0.019794881
29	0xbeaa0842	-0.33209425
30	0xbd693ea0	-0.05694449
31	0xbe774c3d	-0.24150176
32	0xbe02bd70	-0.12767577
33	0xbcfc7e76	-0.03082202
34	0xbe0a7331	-0.13520505
35	0xbeab22ff	-0.33425137
36	0xbe5197ae	-0.20468017
37	0xbcb4e509	-0.022081869
38	0xbe9856f8	-0.29753852
39	0xbe08a9cb	-0.13346021
40	0xbea617dd	-0.3244008
41	0xbd7d795f	-0.061883327
42	0xbd918ed0	-0.071073174
43	0xbce6b69f	-0.028163252
44	0x3cc98a61	0.024602117
45	0xbde7c7d1	-0.11317409
46	0x3db7a61b	0.08967229
47	0xbe6fba1d	-0.2341084
48	0xbda30036	-0.079590246
49	0xbdeec5c6	-0.11658816
50	0xbd3b7806	-0.04576876
51	0xbe95539c	-0.2916535
52	0x3e8563dc	0.2605275
53	0x3de793bc	0.11307475
54	0xbea5ea17	-0.3240516
55	0xbe570449	-0.20997728
56	0x3e161d75	0.14659674
57	0xbeb1289e	-0.346013
58	0xbe3ad887	-0.18246661
59	0xbea22703	-0.3167039
60	0xbde69662	-0.11259152
61	0xbe8bfa0c	-0.27339208
62	0xbe7d6cf1	-0.24748589
63	0xbe457c0a	-0.19285598
64	0xbbf41de5	-0.007449853
65	0xbea12582	-0.3147393
66	0x3e0abfb1	0.13549687
67	0x3df509d1	0.11964763
68	0x3dc46772	0.09590043
69	0x3d0b4880	0.03400469
70	0x3e868b9f	0.26278397
71	0x3e870ad7	0.26375458
72	0x3b6b0943	0.0035863675
73	0x3e726165	0.23669966
74	0x3e586d4c	0.21135443
75	0x3e1ed77e	0.15511891
76	0x3ce24fb4	0.027625896
77	0x3d17fc10	0.03710562
78	0x3dedb9f9	0.11607737
79	0xbc6c8e20	-0.014438182
80	0x3ea228fe	0.316719
81	0x3e796314	0.24354202
82	0xbdff2c7e	-0.12459658
83	0x3d2cd284	0.04219295
84	0x3e283dc5	0.16429813
85	0x3dbe012c	0.09277567
86	0xbc0eb3d7	-0.008709869
87	0xbe15fabb	-0.14646427
88	0x3e8bb2d8	0.27284884
89	0xbe19eb29	-0.15031113
90	0x3e494c46	0.19658002
91	0x3c2258a1	0.009908826
92	0xbe4477d8	-0.19186342
93	0xbd099b3b	-0.033595305
94	0xbdca37d2	-0.09873928
95	0xbea6fa74	-0.32612956
