checkpoints_qa/sum_tok_ner_epoch_8.pt (torch, 262893 bytes, 7 tensors)

embedding.weight f4 [96, 256]
00000000: be6e 97be c894 78bf c1ed 95bf 60d8 08c0
00000010: f8a2 15be cb83 0e3f 50a8 d0bf b2c0 c3bf
00000020: 797b 05bf de90 813f fee2 c23f dce9 3bbf
00000030: 7d8d 7b3e 6670 363e e52b 733f eb59 15c0
00000040: 89e7 8dbf b6aa 81be 32b5 8ebe 1e08 633f
00000050: 43e4 d83e 78ef ccbc 97b1 5d3f 981e 3fbf
00000060: 7777 bcbe e3ae 4cbf a419 953e 92d6 7abf
00000070: cfd6 dc3e ff7e aa3f e18a 33bf 80fe b23e
00000080: f199 2a3f e665 cf3f 9733 65be 6dba babf
00000090: effd 833f 611c cabf c535 fe3e 6631 7f3f
000000a0: 907b 85bd cdc4 8ebe 13de 473f e2f3 633f
000000b0: a9ab d2bf c254 cdbe 27d7 40bf 3baf 00c0
000000c0: 92cb 463f 781e da3c dc9c b13e 71ab 273f
000000d0: fbfa f73f 824f b33f cbfd 70bf 1923 2ebf
000000e0: c4b4 cbbf 8cfd 673e 9612 0cbf 66f6 7d3f
000000f0: ae90 a5be 0305 13c0 809d 96bf 65d8 5a3f
00000100: ed98 d43e f890 c23f f1a4 78be 8c72 0940
00000110: fe31 383f e34a aebf d3ee 453f e16f 07c0
00000120: 9b32 c6bf 3a4d b6bf d04d 9ebf 655f f73f
00000130: 6f45 853e 2576 89bf 1f47 cbbf 15e6 08bf
00000140: 2a83 99be bb10 863f d188 ffbd f3ee 053f
00000150: 0abd e23f 281a e6be 36fa 2a3d aaef f0bf
00000160: 9f1a 21bf 9fff a93f b93c 81bf d1cd 66bd
00000170: cc7a 88bf d994 8c3e 4eec 71bf 178b 82bf
00000180: 250d d4be 22c1 f03f 0453 5dbe 1759 813f
00000190: ed76 00bf b2d2 b93e 8c73 b1bf d240 5e3e
000001a0: 7144 4a3f 88f7 09c0 afc7 a6be 3f15 d53e
000001b0: ecd2 fcbe 3ead 843e 1b1e 9ebf 8870 03c0
000001c0: c03d ae3d b6f4 02bf a61f b03f afaf d6be
000001d0: 3316 d3bf e509 ef3e 0462 e73f f132 013f
000001e0: b989 903e d18d 67bf e04c e53d 3706 6d3f
000001f0: a001 833e eac4 8abf b008 933f c1b5 f6be
00000200: 1d89 a23e fa14 a1be a1aa 653e 5a6a 123f
00000210: 052a 12bf 87fe 0a3e 88d5 16bf 9f9b 643f
00000220: 5574 44bf 3d53 7fbf d885 303e cde5 febe
00000230: 9b56 573f 883d 1dbf 5d20 a33f 2ec3 f8be
00000240: 958e 18bf eb06 963f 8138 2cbf 8b88 4a3f
00000250: 9ca8 61be 764a 163e 2c6d 413e 1777 5ebf
00000260: c3e1 ba3f afd6 383d 21d8 b53f a08f d2be
00000270: 67d8 103f dd0d 313f f0e7 cf3f 3f65 533f
00000280: 8fa1 b7bf 0ae3 b1be 16e1 2ebe 1927 0ac0
00000290: 8e03 98bd 0acb 14bf 8cec 833f 18a6 173f
000002a0: 4487 12bf e37a 96bf ad37 0f3f 8a5d 463e
000002b0: 0251 503f 556b 6e3d d536 99bf c9ee 33bf
000002c0: b39e 0cc0 b3d0 693e 13d5 9fbf 3ca9 9b3f
000002d0: 85e4 473f e4ef dbbf bb2a a93f 6dff e23e
000002e0: d0d6 6a3f a977 3c3d 0980 a8bf cbb7 08bf
000002f0: 750f 1c40 ad48 d23d 306a 523e 322e b83f
00000300: 1226 c5bf e1ba 063f ebb2 80bd e7f1 953f
00000310: 07ca f43e e504 7ebd 6c16 c4bf 10a0 13bf
00000320: dfbf 503e ddd8 423f bc25 8a3e f10b 9c3e
00000330: fb22 9d3e 4f27 26be 8fa8 2f3f 8401 953f
00000340: 18f4 2c3e a400 66bf 8f78 d5be 8d11 543e
00000350: 548c 0f3f 67b2 f1be 59b3 353f ac73 be3f
00000360: c745 d53e c53d 1f3f 39c9 f93e fa5b 9a3e
00000370: 3a8c 03c0 bb3b 0fbe f95c 92bf c546 31bf
00000380: 8d5e e4bf 5b7d b53e c22c 76bf 10f7 33bf
00000390: 2ade 643e b8f3 79bf 191d 803e d608 3a40
000003a0: 8937 3b3e 39b8 023f da73 5e3e 70a6 db3b
000003b0: 3336 d43f 9811 e9bd de54 d43f cd98 563e
000003c0: 4e41 0dc0 bc4b 39bf 34ba b73e e0e9 0c3f
000003d0: bdec 1f3e cd0f 4fbf e6c8 b8be 272f 1abf
000003e0: e719 843e b46a 443f 70bb a23e aacc b6bd
000003f0: 3804 adbe e0ce 8dbf dc52 bfbe 5ea2 713f
-0.29576677 -0.9710202 -1.1713182 -2.1382065 -0.14612949 0.5566985 -1.6301365 -1.5293181
-0.5214153 1.0122335 1.5225523 -0.73403716 0.24565692 0.17816314 0.9498885 -2.3336132
-1.1086284 -0.25325555 -0.27872616 0.8868426 0.4236165 -0.025016531 0.86599106 -0.7465606
-0.36809894 -0.79954356 0.29121125 -0.9798366 0.43132636 1.3320006 -0.7013379 0.34959793
0.66641146 1.6202972 -0.22382961 -1.4588143 1.0311869 -1.578991 0.49650398 0.9968475
-0.06517708 -0.27884522 0.78073233 0.8904401 -1.6458637 -0.40103728 -0.75328296 -2.0106952
0.77654374 0.026625857 0.34689987 0.65495974 1.9373468 1.4008639 -0.9413726 -0.68022305
-1.591454 0.22655314 -0.5471586 0.992041 -0.32336944 -2.297181 -1.1766815 0.8548644
0.41522923 1.5200491 -0.2428167 2.1476164 0.7195128 -1.3616604 0.7731754 -2.1162035
-1.5484194 -1.4242318 -1.2367496 1.9325987 0.26029536 -1.073918 -1.588108 -0.5347608
-0.29982883 1.0473856 -0.124772675 0.5231773 1.771394 -0.4494183 0.041742526 -1.882314
-0.62931246 1.3281134 -1.0096656 -0.056348626 -1.0662475 0.27457312 -0.945012 -1.0198697
-0.41416278 1.880894 -0.21613699 1.0105313 -0.50181466 0.3629356 -1.3863387 0.21704414
0.79010683 -2.155733 -0.32574221 0.41617772 -0.4937967 0.25913423 -1.2352937 -2.0537434
0.08507872 -0.5115465 1.3759658 -0.4193091 -1.649115 0.46687236 1.8076787 0.50468355
0.28230074 -0.9045077 0.11196303 0.9258761 0.25587177 -1.0841343 1.1487026 -0.48185542
0.31745234 -0.31461316 0.22428371 0.5719353 -0.57095367 0.13573657 -0.5891957 0.8929996
-0.7674001 -0.99736387 0.17238557 -0.497847 0.84116524 -0.61422014 1.2744251 -0.4858641
-0.5959256 1.1720861 -0.6727372 0.791146 -0.22036976 0.14676842 0.18889302 -0.86900467
1.4600147 0.045126613 1.4206582 -0.41125202 0.56580204 0.6916178 1.6242657 0.82576364
-1.4346179 -0.3474353 -0.17078051 -2.1586363 -0.07422553 -0.58122313 1.0306563 0.59237814
-0.5723765 -1.1756252 0.5594433 0.1937162 0.8137361 0.05820783 -1.1969858 -0.7028623
-2.1971862 0.22833519 -1.24869 1.2161021 0.7808307 -1.7182584 1.3216165 0.443355
0.9173403 0.046012554 -1.3164073 -0.53405446 2.4384434 0.10267768 0.2054832 1.4389098
-1.5402243 0.52628905 -0.06284126 1.1714448 0.47810385 -0.062016387 -1.5319343 -0.5766611
0.20385693 0.7611216 0.26981914 0.3047786 0.3069075 -0.16225933 0.68616575 1.1641088
0.1688999 -0.8984473 -0.4169354 0.2070982 0.560735 -0.47206423 0.7097679 1.487905
0.41654798 0.6220363 0.48786333 0.30148298 -2.0554338 -0.13987629 -1.1434623 -0.6924861
-1.7841355 0.354472 -0.96162045 -0.7029886 0.22350374 -0.9763751 0.250222 2.9067893
0.18282904 0.5106235 0.21723881 0.0067031905 1.657904 -0.11380309 1.65884 0.20956726
-2.207111 -0.72381186 0.3588425 0.55044365 0.15617652 -0.80883485 -0.36090773 -0.602282
0.25801012 0.76725316 0.31783628 -0.08925755 -0.3379228 -1.1078758 -0.37367904 0.9438838

lstm.weight_ih_l0 f4 [128, 256]
00000000: 8351 4f3e fbc8 e43b 973a 353d fc2d 223d
00000010: 97b0 7e3d a5cf ba3d 75d7 113e e113 13bd
00000020: f0c7 fc3d e0d7 fe3d 0100 213d fc6a febc
00000030: 41fa c03d 8d8e df3d 6a46 923d 351e 1f3c
00000040: baa0 323d 2fbe e53d e448 a0be 9c9c 543c
00000050: c95e 7a3c 832e 643d 126a 6a3e 62a4 fc3c
00000060: bc12 833e faca a73d 9ea0 b63d 1727 bdbd
00000070: 9ed3 533d 8d9e e0bd 3ce0 133e 947f 1dbe
00000080: b507 0dbe e0b0 413b 761c fe3d 1630 223e
00000090: 5ead 0b3e 6ae1 293e 9ddc 30be 53c3 bf3d
000000a0: 8fed 07bd 40b8 b73d 130f 2b3e 1221 793c
000000b0: e69b bf3d 57d1 bd3d 03a2 043e d989 0e3e
000000c0: 17e0 e3bc 81dc 75bd 2bc2 8a3d 61d6 bcbd
000000d0: 1e65 333e f938 10bd 1595 60be 8fab 4439
000000e0: 82b6 26be e3dd 01be 244b f1bd 1696 d2bd
000000f0: 4ebe 96bd 46dd d1bc d894 83be 61ae 80be
00000100: 2e76 6fbe cdb4 a23d b080 febd bc8c 953d
00000110: 731e 2ebd c9cc 3cbe 024f d23b 293e fbbc
00000120: db97 5b3e d083 9ebc 7b2f 7e3d 4355 0fbe
00000130: 3de2 703d be52 383e 872a c5bd a6d5 d9bd
00000140: aae0 f93d ec41 2cbd 2652 a9bb 503f 763e
00000150: 3b1c 0ebe 9c07 0fbd 6c0d 3d3e 77f5 16be
00000160: 9e49 1bbe b482 4f3d 010b bf3d a2e8 183e
00000170: f800 d9bc 8e46 453e 112c a13d b958 b3bd
00000180: 3232 e4bc 0b80 2c3c 8ebb c2bd ab4e 8b3d
00000190: 3cf4 123d 672e 0c3e c731 503e c349 48be
000001a0: ebab 94bd 4c74 40bd c2f0 653e 939d 9e3c
000001b0: 1b20 e23d 3147 e8bd 0b0b 24bd bae8 67be
000001c0: 4e89 493e 9f69 84bd e528 80be 3f2c 083d
000001d0: 26e2 1a3d acdd a33d 7f39 053d 38d1 99bc
000001e0: 82a1 593e 3861 2d3e 4ecf 013d 776e fc3c
000001f0: 5da0 323b 65e9 03be 4f95 33bd e7f3 ff3c
00000200: d1a2 2fbe 5b9d 47bd ae71 a7bd c9cc e73d
00000210: f977 41bd 3b4f a43c bd08 2c3e 95af d33e
00000220: a6af 5d3e 5bb2 48bd 384c 843d 1fcc 9abd
00000230: f9a2 bd3b 8eee 863e ba4f e93d 9148 b83d
00000240: 4c85 d33c 7e7e 9cbe e6f0 34bd 1d37 dc3d
00000250: 278f a73e c3cb 273e 4dae f33b 18b1 57bd
00000260: 9dc0 3fbe 8829 363e c37a 4d3e 36a6 92bd
00000270: e63c 8ebe dc14 053e ec1a 33be b93a 513e
00000280: 7378 8dbc 132c 3bbd 6ff7 9e3d 5445 433e
00000290: d37d 18be 0908 43be b99c aebd 6012 da3d
000002a0: 2007 073d 5c56 2d3e 1c73 6bbe b95b b4bd
000002b0: c988 373d eb44 09be fe2a 293d f686 0bbe
000002c0: b8ad 26be 5592 8dbe d0ba 483e f127 26be
000002d0: db6c 28be 1ffc c0bd e538 68bd 8a52 463e
000002e0: b442 9cbb 3cc4 593d f9dd bcbd ee73 163d
000002f0: b34f 49bd 84d1 56bd a5fa a4bd 23c9 b33d
00000300: d8af 303d fc64 073e bd5a 253d 4016 6d3e
00000310: 0301 133e 038a 5dbe 96fb 263e 3133 c1bd
00000320: a216 843d c649 163d ddb2 8fbe fb1d 11be
00000330: 1618 10be 5add 19bd c9ac 1fbd b36b 433e
00000340: 7893 1c3e 09a8 843d b54d 53be 2ca1 4b3d
00000350: b1e6 3c3e 7bd5 31be ed81 11be 6483 273e
00000360: 2b0b 893d 8721 4e3e f9b1 be3d eb0e b03c
00000370: 53cb d0bd f56b 82be 30db 79bd 174f b03d
00000380: 818e 343e 1d5a a03c 7dda 48bc aba9 a53d
00000390: 9aea 34be 1432 0c3e 9384 e43d 4701 7d3d
000003a0: fc27 14bd 94b7 92bd 25f7 943d 3f92 e03d
000003b0: 6ad1 e83d dbe9 42be cfa9 143e e706 9cbd
000003c0: 4927 903d 964d cabd 7beb 7a3d 9fac 64be
000003d0: 422c 3d3e 2a11 89bd 2d1a e03c 707e e03d
000003e0: 599e 82be a83c 1fbd e380 993d 841f cb3c
000003f0: 4c97 c43d 7fb7 70bd 3048 a7bd c469 fcbc
0.20245938 0.0069819666 0.04424533 0.039594635 0.062180128 0.09121636 0.14242347 -0.03590763
0.123428226 0.12443519 0.039306644 -0.031056874 0.09422732 0.10915861 0.07142337 0.009711792
0.043610312 0.11217915 -0.3130561 0.012976792 0.015281388 0.05570842 0.22892025 0.030840103
0.2560023 0.081930116 0.08917354 -0.092359714 0.051715486 -0.10967741 0.14441007 -0.15380698
-0.13772471 0.0029554889 0.12407772 0.15838656 0.13640353 0.16589895 -0.17271657 0.09363427
-0.033185538 0.0897069 0.16704969 0.0152056385 0.09355907 0.09268444 0.12952428 0.13919772
-0.027816815 -0.060024742 0.06775316 -0.09220577 0.17519042 -0.035210583 -0.2193187 0.00018755927
-0.16280559 -0.126823 -0.1178191 -0.10282533 -0.073605165 -0.025618207 -0.25699496 -0.2513304
-0.23384926 0.07944641 -0.12426889 0.073022336 -0.042509507 -0.18437494 0.00641811 -0.030669289
0.21444647 -0.019349962 0.062057 -0.13997369 0.058809508 0.18000314 -0.09627252 -0.10636453
0.122010544 -0.042055055 -0.0051672636 0.2404759 -0.13877957 -0.034919366 0.18462151 -0.14742075
-0.15164801 0.050661758 0.09328271 0.14932492 -0.02648972 0.19265196 0.07869733 -0.08757157
-0.027855966 0.010528575 -0.095084295 0.06802114 0.03587745 0.13689576 0.20331489 -0.19559388
-0.07259353 -0.04698591 0.22455123 0.019362247 0.1104128 -0.11341704 -0.040049594 -0.22647372
0.19681284 -0.06465458 -0.250312 0.03324532 0.03781333 0.08001265 0.032525536 -0.018776521
0.21253017 0.16931617 0.03169184 0.030814392 0.0027256228 -0.12882002 -0.043843564 0.031244231
-0.17151953 -0.04873405 -0.081759796 0.113183565 -0.047233555 0.020057311 0.16800208 0.41344896
0.21649036 -0.048998218 0.0645985 -0.07558464 0.00578725 0.26353878 0.1139216 0.08998216
0.025820397 -0.30565256 -0.04417505 0.107526995 0.32726404 0.16386323 0.0074365498 -0.052659124
-0.1872582 0.1778928 0.20066361 -0.071606085 -0.27780837 0.12996238 -0.17490739 0.20432557
-0.017269349 -0.04569633 0.07762038 0.19069415 -0.14891748 -0.19046034 -0.08525986 0.10648036
0.03296578 0.16927475 -0.2299313 -0.08806557 0.044808183 -0.13405196 0.041300766 -0.13625702
-0.16277206 -0.27650705 0.19602513 -0.16226174 -0.16447775 -0.09423088 -0.056694884 0.19367424
-0.004768694 0.05316566 -0.092220254 0.036731653 -0.049148273 -0.052445903 -0.08055619 0.08778598
0.043136448 0.13222116 0.040369738 0.23153019 0.14355855 -0.21634679 0.1630691 -0.09433592
0.06449629 0.03669145 -0.2806615 -0.14171593 -0.14071688 -0.037564613 -0.03898314 0.19084053
0.1529063 0.06477363 -0.20635112 0.049714252 0.18447377 -0.17366593 -0.14209719 0.16358715
0.06691583 0.20129977 0.09311289 0.021491488 -0.10195031 -0.2547299 -0.06100005 0.08608835
0.17632486 0.01957422 -0.012259123 0.08089002 -0.17667618 0.13690978 0.11158099 0.061768796
-0.036170945 -0.07163921 0.072737016 0.10965394 0.113680676 -0.19034521 0.14517902 -0.07618504
0.07038743 -0.098780796 0.061259728 -0.22331475 0.18473914 -0.06692727 0.027356232 0.10961616
-0.25511435 -0.038876206 0.07495286 0.024795301 0.0959917 -0.058768746 -0.081680655 -0.030812152

lstm.weight_hh_l0 f4 [128, 32]
00000000: 53aa 003f 25fa f2bd 4279 0bbe 7d91 b3bc
00000010: f627 1e3f 9b60 493f 7427 873e e37c 113f
00000020: ba7d c73e 064d 4ebf 3023 6dbe 3ce6 813d
00000030: ac00 ccbd 3ad0 0f3e 44ff 12bb 8078 613e
00000040: 7b32 d2be 945a 09bd ba44 073f 8e87 ddbe
00000050: ab3c ec3e dbb4 07bf 30d4 37bd a60a b5bc
00000060: 64cf 633e 85f9 073f c30e 0e3d 5513 b3be
00000070: 0d9b 0e3e 7ed4 7cbf 4d3d 3cbe 9c80 21bf
00000080: c7de 4d3e ed9c 13be 51c8 053e c3ab 883e
00000090: 11fc 69bd 5920 a13e 7372 ea3e 8bd7 fd3b
000000a0: 320d 663e a244 d5bd c49d 163e ffe4 fdbd
000000b0: 96ef 2bbe c21b 033f 2d42 03bf a16b 123e
000000c0: bc0f 7c3d fd53 ad3d 72db 5c3f e1aa dabe
000000d0: 933b ff3e a6eb a4bc a5fa 293e dbc0 e6be
000000e0: 4815 b13e 6ab0 19bf f065 653e 86c2 7c3e
000000f0: b2f5 02be 2169 aa3d 315c 833e b7a8 aabe
00000100: 22e4 b4be 0719 0bbf c3c1 1abf 6a59 0d3e
00000110: 28e8 223e 52db a13f a949 733e 799b babd
00000120: 65ff e2bd 72b8 20bf 6a9b afbd 3113 123f
00000130: 708f 25bf 4d0e 4fbe ae82 0cbd c82b 91be
00000140: b1d4 e53d 26c7 ec3d 76ae 453e 13bc 16bf
00000150: 3e7d 183f 5749 aabe dc39 b23d a73a b5be
00000160: 3576 84bd 30de 193f 0be1 5ebe ed75 3ebb
00000170: 4b34 b6be 8176 f1bd 243f 19bf c0ea c1be
00000180: 6132 bbbd 9f22 57be 0b00 473f 7c19 c23d
00000190: 260c d93c c4f5 173f 2629 253e 1bd3 19be
000001a0: aab0 33be 042a a1be 084e 40be a353 993d
000001b0: 2ad5 e5bd 893d a93c 351f dbbe 3a3c 50be
000001c0: 3edc 463e f8c9 bf3e eaae 5ebc aa61 e13e
000001d0: 685d e53d c6bb ba3e 26b1 72be f3e3 dbbd
000001e0: 9c46 4f3e b15f e73e 698b fabe e6bb ae3e
000001f0: c81f a2be d9ee d13d 5123 17be 111a 123f
00000200: e6e1 1e3e b46e 553d 1877 af3d 6423 4d3e
00000210: 53bb 773c 5218 24be 556c c6bd fb5b a4bd
00000220: 278e d1bd 3066 4bbe d0b3 af3d 84ac 0d3e
00000230: 7818 25be cf3c 22bc ccc8 e63d 3c85 2a3e
00000240: ff07 ba3d 94a3 7b3d d049 27bd 1b31 2dbe
00000250: 0923 6b3e 5562 3d3d b68f 41bd 8581 2bbb
00000260: 4776 34be 8b86 033e 34e8 acbd 4e69 363e
00000270: 4be8 723d c5f2 cabd e1c2 353d 5c9c 043d
00000280: bffa 0cbf 0f2a adbe 0ec5 c23e 3826 393e
00000290: 61d4 c73e 106f e5bd 9031 d53d 1567 873e
000002a0: bdd1 023f 1576 4cbe 97f6 c23e 1663 c23e
000002b0: 27ae cfbe a913 c83e 1830 42be 89c6 59bc
000002c0: f0c9 163f 437e 5b3e bb10 b03e bcca d3be
000002d0: ead3 a23e 75b5 e7be ffdf 163e ee3f 35be
000002e0: 9321 83bd eec0 ae3e e02c bcbe 5ef6 103e
000002f0: 696c e4be 0663 31be 7ced 5a3b 849a df3e
00000300: 97a0 9ebd 8ecb d33c 689f 4a3e 218b df3e
00000310: 98c8 b53e 8b35 9ebe e346 0fbd 9682 813e
00000320: 30b2 a93d 51ea 6ebe 5e6e 273e 2d62 cabd
00000330: be8d 353d 2909 093e 0880 acbe 3ad6 36be
00000340: e57f 163f ee06 a43e 6f53 523e f2c6 8d3e
00000350: 12b5 e73e 41ee 7b3b 5ed8 4dbd 622b 87be
00000360: 7660 60be efbe e7be 37d8 453e 002a a5be
00000370: a065 973e 9ee1 bcbd 321e 71be db3a 07bf
00000380: 7dc9 8bbe 5791 c0bd be4a 183b 45e5 413f
00000390: d7bd f93d f239 67bf 9903 123f 2bd5 633f
000003a0: 9030 c33e 153a 133c 4956 213e 8be8 c13c
000003b0: 5823 213e ce7a 263f c22e 20be cc21 903f
000003c0: 1c10 a43e ba2e 1a3f 981a 2f3c 36c0 2cbe
000003d0: 6d13 29bd f69c bf3c ac8a 5e3e 7f4e 3bbe
000003e0: 75d4 8abe 4f0c 4fbf 3202 12bd 80b0 bb3d
000003f0: f9cd 89bf ba5a 5e3e 39ff 883e aae0 6d3f
0.50259894 -0.118641175 -0.13620475 -0.02191996 0.61779726 0.78663033 0.26397288 0.56831187
0.3896311 -0.8058628 -0.23157954 0.06342742 -0.09961066 0.14044276 -0.0022429982 0.22018623
-0.4105414 -0.033533648 0.52839243 -0.43267483 0.46140036 -0.5301034 -0.044880092 -0.022099804
0.22247082 0.5311511 0.034682047 -0.34975687 0.13926335 -0.9876174 -0.1838276 -0.6308687
0.20104514 -0.14415331 0.13064696 0.26693544 -0.057125155 0.31469992 0.45790443 0.007746642
0.22465971 -0.10413481 0.1470862 -0.12397193 -0.16790614 0.5121423 -0.5127285 0.1429887
0.061538443 0.08463285 0.86272347 -0.42708495 0.4985014 -0.020131897 0.1659952 -0.45069012
0.3458655 -0.6003481 0.22402167 0.2468358 -0.12789038 0.08320833 0.25656274 -0.33331844
-0.35330302 -0.54335064 -0.60451907 0.1380364 0.15908873 1.2645056 0.23758568 -0.09111685
-0.11083869 -0.6278144 -0.08574565 0.57060534 -0.64671993 -0.20220299 -0.034304313 -0.28353715
0.11222208 0.11561422 0.19304833 -0.5888073 0.59566104 -0.3325908 0.08702442 -0.3539631
-0.06467859 0.60104656 -0.21765535 -0.0029061988 -0.3558677 -0.11790181 -0.5986197 -0.37874413
-0.091404684 -0.210093 0.7773444 0.09477517 0.02649505 0.59359384 0.16128978 -0.15021937
-0.1754786 -0.31477368 -0.18779767 0.074866556 -0.112222984 0.020659225 -0.42797247 -0.20335475
0.19419953 0.37458777 -0.013591507 0.44019824 0.111994565 0.36471385 -0.2370039 -0.10736837
0.20241779 0.45190194 -0.48934487 0.3412773 -0.31664872 0.10250635 -0.14759566 0.57071024
0.15515861 0.052107528 0.08567637 0.20033032 0.015120345 -0.16024902 -0.096886314 -0.080253564
-0.102321915 -0.198632 0.085792184 0.1383534 -0.16122615 -0.009902193 0.11268768 0.16652387
0.090835564 0.061435297 -0.040841877 -0.16913263 0.22962584 0.046236355 -0.047256194 -0.002616973
-0.17623244 0.12844293 -0.08442727 0.17813608 0.059303563 -0.09909586 0.044375304 0.03237568
-0.5507011 -0.3382115 0.38040966 0.18080986 0.3902922 -0.11202824 0.10409844 0.26445833
0.51101285 -0.1996692 0.38078758 0.37966222 -0.40562555 0.390775 -0.18963659 -0.013291963
0.5890188 0.21434884 0.34387764 -0.41365612 0.31802303 -0.45255628 0.14733885 -0.17700168
-0.06402888 0.3413157 -0.36752987 0.14156482 -0.4461396 -0.1732293 0.0033405712 0.43672574
-0.07745474 0.025853898 0.19787371 0.43660834 0.35504603 -0.30900225 -0.034979712 0.25294942
0.0828594 -0.23331572 0.16350695 -0.09882007 0.04432463 0.133824 -0.3369143 -0.17855158
0.587889 0.32036537 0.2053964 0.27690846 0.45255333 0.003844157 -0.050255172 -0.26400286
-0.21911797 -0.45262858 0.1932076 -0.32258606 0.2956972 -0.092227206 -0.23546675 -0.5282418
-0.2730216 -0.094027214 0.002323791 0.7574046 0.12194412 -0.9032279 0.5703674 0.88997144
0.38122988 0.008986016 0.15755571 0.023670455 0.15736139 0.65031135 -0.15642837 1.1260314
0.3204354 0.6022755 0.010687493 -0.16870198 -0.04127829 0.023390274 0.21732587 -0.18291663
-0.27115217 -0.80878156 -0.035646625 0.09164524 -1.0765983 0.21714297 0.2675722 0.92920935

lstm.bias_ih_l0 f4 [128]
00000000: cf40 2f3e 0645 5f3e 026f 5d3d 0375 af3d
00000010: 34d5 f83c c81c ad3e b131 003e 6467 c43e
00000020: c575 683e c5c5 263e 86ca 5e3b 8ba0 203e
00000030: 73dd 89bd a9c0 3e3e b95b 6c3e 02c6 3e3e
00000040: 1c68 193e f8b3 053e aaa1 e83d 25f0 b93c
00000050: 1dff ac3d fc48 bbbd 16a9 a93c d389 f13d
00000060: 745f 853e 0b6e 013e a7a4 1d3d 1eb5 b33e
00000070: de5d bd3d 99ed 9d3e 8862 953e 36ee 323e
00000080: 4b10 5bbe 14da debb 8745 3f3e 1180 853e
00000090: ba45 58b9 5b4d ff3d 73c3 ec3d 2b82 27be
000000a0: 28a9 b0bc 3228 8a3c 43f3 513d 346b bc3d
000000b0: 6e71 583e f8c9 443d 3133 b73d eca4 bebd
000000c0: d9f0 083d 8083 013c f046 b03d d3c5 1c3e
000000d0: 5a52 bf3c 5069 0f3e c49c adbb 8b3f 2bbd
000000e0: 7e34 133e 2e5b 40bd b361 f1bd 4e7d b6bd
000000f0: b00d 6a3e fb5f 8b3d f535 8f3d d648 40bd
00000100: d445 f53d 5fda 28be 3074 8c3d db45 b83d
00000110: ea8f 083e a804 1cbe 4889 e53b e9e7 45bd
00000120: 8969 f1bd c3f7 b6bd eda0 27bd 1c3f a8bc
00000130: eefb ce3d 9aa2 ef3d 1931 353d fdbe 1c3d
00000140: 5ca2 9ebd 01e0 343e c39a b03d 016d 023e
00000150: c220 053e fb6c a33d ed96 243e 641f f93d
00000160: cc25 98ba 8a33 21be b637 113d ef77 1d3e
00000170: 3e93 c1bd 25dd 883d 0b53 4dbe 0464 04bd
00000180: f4da 713e f3c9 0d3e b301 873e 00b4 1a3d
00000190: de7b b83c aac3 a33e 0d02 713e 5d6b c43d
000001a0: 5e5d 94bd e68f 8a3e 8346 35bd 34f1 dcbd
000001b0: db5b 343d 4a92 c23d 8629 753e c335 773e
000001c0: 3bb7 9abd 6820 1e3e 4c60 e63d 6942 6b3d
000001d0: d537 913e ab62 aa3d a6a6 b73d 47e3 ac3d
000001e0: cf88 f13d 7d8f 073e 5509 303e a2ae a73d
000001f0: 9c06 b43d d90d a4bd c577 1f3e 0eb8 723e
0.17114566 0.21803674 0.054060943 0.0856724 0.0303751 0.3381102 0.12518956 0.3836013
0.22701176 0.1628638 0.0033995225 0.15686242 -0.06731691 0.18628182 0.23081864 0.18630221
0.14981121 0.13056934 0.1135896 0.022697518 0.084470965 -0.0914478 0.02071051 0.11793866
0.26049387 0.12639634 0.038487103 0.3509912 0.09246419 0.30845335 0.29176736 0.17473683
-0.21392934 -0.0068008993 0.18678866 0.2607427 -0.0002062534 0.12465926 0.115607165 -0.16358249
-0.021565035 0.01686487 0.051257383 0.09200135 0.2113702 0.048044175 0.08945311 -0.093088
0.033432815 0.007904887 0.0860728 0.15309839 0.023354698 0.14005017 -0.005298229 -0.041808646
0.14375493 -0.046961956 -0.11786213 -0.08910619 0.22856784 0.06805416 0.06992713 -0.04694446
0.11976209 -0.16489552 0.068580985 0.08997699 0.13336149 -0.15236151 0.0070048906 -0.04831687
-0.11787707 -0.089339755 -0.040924955 -0.020537905 0.101066455 0.11700936 0.044236276 0.038268078
-0.07745811 0.17663576 0.086232685 0.12736894 0.13000777 0.07979771 0.16073199 0.121641904
-0.0011607944 -0.15742317 0.03545352 0.15377782 -0.09451912 0.06682805 -0.2005121 -0.032321945
0.2361868 0.13846569 0.26368484 0.037769318 0.022520002 0.31985217 0.23535939 0.095907904
-0.07244371 0.2706291 -0.0442567 -0.10788193 0.044032913 0.09500559 0.23941621 0.24141602
-0.0755448 0.1544205 0.11248836 0.05743638 0.2836291 0.08319601 0.089673325 0.08441787
0.11793672 0.1323833 0.1719106 0.081876054 0.08790323 -0.08010454 0.15573032 0.23703024

lstm.bias_hh_l0 f4 [128]
00000000: 75a9 b33e 03ec 193e 7247 853e 3b53 4a3e
00000010: 83fc c0bd 8bf9 d23e c0ac 173e 53e5 b63d
00000020: f3ab 243e 9e47 c73d 0a01 113e 6fd1 2abc
00000030: b4a5 2b3e d47f dd3d 75a7 f23d fb2c 733e
00000040: 592e 893e 822d 863e 5633 b53e 121a 2a3e
00000050: f220 c6bc c9e2 073e a70d 893d 95da 863d
00000060: d304 c53d 5d4e 7b3e d333 253d 658b dd3d
00000070: 605e 35bc c06c 843e 1525 223a e694 663e
00000080: e3f5 48be f238 20bd 7fca a4bc a5e5 7e3e
00000090: 2925 df3d ce40 02be e6d4 083e debe 83bd
000000a0: ebcf fb3c 9da1 89bd f6b7 c63d 65e8 a6bd
000000b0: b83e a3bc 9e26 803e 2261 61be 50fc 3b3e
000000c0: ef5f 513e 33f9 ec3d d75b ccbc e027 ac39
000000d0: 404a bb3d bd52 62bd 1684 423e 3265 c53d
000000e0: 1080 a1bd 0811 cabd b903 ccbd ca26 6fbd
000000f0: 00a8 ae3c 7635 203e fe5b 3bbc b238 9b3b
00000100: 73f2 5b3d c1da af3d 1e97 9e3d 6201 f13d
00000110: 9523 c73d c537 bb3d 854b 553e 4fba e5bc
00000120: 80cb 273c cc30 a8bd f40e aabd b265 7eba
00000130: 58c0 9e3a 063a 803d 5784 2dbd 1f89 6c3c
00000140: fc45 053e 9946 0f3e aed0 a83c 4f6d a5bb
00000150: f1e8 2b3e 2313 33be 5c01 1c3e 950b e5bd
00000160: 7f21 3ebe 7af8 11be 4b3b b6bd 81d3 0d3e
00000170: 1e56 22be 64a8 32be 1ada 023e 961c 96bd
00000180: 7bd0 fc3d 7c5c dfbd 3402 8e3e 4b44 7a3e
00000190: e1dd 9bbd 3e9f 8b3e 7213 2c3e c46a a33e
000001a0: 1afb 4dbd 05a3 453e 7fba 43bd b6b6 15bd
000001b0: 8262 093e 4c4d 923d f741 5c3e b535 b83d
000001c0: 325d 5e3e 338d 56bc a951 783e 1789 563e
000001d0: 1825 193e 7e22 35bd e5e7 0c3e 003a 7dbd
000001e0: 9ce1 1f3e f72f 923e f0b2 723e bcdd 9e3e
000001f0: 4a39 a03e 2576 fe3d 2301 063e 2a1c 8c3e
0.35090223 0.15031438 0.2603107 0.19758312 -0.09423163 0.4120601 0.14811993 0.08930459
0.16081218 0.09730457 0.14160553 -0.010425909 0.1676243 0.10815397 0.11848346 0.23747627
0.26793173 0.26206595 0.3539073 0.16611508 -0.024185631 0.13270105 0.06692057 0.0658466
0.09620061 0.24541612 0.040332627 0.10817603 -0.011069864 0.2586422 0.0006185335 0.22517738
-0.19625048 -0.039116807 -0.020116089 0.2489229 0.108957596 -0.12720034 0.13362464 -0.064328894
0.030738791 -0.067202784 0.097030565 -0.081497945 -0.019927368 0.25029463 -0.2200971 0.18357968
0.20446752 0.115709685 -0.024946136 0.00032836106 0.091450214 -0.055254687 0.189957 0.09638442
-0.07885754 -0.0986653 -0.099616475 -0.0583866 0.021320343 0.15645394 -0.011435507 0.004736983
0.053698014 0.08586646 0.07743667 0.11767842 0.097235836 0.091414966 0.2082959 -0.02804294
0.010241389 -0.08212432 -0.08303633 -0.0009704485 0.0012111766 0.06261067 -0.042362537 0.014436989
0.13014978 0.13991775 0.020607319 -0.005048431 0.16788079 -0.17487769 0.15234894 -0.1118385
-0.18567465 -0.14254943 -0.08898028 0.13850214 -0.15853164 -0.17447048 0.12778512 -0.07329671
0.12344452 -0.10906312 0.27736056 0.24440114 -0.076106794 0.2726993 0.16804293 0.31917393
-0.050288297 0.19300468 -0.04778528 -0.0365512 0.13416484 0.071436495 0.21509539 0.08994619
0.21715239 -0.013095188 0.24249901 0.20950733 0.14955556 -0.044222347 0.13760336 -0.06182289
0.15613407 0.2855222 0.23701072 0.31028545 0.31293708 0.12424878 0.13086371 0.27365237

fc.weight f4 [96, 32]
00000000: 5b78 363e d696 d33e 9d57 85be a38c a4be
00000010: 7986 d5be 8e13 a4bd 82e0 7cbe 8241 12be
00000020: f2c2 a4be b123 d43d 0ddf b3be a99e 88be
00000030: 2962 783e e757 28be c312 3b3d bf22 89be
00000040: e751 a4be 2c7e cebe decc b9be 32a1 843e
00000050: 384f a1be dc64 343e ce3a 7bbe a7f3 823e
00000060: da90 8f3e 8998 193d 45f3 8e3e 2e78 92be
00000070: 9e73 ec3e c758 b43e fccf fd3e 9450 aabe
00000080: a578 0d3f fcc2 57be 1dff 6bbe 1530 f4bb
00000090: 1d03 ea3e 23b7 4dbf 0a70 8cbd 0655 5d3f
000000a0: e5cd c83e 21e2 d3be d733 c63e a611 afbe
000000b0: 025c cebe 4390 1d3e 74f3 5fbf 9776 d53e
000000c0: ddaa 663e cce2 8cbf 18f3 59be c144 f7bd
000000d0: f00e 3f3c d402 cebe 4256 c8be c8cf 8cbe
000000e0: 804f 48be a3ba db3e 94b7 99be c585 87be
000000f0: f8ea 27bf 4b19 edbe ca71 753f eb3d 5e3f
00000100: 374b c13e a8fc 023f 41af a5be 51dd b8bd
00000110: f2bc cfbe f798 bb3c 97fb 62be 2306 88be
00000120: 809d 15be ea0f 353e f9be 74be f7d9 88be
00000130: 2a20 c23e cf2e d8bd 2798 043e e9ee a6be
00000140: 30d8 85be e0f1 a0be 8d89 cdbe ab82 3e3e
00000150: 0c80 b2be bd4e 8d3d ed8d bcbe d626 d83e
00000160: 27b8 983e 83a0 47bd eaf6 7b3e 534f 49be
00000170: 3ec1 5a3e 6685 1f3e c6d0 bd3e 3e11 05be
00000180: 3ad7 ac3e 97b8 b93e a72e d3be 070e d5bd
00000190: bc49 c6be 6c4c 4dbd 2138 25be b662 2cbd
000001a0: bf11 84be 1914 c73d 76e7 95be e1d0 bbbe
000001b0: 7ee4 113e 90ee 2dbe 2f16 303e 788e b9be
000001c0: bac9 30be 55dd d3be e8a5 d2be 23c3 603e
000001d0: f263 e3be 28c5 203e d625 19be a9ab 823e
000001e0: c107 d13e 6d39 263d dfca cd3d f7db 64be
000001f0: 3977 7b3e 1478 b33e 85d6 a63e 6dd8 82be
00000200: 455e 4d3e 29eb fc3e 76f5 a3be 17bd a5be
00000210: cc36 1bbe 6453 dd3d 5025 c3be 9b6d 50be
00000220: 6e03 9dbe 389a 0b3e 91e7 8ebe a408 04be
00000230: 489f 393e 071d 35be 47da 7b3e 4a26 a2be
00000240: 32e3 7fbd 8a86 85be 981c 37be e870 223e
00000250: e01f b5be 60ae 2c3e 4b66 afbd 720e da3e
00000260: f8a6 e53d 31be 5d3d 1979 233e e2c3 6bbe
00000270: e212 a33e 0ea7 a23e 1e13 ae3e 15bb 68bd
00000280: 7931 c03e babc cd3e e6ca aabe ca6e 99be
00000290: af64 d8be c68f 3a3c 0e69 a5be 62ba 1ebd
000002a0: ef3e d0be bd7f c43d 136e 10be 7348 9ebe
000002b0: 1531 443e 4786 81be a6bd 543e 369e a7bd
000002c0: 0346 b4be d64a 3ebe 10ad ccbe c55b b23e
000002d0: 245b 3dbe 0b16 003e a529 c7be d1eb ac3e
000002e0: c85c 783e 2c6f f73c 1d85 933e 36cd 3cbe
000002f0: 7e93 d13e c0f5 9b3e 9356 fb3e 1790 f2bd
00000300: a5bd a53e 0142 9d3e 3e80 44be 12b6 b0be
00000310: 81de 1abe 76e2 813c 7c49 23be d494 3fbe
00000320: da89 58be 628d cd3e e10d b3be 2da0 babe
00000330: 8846 433e 0d7c 1bbe 93cd 1f3e e397 3abe
00000340: c7b8 92be c1e5 22be 3666 81be a90b 2c3e
00000350: 08cf 9cbe 7e55 723e c795 8abe 37df 3f3e
00000360: 1656 2b3e 6c77 42bb c6ea c93e f970 35be
00000370: 735d ee3e ce68 753e f1c5 b33e 4dbf 61be
00000380: 0cee 9d3c e031 623d 0d5d d0bd 6d28 c3be
00000390: 3b13 9cbe ed52 d33e ed74 93bc 8705 b5be
000003a0: d756 37be c0dd 023e c5b6 83be dab1 8abe
000003b0: 5d47 a8ba 62f2 2ebc acd6 073f 2a93 e0be
000003c0: f672 a9be 576b febe d977 43bd ea24 353d
000003d0: 32df 87bd 1bfc 163e 24fb c8be 2675 c73d
000003e0: c582 023f 79fd ae3e 0c75 173d 15ab 0c3e
000003f0: 4446 c13e 1469 7c3d 0ac4 fb3c 8f98 15be
0.1781935 0.41326016 -0.26043406 -0.32138547 -0.41704157 -0.08011542 -0.24695018 -0.14282802
-0.3217998 0.1035837 -0.35131112 -0.26683548 0.24256195 -0.16439782 0.04567219 -0.26784322
-0.32093737 -0.40330637 -0.36289114 0.25904232 -0.31505752 0.176166 -0.24534151 0.25576517
0.280402 0.037498984 0.27919975 -0.28607315 0.4618196 0.35223982 0.49572742 -0.332646
0.55262214 -0.21070474 -0.23046537 -0.007452021 0.457055 -0.8035757 -0.06857307 0.8645786
0.39219585 -0.4138346 0.38711426 -0.34193152 -0.4030457 0.15387063 -0.87480855 0.4169204
0.22526117 -1.1006713 -0.21284139 -0.12073661 0.011661276 -0.40236533 -0.3912831 -0.27502275
-0.19561577 0.4291583 -0.30022871 -0.26469246 -0.6559291 -0.4630836 0.95876753 0.8681323
0.37752697 0.5116677 -0.3236027 -0.09026588 -0.4057384 0.022900088 -0.22166286 -0.26567182
-0.14610863 0.17681852 -0.23900975 -0.26728794 0.37915164 -0.10555803 0.12948667 -0.3260415
-0.261415 -0.31434536 -0.40144005 0.18604533 -0.34863317 0.06899784 -0.3682703 0.4221713
0.29827997 -0.04873706 0.24605909 -0.19659166 0.21362779 0.15578231 0.37073344 -0.12994859
0.33757955 0.36273643 -0.4124653 -0.10403066 -0.3872813 -0.05012171 -0.16134693 -0.042086326
-0.2579479 0.0972063 -0.29278153 -0.366828 0.14247319 -0.16985536 0.17195962 -0.36241508
-0.17264453 -0.413798 -0.411422 0.21949439 -0.4441219 0.15700209 -0.1495584 0.2552159
0.40826228 0.04058211 0.1004846 -0.22349535 0.24557199 0.3505255 0.3258554 -0.25555745
0.20055492 0.49398163 -0.3202321 -0.32370827 -0.15157622 0.10806921 -0.38114405 -0.20354311
-0.3066668 0.13633049 -0.27911046 -0.12893921 0.18127167 -0.17686854 0.24594985 -0.31669837
-0.06247253 -0.26079208 -0.17882001 0.15863383 -0.3537588 0.16863394 -0.08564433 0.42589146
0.112134874 0.05413646 0.15964164 -0.23023942 0.31850344 0.31768078 0.3399896 -0.05681904
0.37537745 0.4018305 -0.33357924 -0.29967338 -0.42264315 0.011386817 -0.32306713 -0.038751967
-0.40673015 0.09594677 -0.1410449 -0.3091465 0.19159348 -0.25297758 0.2077547 -0.08184473
-0.35209665 -0.18583235 -0.39975786 0.3483564 -0.18491799 0.12508409 -0.3889896 0.33773664
0.24254143 0.030204378 0.28812495 -0.18437657 0.4093284 0.3046093 0.49089488 -0.11843889
0.3237125 0.3071442 -0.19189546 -0.3451391 -0.15123941 0.015855055 -0.15946001 -0.18709117
-0.21146336 0.4014693 -0.34971526 -0.3645033 0.19069874 -0.1518404 0.15605764 -0.18222003
-0.286566 -0.15907957 -0.25273293 0.16801323 -0.30626702 0.23665425 -0.27067396 0.18737493
0.16732058 -0.0029673232 0.3943693 -0.17718877 0.4655567 0.23965761 0.35111955 -0.22045632
0.019278549 0.055223346 -0.10173998 -0.3811678 -0.30483422 0.41274205 -0.01800009 -0.3535578
-0.1790422 0.12779903 -0.2572538 -0.27088815 -0.0012838651 -0.010677906 0.5306194 -0.43862277
-0.3309552 -0.4969127 -0.047721718 0.044224657 -0.06634368 0.14744608 -0.39254105 0.09739141
0.5098079 0.3417776 0.03697686 0.13737138 0.3774892 0.061623648 0.030733127 -0.14608978

fc.bias f4 [96]
00000000: 25d9 83be 998f 7a3e 81c2 0fbe 8238 9dbe
00000010: bb1d 69be a6ae b7be 48f5 c2bd 87a3 d9bd
00000020: 21bc 65bd e541 07bd 333b adbe adc7 c2be
00000030: d844 56be a972 b5bc 2d87 98bd 1287 e6be
00000040: 53d7 76be 09cd 81be 4e0d 40be 21b5 88be
00000050: 427b a0be 2508 10be f9c9 b4bd 744c 6ebe
00000060: 2240 6dbd 0c0e afbe 095f 95be 9112 b4be
00000070: 67c7 f7bc 2286 afbe 1123 8cbd a8f7 80be
00000080: f26f 0ebe ac01 2dbd f648 0bbe e65e b0be
00000090: 9d88 50be d272 cabc 633e 9ebe 8ccc fbbd
000000a0: e914 acbe b544 96bd bb9b 0abd 201d 20bd
000000b0: 014d fa3c 7056 f4bd 74cc c03d 1fc7 71be
000000c0: 2c1a babd 4c8b cbbd e4b4 1abd 999f 9abe
000000d0: 788b 923e 8f53 e73d 4694 abbe b7aa 62be
000000e0: 0f23 2c3e 571a b7be 8408 46be 9983 a7be
000000f0: dc66 fdbd 0724 91be 6f91 84be ecbb 50be
00000100: d4c2 92bc acc0 a6be 4573 063e 7fb1 fe3d
00000110: b188 ae3d c7be 1e3d 87de 8a3e 9ff4 8b3e
00000120: b0b3 be3b e362 823e 1dcd 4e3e 8066 2d3e
00000130: 7987 ec3c 7d5a 303d aa91 ed3d 0309 7cbc
00000140: 4ffb a83e fdaf 843e 5fb2 09be 0ca7 d33c
00000150: 1ea7 273e dc70 b13d 2195 81bc 03c9 0dbe
00000160: 550f 953e 88f1 08be 229d 463e 3dd0 92bb
00000170: feec 4fbe eee7 36bd f4a9 e0bd c861 acbe
-0.25751606 0.2446884 -0.14039041 -0.30707175 -0.22765248 -0.35875434 -0.0951944 -0.106268935
-0.056087617 -0.033021826 -0.33834228 -0.38042966 -0.209247 -0.0221494 -0.07447658 -0.45024925
-0.24105577 -0.25351742 -0.18755075 -0.2670069 -0.31344038 -0.14065607 -0.08827586 -0.23271352
-0.05792249 -0.34190404 -0.2917407 -0.35170415 -0.03024645 -0.34282023 -0.06842626 -0.25188947
-0.13909891 -0.042237923 -0.13602051 -0.34447402 -0.20364614 -0.024712954 -0.30906972 -0.122948736
-0.33609703 -0.073373236 -0.033839922 -0.039090276 0.030554296 -0.11930549 0.09413996 -0.23611115
-0.09087023 -0.09938678 -0.037770167 -0.30199888 0.2862203 0.112952344 -0.3351156 -0.22135435
0.16810249 -0.35762283 -0.19339186 -0.3271759 -0.123731345 -0.283478 -0.25892207 -0.20384187
-0.017915167 -0.32568872 0.1312991 0.124361984 0.085221656 0.03875616 0.271229 0.2733507
0.0058197603 0.2546607 0.20195432 0.16933632 0.028873192 0.043055046 0.11600049 -0.015383008
0.33004233 0.25915518 -0.1344695 0.02583649 0.16372344 0.08664104 -0.01581818 -0.13846211
0.2911326 -0.13373387 0.19395879 -0.0044803903 -0.20305249 -0.04465478 -0.10969916 -0.3366835
